model.tflite (tflite, 53368 bytes, 16 tensors)

sequential/conv2d/Conv2D/ReadVariableOp f4 [1, 3, 3, 8]
00000000: 94da 183e a0c6 6ebd 4d05 e9bd cdb7 65be
00000010: 3c76 0cbd 586f ddbd 6e1e acbe d3b4 253e
00000020: 882d d23c 8b70 27bf 55ba 1e3d 6b43 25bd
00000030: 8fac 98bc f856 a7be cd45 c93d 8e47 ebbd
00000040: f1fd 073e 1e1f 45bd 54e1 b23d df54 e03e
00000050: 383c 5d3d f370 96bd 0cd6 7f3e 6214 5c3a
00000060: 0722 fabd b028 033e d392 423e 51a6 54bb
00000070: d347 93be 7aab c73d 208e 41be bee9 b73d
00000080: dd21 d4bd 9e0a 60be b84d e33d d3b8 a1bd
00000090: faf3 e33d 0e3c 79be f74b 08bd 2380 82be
000000a0: f89b 23be 9c0a d73e 77a4 bbbd 229d c23e
000000b0: 293d c1bd 0db2 d63d 590b 03bd 9f31 15be
000000c0: 65c0 65be 924e 8f3d 1f8c 92bd da5b 29be
000000d0: b0be a43e 0bf0 81be 1d14 54be 99e3 b5bc
000000e0: 4f89 3abd 4a7d b9bc 2cf4 b13d 8215 d63b
000000f0: 2d0f 0fbe 9de3 bc3e b108 733d b13e 983e
00000100: 6faf 91bd 52b4 7c3e 2436 2abe 926d 4b3e
00000110: fe59 09bd 8b4e dc3d 9fe6 933c a690 1a3d
0.14927131 -0.058294892 -0.11377964 -0.22433396 -0.034292445 -0.10812253 -0.33616966 0.1618226
0.025656477 -0.654061 0.03875192 -0.040347498 -0.01863697 -0.3268354 0.098277666 -0.11488257
0.13280465 -0.04812538 0.08734384 0.43814752 0.054012507 -0.07345762 0.24983996 0.0008395371
-0.122135215 0.1280849 0.19001321 -0.0032447765 -0.28765735 0.097495034 -0.18901873 0.0898013
-0.103580214 -0.2187905 0.11098808 -0.078965805 0.11130519 -0.24339315 -0.03327557 -0.25488386
-0.15977466 0.42000282 -0.091622286 0.38010508 -0.094354935 0.10483179 -0.031993244 -0.1456971
-0.22436674 0.06997408 -0.07155632 -0.16538945 0.32176733 -0.2537845 -0.20710798 -0.022203254
-0.045541104 -0.02264275 0.0868915 0.0065333256 -0.13970633 0.36892405 0.05933446 0.2973533
-0.071135394 0.24678162 -0.16622216 0.19866017 -0.03353309 0.107571684 0.018054305 0.037735604

sequential/conv2d/Conv2D_bias f4 [8]
00000000: 0620 b340 9feb 9740 2c88 d23f 479a 02c0
00000010: 4cb9 bdc0 8442 6ac0 4a06 8240 e2ae 37bb
5.597659 4.7475123 1.6447806 -2.0406663 -5.9288692 -3.6603098 4.0632677 -0.0028027822

sequential/conv2d_1/Conv2D/ReadVariableOp f4 [8, 3, 3, 8]
00000000: d920 c73d 3d08 8c3d 1c10 773d a4d1 bbbd
00000010: 64e7 093e 8e0f 67bc 254c 88bb 5c23 4cbd
00000020: 4fea 5b3e 2e92 dbbd 7094 9a3d 606a 6ebd
00000030: 5dab 953e 5b6c 76be 50ad 493d 63cd eb3c
00000040: 568d 1d3f 5b78 b5c0 804e b8bb 5829 533e
00000050: 3ea6 35bf 7d85 68bf 3c5f b93e b658 21c0
00000060: 44bf f13d 0de0 2dbd 5beb 043e afb3 c9bd
00000070: 99bb 1a3e 47fc aabd 024f 223d 1c18 d4bc
00000080: bed3 01bc 7e64 893d bb58 c0be 8f6a 383e
00000090: 8b5f 943e 8265 80be 7a71 05be 97d9 703d
000000a0: e4bf 8e3f 649b 87c0 d282 a93e 44e4 153d
000000b0: 30c2 4abf 907f 11c0 0886 8d3e dc92 c6bf
000000c0: 85e7 d13d 2e93 89bd 9891 a8bc 4040 87bd
000000d0: d200 043e f7dd 023d 72f9 fe3d d24f 083c
000000e0: 48b0 c73e 8b95 87be a461 a6bd 30a0 433e
000000f0: a8dc 803e bf74 22be caaa a83d 8d8d 4ebc
00000100: b11a 7f3e 9a2a 1ac0 05fd f5bc b70a 82be
00000110: 5a48 bebe d3f2 b9bf 23c5 793d d204 75bf
00000120: 51a9 1c3e 2680 683b 6194 54be e5a0 ffbd
00000130: 1d2f 243e e63d 983d 7fbc 363e 9289 843d
00000140: 8b48 53bd 2bfb da3e 7cab 21bd cb0c 17bf
00000150: d9db 1dbd d709 513e 7463 5f3e f19a 3c3e
00000160: bd6b 4abf 2f43 a83e 269d 20c0 4764 fa3d
00000170: 35eb 8bbf 9457 f0be e922 2abf 09a8 0bbe
00000180: 55ab 4d3e dbd5 ee3c ef33 cd3d 4830 01bd
00000190: 8b1c 833d d5dd 9f3c 798f a7bc ad45 7bbe
000001a0: 399d 7ebd c5c6 b33e 8ddc abbd eed1 afbe
000001b0: 1b42 6f3e 385f b5bd e346 1b3e 1a81 2cbe
000001c0: 061d f2bf 8cd7 153e 7af8 e4be 72e6 d93b
000001d0: 0f31 9bbf c56f a03c 1ef5 a6bf 89d3 76be
000001e0: 2092 8e3e cd4e ac3d 7e02 4a3e 9749 e0bc
000001f0: 96cd 393e 6d30 a6bd 9be8 c3bc db69 f33d
00000200: 920d a6bd c226 40bf e0ea a53d 3faf 7cbe
00000210: 207a a03d 1c10 21be 38bb d9be 1c0b 5cbe
00000220: efd4 40bd adf1 8cbe 67a2 8abe f0bb 4a3e
00000230: 0721 dcbe 464d a5bf e6c2 67c0 2303 9039
00000240: ce06 2bbf 28c1 20be aa8f f1bd 9831 2abe
00000250: d5a4 be3d c9a3 8b3e 470e d4bf 951c f63c
00000260: a0ab 803e 2c05 e3be 073c c93d d697 293e
00000270: 31ea 083e ea18 d5bd f54e d1be fd0b 223d
00000280: 5617 a2be 8e03 263e 6d1a f6be c83b e13d
00000290: 8b5c e23e 91e5 abbe 8119 2d3e 39b8 f2be
000002a0: db37 27bf ac75 7c3b da73 cabe 3ba9 b4bf
000002b0: 5a9e 31be e4ca 11bc 062d eebf c12f 193e
000002c0: 1c59 633e 2318 54be fcef e43b 29a5 3a3c
000002d0: eb0a 3a3e 4901 faba 120b 953d bf09 883e
000002e0: 43f3 123e fa83 863c c0aa d3be 6a0a 79be
000002f0: 38dc 1d3e 58d3 94be ef85 b43e a0b0 063e
00000300: ab23 3abd 4756 49bd 96db 503e 8ce6 a1be
00000310: 7594 0abc 9c7a dcbd da1f 1bbf 4e0d 9d3d
00000320: bda5 dc3e 1856 123a 5e0c 67be 80b9 37be
00000330: de69 3f3e 42e1 963e b202 9abe 58f1 6b3e
00000340: c776 f5bd 9b7a 60bd 4a57 2e3e 69f7 aabd
00000350: 7b12 cebc ba4b a53d a18a 053c c9b3 c8bc
00000360: 0c81 d33d 0c45 d6bd d1ff dfbe 0c64 67bc
00000370: 3bc3 fabc 3241 46be 3039 1d3e d243 37bd
00000380: 6a36 b1be c337 e3bc ca7f e7be 4902 fbbd
00000390: e005 2ebe a635 14be 0839 163e c620 89be
000003a0: 19e0 a93d 2624 01bf 7913 a43d 5c4a 1fbe
000003b0: bd0e cfbe e19f 7e3d 65e6 3f3f 11c2 a7be
000003c0: 5f76 8f3d 22e9 263e 3c56 a23d 74df 46bd
000003d0: 6d84 85bd 467d 77bd 329a 0cbd eebc aabd
000003e0: 551b b1be 9705 333e 43ab e3be 88a7 293c
000003f0: 38f9 21bf ac32 8bbe fcfb de3e 47aa de3d
0.09723062 0.06837509 0.060318097 -0.09170845 0.13467175 -0.01410283 -0.0041594678 -0.04983841
0.214761 -0.10721241 0.075478435 -0.058206916 0.29232302 -0.24064772 0.04923755 0.02878446
0.61543787 -5.670942 -0.0056245923 0.2062124 -0.7095679 -0.90828687 0.3620547 -2.5210395
0.11804059 -0.04245 0.12980406 -0.09848725 0.15110625 -0.08348899 0.03962613 -0.025890402
-0.007924018 0.067086205 -0.37567696 0.18009399 0.28979144 -0.25077444 -0.13031569 0.05880126
1.115231 -4.2377186 0.3310762 0.036594644 -0.79202557 -2.2734108 0.2764132 -1.5513568
0.10249237 -0.067175254 -0.020577237 -0.066040516 0.12890938 0.031949963 0.12449922 0.008319812
0.3900168 -0.2648128 -0.08124092 0.19104075 0.25168347 -0.15864848 0.082357004 -0.0126069905
0.24912526 -2.4088502 -0.030027876 -0.253988 -0.37164575 -1.4527229 0.06097902 -0.9571048
0.15298964 0.0035476773 -0.20759727 -0.1248186 0.16033597 0.07433681 0.17845343 0.06471552
-0.051582854 0.4276975 -0.03947018 -0.59003896 -0.03853974 0.2041391 0.21815282 0.1841848
-0.79070646 0.32863757 -2.5095916 0.12226158 -1.0931154 -0.46941817 -0.6645952 -0.13638319
0.20084889 0.029154709 0.10019671 -0.031540185 0.064019285 0.019514957 -0.020454155 -0.24538298
-0.062161658 0.35112587 -0.08391676 -0.3433985 0.23365061 -0.08856052 0.1516376 -0.16846123
-1.8915107 0.14633006 -0.44720823 0.0066497857 -1.2124346 0.019584546 -1.3043554 -0.24104132
0.2784586 0.084134676 0.19727513 -0.02737884 0.18144831 -0.08114705 -0.023914626 0.11885425
-0.08108057 -0.7505914 0.081014395 -0.24676226 0.078357935 -0.15728801 -0.4252565 -0.21488613
-0.04707807 -0.27528134 -0.27077028 0.19798255 -0.42993948 -1.2914207 -3.6212707 0.00027468157
-0.6680726 -0.15698683 -0.1179498 -0.16620481 0.09308783 0.27273396 -1.6566857 0.030042926
0.2513094 -0.44339883 0.098259024 0.16561827 0.13370587 -0.104051426 -0.40880552 0.039562214
-0.3165843 0.16212294 -0.48067036 0.109977305 0.4421123 -0.33573583 0.1690426 -0.47406176
-0.65319604 0.0038522286 -0.39541513 -1.4114145 -0.17345563 -0.008898471 -1.860749 0.14959623
0.22201961 -0.20712332 0.006986616 0.011391916 0.18168227 -0.0019073869 0.07277502 0.26569936
0.1435061 0.016420353 -0.4134121 -0.24320379 0.15416038 -0.29067492 0.35258433 0.13153315
-0.045444172 -0.049154546 0.20396265 -0.31621206 -0.0084582465 -0.107655734 -0.60595477 0.07668553
0.43095198 0.0005582287 -0.22563311 -0.17941856 0.18692729 0.29468733 -0.3008018 0.23041284
-0.119855456 -0.054804426 0.17025486 -0.08347971 -0.025155297 0.08071084 0.0081507275 -0.02449979
0.10327348 -0.104623884 -0.4374986 -0.014122974 -0.030610671 -0.19360808 0.15353847 -0.044742413
-0.34611827 -0.02773655 -0.45214683 -0.12256295 -0.16994429 -0.1447359 0.14670193 -0.26782817
0.08294696 -0.50445783 0.080115266 -0.1555571 -0.40440932 0.06216419 0.7496093 -0.32765248
0.07004999 0.1629987 0.07926604 -0.048552945 -0.06519399 -0.060422204 -0.03432674 -0.08336817
-0.34591165 0.17482601 -0.444666 0.010354884 -0.632709 -0.27187097 0.43551624 0.108723216

sequential/conv2d_1/Conv2D_bias f4 [8]
00000000: 9d95 58bf 7111 4140 8673 79bf 626d e4be
00000010: cb52 ba3f d9c9 0940 a582 7c3f 9f34 683e
-0.8460329 3.0166895 -0.974419 -0.44614702 1.4556516 2.1529448 0.9863685 0.22676323

sequential/conv2d_2/Conv2D/ReadVariableOp f4 [8, 3, 3, 8]
00000000: 5ad6 a33e 1f63 e7bb 2abf e63d dd21 993c
00000010: 0e20 6c3d 32b8 95be 84db 943e 5eec 803d
00000020: f36e 63be d421 073e 51f3 133e 050d 40be
00000030: f7d9 4cbe 49f9 60be e20f 803d 8053 dfbe
00000040: 8ef8 94bf 93f0 923d 3407 833d 8995 e03d
00000050: 27bb 88be 6ffd b6be 3cb5 a83c 1aca c73c
00000060: 2759 c13d 5818 963c 7043 4ebc 9f6a 83bd
00000070: 78c4 a53d eed0 0cbf be08 cd3d bb77 143d
00000080: b63d 79bd a6a4 8c3d 300d 403e a745 81bc
00000090: d1fe 48bd 5450 bfbe bf51 24be 1b8d 35bf
000000a0: 722d 3abe f03f 483d 3dd2 b93d 4b67 90be
000000b0: afbf 8b3e 03dc 023f 912b 983e b6da 443e
000000c0: 1f72 edbe ceec 9d3d e064 a03c fe78 963c
000000d0: 3764 afbd e099 7cbf 9f91 7bbe ea73 62be
000000e0: 9cc3 e63d 3f5a 0abd 4a24 93bc 0caa a43d
000000f0: 55ab ec3d 5650 73be 9777 fd3c 3115 14be
00000100: 529e 0f3d f25e 54bd 9c7f 4c3e 15d5 a6bd
00000110: 5d58 80bd 8a89 8abd ae5a 053e fb86 1d3e
00000120: 79f8 ae3e 3b48 03bf db1e af3d 8e29 acbd
00000130: 8b9e 9e3d 1309 eb3d 6983 ee3d d862 1a3e
00000140: 4cd1 2dbc d107 80be 05f8 983e b4bf 893d
00000150: 8bf2 1bbd ff9f 7ebf db7d e4bd 2ac8 00be
00000160: 5ce6 aabf fedd 973e a3a9 4ebf b003 07bf
00000170: c0ef 04c0 0abc 50bf 0c8d 76bf f991 b3bf
00000180: 8dd3 e5be 7b89 ab3d 5a41 883b 1fd8 0cbd
00000190: 2413 5fbc 7377 dabc 35a3 fb3d 7e57 aa3c
000001a0: 84c8 06bf 1e87 c8bc adba acbe 17da 493e
000001b0: 31f9 13be 85d8 24c0 ef36 f6be 71b7 3bbf
000001c0: 33fb 86bf 3e7d b63c 32a2 8dbe f062 a9bf
000001d0: 77ec eabf 5af6 69bf aefb 66be 7b08 7abf
000001e0: 5d16 20bf 1302 eb3e 4ae4 b8bd 9b89 bf3d
000001f0: 0c31 99be 0ba8 52be 37ae 86be 428f 37be
00000200: eaed 6fbd 4317 6b3e d4d4 2fbf 557c 3fbe
00000210: 2fdd af3c c530 4cbf abb6 283e 96c5 183e
00000220: b706 69bf 6f94 f53e 46cc 783d a022 85bf
00000230: 4778 e4bf 88e8 19bf c026 57be cf76 4cbf
00000240: 4e90 9c3e 10b0 23bd 2eee c23c db7f bbbc
00000250: f435 1fbd 4c27 49be 0175 d73d f559 9ebc
00000260: 9562 4ebf e63e 2f3e 2b82 ab3d 53d6 04bf
00000270: c76c 28bf ee04 8fbd 14fb 8cbc a88c 64be
00000280: 24f0 74bf 6b61 b33e fcd9 1fbe 731b 05be
00000290: 0c76 19bf 03e6 953d 8b7f b7be c9d3 53be
000002a0: e7ed 48bd ade2 88bd e055 873d 2e09 3dbd
000002b0: ad48 883c 3d96 c0be 7fe0 703e bb6b e83d
000002c0: 15ab f6be 34f5 ef3c 8eaf c0be 111d 06bf
000002d0: 12e2 c5be 69a3 abbd 7da3 373d b061 903d
000002e0: d450 353f 2f2d 093d ea2b fdbd 862e 9abf
000002f0: b479 69bd e767 df3c a862 773e 4eb2 bd3d
00000300: 8ebb 023e d86c 53be d1fd d23d 275d 02bd
00000310: fb11 a53b 1ac6 49bf a4d2 f13d cb01 9d3d
00000320: 565b a5bd 0a48 8dbd 8dd1 9cbe fc1b 6e3d
00000330: 5393 a1bb 66ac f93c 45c2 bd3d c128 cf3d
00000340: 184a b43e 4b64 1ebf 9810 47bd f939 10be
00000350: 5e9b a73d d8a8 f0be e9d2 a83e 9eaa fe3d
00000360: b9cb 973d 6273 2f3e 6f1d 87be 726f 493c
00000370: b914 a5be ac75 0b3d 8e94 d63d acbe d53d
00000380: 529d c1bf bd2a c63d 477b 7a3d 869f ae3d
00000390: 1c99 d9bf d2f9 96be 94ff 26bf ace6 34bf
000003a0: 0b66 6dbd 6abe 67c0 b86f 5bbe 9b80 fabd
000003b0: 0872 ba3c 9859 c0bf e287 9abe 142e d4bf
000003c0: 6f42 033e 22ba 1c3e db24 a13d 6819 72bc
000003d0: 09e9 2dbe 5ce7 433b a70a e7bc 99ed ab3d
000003e0: c463 41bf b8c0 f23d 014e b23d 7769 523e
000003f0: 1701 edbd 43ff 69be 38df 80be df1f 75bf
0.31999475 -0.0070613767 0.112669304 0.018692905 0.057647757 -0.29242092 0.29073727 0.062950835
-0.22210293 0.13196498 0.14448287 -0.18754967 -0.20005022 -0.21970095 0.062530294 -0.43618393
-1.1638353 0.07174792 0.06397858 0.109660216 -0.26705286 -0.3574023 0.020594232 0.024388362
0.094408326 0.018322155 -0.012589321 -0.06416821 0.08094114 -0.550063 0.10011433 0.036246996
-0.060849868 0.06867342 0.1875503 -0.015780283 -0.049071137 -0.37365973 -0.16046809 -0.70918435
-0.18181399 0.0488891 0.09073303 -0.28203806 0.2729468 0.5111696 0.2972074 0.19224057
-0.4637613 0.077111825 0.019579351 0.01836824 -0.08564036 -0.98672295 -0.24567269 -0.2211453
0.11267778 -0.03377747 -0.01796164 0.08040246 0.115561165 -0.23761114 0.030940814 -0.14461209
0.035063095 -0.05184836 0.19970554 -0.08146111 -0.06266854 -0.06764515 0.13022873 0.15383522
0.34173945 -0.5128209 0.08550807 -0.084063634 0.077450834 0.1147634 0.11646158 0.15076768
-0.010608982 -0.25005963 0.29876724 0.067260176 -0.038073104 -0.99462885 -0.111568175 -0.12576357
-1.335155 0.29661554 -0.80727595 -0.5274 -2.0771332 -0.81536925 -0.9630897 -1.4028922
-0.44887963 0.08375832 0.004158181 -0.034385797 -0.013615403 -0.026668286 0.12286989 0.020793673
-0.5264971 -0.024478491 -0.33736172 0.19712101 -0.14450528 -2.5757153 -0.48088786 -0.73326784
-1.054541 0.022276517 -0.27662808 -1.3233318 -1.8353413 -0.9139153 -0.22556946 -0.9766919
-0.62534124 0.4590002 -0.09027918 0.09352418 -0.29920232 -0.20571916 -0.2630479 -0.17925742
-0.058576502 0.22958092 -0.68684125 -0.18699773 0.021467773 -0.79761916 0.16475932 0.14919123
-0.9102587 0.47964808 0.060741685 -1.0401192 -1.7849206 -0.6012044 -0.21010876 -0.7986879
0.30578846 -0.03996283 0.023795214 -0.022888115 -0.038869813 -0.19643897 0.105203636 -0.019330004
-0.80619174 0.17113838 0.08374437 -0.5188953 -0.6579098 -0.06983362 -0.017209567 -0.22319281
-0.95678926 0.35035262 -0.15610498 -0.12998752 -0.5994575 0.07319262 -0.35839495 -0.20686258
-0.049055006 -0.0668386 0.06608176 -0.046151333 0.016636217 -0.37614623 0.23523138 0.11348673
-0.481774 0.029291727 -0.37633938 -0.523881 -0.3864904 -0.083807774 0.04483365 0.070498824
0.7082646 0.033490356 -0.123618916 -1.2045448 -0.05700083 0.027271224 0.24158728 0.092625245
0.12766859 -0.2064699 0.10302318 -0.03182712 0.005037544 -0.78817904 0.11807755 0.076663576
-0.080740616 -0.06898506 -0.30628625 0.058132157 -0.0049308925 0.030477714 0.092655696 0.10115195
0.3521278 -0.61871785 -0.04859981 -0.14084615 0.08183931 -0.47003818 0.32973412 0.124348864
0.07411904 0.17133859 -0.26389644 0.012294637 -0.32242373 0.034047768 0.10477553 0.104367584
-1.5126135 0.096761204 0.061152723 0.085265204 -1.699985 -0.29487473 -0.6523373 -0.7066448
-0.057958644 -3.620997 -0.21429336 -0.12231561 0.022759452 -1.5027342 -0.30181795 -1.6576562
0.12818311 0.15305379 0.07868358 -0.014776565 -0.16983427 0.002989254 -0.028203322 0.083949275
-0.75542855 0.118531644 0.08706284 0.20548044 -0.115724735 -0.22851281 -0.25170302 -0.95751756

sequential/conv2d_2/Conv2D_bias f4 [8]
00000000: ae2c 743f 09e1 4abd 28c5 b63f deac e33f
00000010: d6e4 8abf 2f8a 36bf b555 b9bd 7a66 cb3f
0.95380676 -0.049531016 1.4278917 1.778713 -1.0851085 -0.713046 -0.090495504 1.5890648

sequential/conv2d_3/Conv2D/ReadVariableOp f4 [16, 3, 3, 8]
00000000: 6b3c 00bf 4a91 adbd a34f 3bbe b795 3d3d
00000010: 96f4 8bbe c062 09bc c095 4abd 379c 8a3d
00000020: 61a4 c839 b0ea 873e 0657 9cbd d297 943e
00000030: d568 963d 3202 8d3c d307 b9bd eb79 a7be
00000040: 58b1 74bd a37f 47bd 7c9d 8ebe 5ebd 42be
00000050: 3cb0 433e 925a 6dbe 40ac d33e 7969 cb3d
00000060: bc9a 87be 62e5 1fbf 7bf2 bbbd 7762 413d
00000070: 4ea4 b93d fde6 0d3e fd40 1dbe 936c 43be
00000080: 7680 a23c 8b26 4ebd 9e49 f23b 54ae 643c
00000090: b7a8 ebbc 409f e63c c550 6b3d 392f 49be
000000a0: 023d 94bd 392f 79be cb00 52bd a2b0 34be
000000b0: 2e6a 863e 0894 053d 19c0 bf3d 3b5c 213f
000000c0: dbed 823b d94c 4ebf 014e fd3c ca2a 513d
000000d0: 3000 f83d 580d 293d 0a9c 45bd 9b0a 29be
000000e0: b698 a2bd c271 93bd 3360 6dbd 61cd 1abf
000000f0: 2526 12bd 8ac3 4dbd 6d7b 683d 0b32 96bc
00000100: 577d 633d a356 aabb b62e dd3d 3207 aabc
00000110: 0e59 18bd 1857 8dbe dbb5 a3bf aa50 1d3e
00000120: 2364 e4bd bec0 933d f1b6 a4be d311 05be
00000130: 23ba 79bd d460 37be 9433 09bd 8439 30bd
00000140: 2555 dc3d 6c3c db3e 702a 183e 18c6 28bd
00000150: 12d6 303d 3cea 49be 0d42 c0bd c4d4 983c
00000160: 1ee9 5ebc c141 2c3e 62ec 80be f2cd 863c
00000170: ccde a13e 8893 51bd 3e5c 823d ffb2 48be
00000180: 80e6 fa3c 944a 503e ab4f 993d 3588 4b3e
00000190: 2a31 59be e641 98be 0800 223e 3b07 9dbd
000001a0: 3896 bd3d 72a6 053f 64a3 9ebd 3cd6 8c3e
000001b0: 3979 a4be e3ea ca3c 9c94 c43d 27f8 68be
000001c0: 1486 373e 1768 143e 80f5 533b c213 813e
000001d0: 4905 983e 5ed9 d8be fc16 57be fb5f 58be
000001e0: 5e15 0e3d 85e4 603e 2998 5e3d bea2 063e
000001f0: f71c eabd 3ac1 2d3e 131a 6dbd 3b92 05be
00000200: 5021 54bd 2f58 20bd 9348 b5bd 24ec 21be
00000210: d8f2 24be ad88 833e 7eb6 013d a725 63be
00000220: 8d62 75bd e6eb e5bd 797e 07be 61e7 cabe
00000230: 9277 fabe 9bd0 963d 91ca 1cbe 38a6 d3be
00000240: eaed 48bd edb4 30bf 4e5e b93d 755b a3be
00000250: 6dd6 aabc 9b41 023e bb11 92bd b8a6 93be
00000260: 6349 87be 5cbc c4bd f693 ff3d 24bd 42bd
00000270: 15bb 24be 3908 fa3c 0e8c 70bd ea1e eebd
00000280: 2423 12be 2107 323f 3902 a3be 413e 18be
00000290: 210f 5dbf 7e6e 393e 200c b3be ba19 eabe
000002a0: 28b8 9d3c 3ad6 2fbe 1806 b7bd 54ff 7abe
000002b0: fb77 3e3e e9e4 22be 6b35 7b3d fd65 58bf
000002c0: cbff 9f3d f3c3 8d3e eb87 fabd 78e3 d0bd
000002d0: 7506 acbe b67e 3b3d 54a3 d33a b7f2 82be
000002e0: 8dbf b83d 6a5e 293f cbe0 89bf 399a 0bbf
000002f0: 20c8 b1bf 4ce7 87bd 7f5b 9bbe 93fb 873d
00000300: 3d90 8e3e fb83 05bf 3935 3b3e 4d61 89be
00000310: 170d f23d 464f 573d 0edb 5cbd e2af 0ebf
00000320: 834a 88be 3dc0 503e 6e06 9fbd 0d2f c2bd
00000330: 43a8 87be 689a f43d e49f ca3d 42df 723c
00000340: 5639 693e 3c4d 05be ace6 d6be a1c1 a2be
00000350: 3720 79be ae07 b3be 38d7 cbbe 874b 263e
00000360: 8d56 d1be e71f 4bbf 384e 59bf cb2e 55bd
00000370: a0c1 b73c 6141 1ebf 75bf b9be 7776 11bf
00000380: 2968 b7bc 168b 47be 0b91 c9bd b998 2abe
00000390: 1ca7 aa3d 2d45 9ebd bc31 6e3d 96db 1fbd
000003a0: baf5 cf3d da2c b4bd fe1e 3cbf 2e32 f0be
000003b0: a351 a8be c599 d53e c230 a53e d2b1 df3d
000003c0: d847 c43e d91f 03bf 74d8 5ebd b926 aebe
000003d0: 2de4 553d 0857 d3bd 34d2 5b3d a9fa 463c
000003e0: c789 1a3c f83e 1fbd d94c 9e3d c2d0 87bd
000003f0: 7d2e c73d 30c1 c3bd e539 e13c c30a b63d
-0.5009219 -0.08474977 -0.18292098 0.046285357 -0.27335042 -0.00838536 -0.04945922 0.06768077
0.00038269444 0.2654624 -0.07633786 0.2902208 0.07344214 0.01721296 -0.090346955 -0.32710204
-0.05973944 -0.04870571 -0.27854526 -0.1901755 0.19110197 -0.23179081 0.41342354 0.09932227
-0.2648524 -0.62459385 -0.09177109 0.047213044 0.09064542 0.13857646 -0.15356822 -0.19084387
0.019836646 -0.050329726 0.0073940298 0.013957579 -0.028766973 0.028152108 0.057450075 -0.1964692
-0.07238199 -0.2433442 -0.051270287 -0.17645505 0.26252884 0.032611877 0.093628116 0.6303136
0.0039956397 -0.8058601 0.030920984 0.051066197 0.12109411 0.04127249 -0.048244514 -0.16507952
-0.079392835 -0.07199432 -0.05795307 -0.60469633 -0.03568091 -0.05023531 0.056758333 -0.01833441
0.055539455 -0.005198316 0.10799925 -0.020755384 -0.037194304 -0.2760551 -1.2789873 0.15362802
-0.11151912 0.07214497 -0.32170823 -0.1299508 -0.06096853 -0.17908031 -0.033496454 -0.0430236
0.107584275 0.42819536 0.14859939 -0.041204542 0.043172903 -0.1971826 -0.09387598 0.018656142
-0.013605384 0.16821958 -0.25180346 0.016455624 0.31615293 -0.051166087 0.0636525 -0.19599532
0.03062749 0.2034095 0.074858986 0.19876178 -0.21210161 -0.29737777 0.15820324 -0.07667395
0.092571676 0.522071 -0.07746008 0.27507198 -0.32123736 0.024770206 0.095986575 -0.22750913
0.1792224 0.14492832 0.0032342374 0.25210387 0.29691532 -0.42353338 -0.21004862 -0.21130364
0.034688346 0.21962173 0.05434433 0.13148019 -0.11431306 0.16968241 -0.057886194 -0.13044064
-0.05178958 -0.0391466 -0.08851733 -0.15812737 -0.16108263 0.25690213 0.03166818 -0.22182332
-0.05990844 -0.11226635 -0.13231839 -0.39629653 -0.4891935 0.07364007 -0.15311648 -0.41337752
-0.049055018 -0.6902607 0.0905119 -0.31905714 -0.0208542 0.12720339 -0.07132288 -0.28838134
-0.26423177 -0.09606239 0.12479393 -0.04754366 -0.16086991 0.030521499 -0.058727317 -0.1162699
-0.14271218 0.6954213 -0.31837633 -0.14867498 -0.8635121 0.18108556 -0.34970188 -0.45722753
0.019252852 -0.17171565 -0.08936709 -0.24511462 0.18600456 -0.15907635 0.06133024 -0.8453062
0.078124605 0.2768856 -0.122329555 -0.10199636 -0.33598676 0.045775138 0.0016146698 -0.25575802
0.090209104 0.6615969 -1.0771726 -0.545322 -1.3889198 -0.06635913 -0.30343243 0.06639781
0.2784442 -0.5215451 0.18282022 -0.26832047 0.11818903 0.052565835 -0.053919844 -0.55737126
-0.26619348 0.20385833 -0.07764898 -0.094816305 -0.2649556 0.11943513 0.09893778 0.014823737
0.22775778 -0.13017744 -0.41972864 -0.31788352 -0.24328695 -0.34966797 -0.39812636 0.16239749
-0.40886346 -0.79345554 -0.8488498 -0.05204658 0.022431195 -0.6181851 -0.36278883 -0.5682139
-0.022388535 -0.19486651 -0.09842118 -0.16659822 0.08332655 -0.07728038 0.0581529 -0.039027773
0.101542905 -0.08797617 -0.7348479 -0.46913284 -0.32874784 0.4171888 0.32263762 0.109225884
0.38336062 -0.5122047 -0.054405645 -0.34013918 0.05221956 -0.10319334 0.053667262 0.012144723
0.009432263 -0.03887841 0.07729501 -0.06631614 0.09725664 -0.09558332 0.027493427 0.088887714

sequential/conv2d_3/Conv2D_bias f4 [16]
00000000: 4706 08c0 1da6 0ec0 da3f cbbf 820e f2bf
00000010: 661a 0e3f 32f0 30c0 292f bdbe 31ce 1240
00000020: b552 d2bf d3f5 ef3f e73a 53c0 58b0 d4bf
00000030: aa18 afbe 6865 1bbf 258b 14c0 a6c7 de3f
-2.1253831 -2.2288888 -1.5878861 -1.8910677 0.5550903 -2.7646604 -0.36950043 2.293835
-1.643149 1.8746895 -3.30047 -1.6616316 -0.34198505 -0.6070161 -2.3209927 1.7404678

sequential/conv2d_4/Conv2D/ReadVariableOp f4 [16, 3, 3, 16]
00000000: 4038 033c 56c5 27bd b65b 043e 34cc fe3d
00000010: 8855 bc3d 303c 983d f009 8e3d 2745 f8bd
00000020: 8ba7 9ebd ea2b 95bd 71a1 0dbe a410 733d
00000030: f8fb bcbd d0a0 0c3d fcb1 30bd 3c4f 1d3d
00000040: 82e3 bb3d 1267 9a3d 884e 8fbd 7eee c2bd
00000050: 27ec 22bc a1c2 e73d 4945 4ebd 470d 5a3d
00000060: ab59 9dbb 0229 753d c9c3 033e fc16 6d3d
00000070: 5718 f2bd 23d4 573e cded 093e b406 333d
00000080: c2b5 e6bd 80d1 8e3d 3875 303d 10bc 4b3c
00000090: 7208 0e3e a8bf ee3d d0ac 243d 8e3e 53bd
000000a0: b455 a03d 37c1 ccbd 741b be3d 00ec 5039
000000b0: a263 eabd 0225 12be 20fd 99bc 18ab fcbd
000000c0: aade 84bd 98c2 83bc 34df 9cbd 4c07 043e
000000d0: 2e8b 0d3e d84c 6abd fea9 b2bd c0e3 cdbd
000000e0: 2ad2 8b3d 4083 82bb 302f 96bc 581b a9bd
000000f0: 145e 9fbd 8444 a7bd ec79 f1bd c07b 2a3b
00000100: b71f 653d 96f2 703c a526 86be 51b5 643d
00000110: 965b 033d 3117 98be 5395 bfbe 9036 13be
00000120: da6d b2bd b87d bcbe 3d20 c03d f2fd 94be
00000130: 4222 00bf 44d7 603e a556 80bf cec1 273e
00000140: cc1f 353d 8cb3 003e a41b 183d f0d9 9c3d
00000150: 36a0 95bd c0d5 133d 9e93 c33d e858 273d
00000160: c48d 533d 805e f8bc 7249 5cbd 019c 8fbd
00000170: 08fe f93d 931a fcbd 7cda 0c3d c81f 5f3d
00000180: 24ab b6bc daba bc3d 1987 f9bd 7bb3 adbd
00000190: 4ca5 dbbc db77 82bd fe65 b3bd f084 d8bc
000001a0: 3b47 fbbd 9294 00be a0cf 12bd 6c87 f13d
000001b0: 003a bd3a 40a8 133e 086f 953d 00ce ab3d
000001c0: ac88 c53d 12f4 af3c 0863 4dbd 61ae 01be
000001d0: 4559 46bc f055 e23c 8ab5 e2be 162d 68be
000001e0: e5d4 20be 8fb6 e9bd 0f45 2b3e 638b 223e
000001f0: 2499 30be 057f 153e c204 153c e715 233e
00000200: 427e 18bd 8034 593b 4922 eabd 866b d73d
00000210: 188d 4e3d 2685 aabd e680 bcbd 3c64 593d
00000220: ac7a e9bd ae73 c03d 18b9 e5bd d26c 57bd
00000230: c0f8 3fbb 8ed2 e5bd 0eaa 0abe e490 153d
00000240: 98ac 63bd 78fb 253d a279 f0bd 0045 6d3d
00000250: 640a 253d ccf3 ea3d be42 4bbd f0e3 fc3c
00000260: d836 c6bd dcf9 09bd 7e54 b73d 9412 ef3d
00000270: 7cf5 a03d 02e1 ebbd b015 9d3d 4232 dabd
00000280: 643f 8bbc 836d 173e bdb7 663e 3435 ee3d
00000290: f571 8fbe 188a a3bd a307 fe3d 26e2 5dbc
000002a0: 82df 4d3e aef8 c2bb 7241 8c3d c335 bebd
000002b0: c899 af3d 39d9 2ebe a8d2 623d 3766 84bd
000002c0: 800f b2bb 0349 05be 1c71 003d f207 58bd
000002d0: e460 393d 0404 8c3d 7465 7d3d bab6 a8bd
000002e0: 00af 543c f62a 9a3d 307a db3d a361 01be
000002f0: 9ec9 adbd 3062 a4bc 729b c5bd 80f8 693c
00000300: 004b 283b e435 083e 7cab c13d 8c8c cbbd
00000310: f88c db3c 8468 11bd 2648 79bd 7e06 c8bd
00000320: 8446 52bd aa01 04be e887 75bd d452 dfbd
00000330: 70f9 d93d b860 9e3c 750a f2bd 483d a2bc
00000340: 4587 37be 7fcb df3d a071 133e 1c67 1dbc
00000350: d298 c2bd 0ad2 89bd b6ac cd3d d5ed 0ebe
00000360: f828 ba3d b59e 9cbb ceab dbbd dcbf 80be
00000370: eacc ff3d f06e 1dbe 6c17 a0bc 1d68 d1bd
00000380: 0895 cebd 2c44 b9bc 0067 91ba 6491 4a3d
00000390: b721 c2bd c872 fd3d 9a80 023e e037 b0bb
000003a0: de94 99bd 4452 a3bc 20a7 d93d 866e 113e
000003b0: baba d63d 7065 07be d610 cb3d 18f4 b13d
000003c0: 585d bd3c e834 9ebc 6e8d 973d e868 033e
000003d0: a0a9 343c e0cf 703c 7a84 a6bd 4e6b 8cbd
000003e0: 9415 35bd ce81 863d 4431 f23d f0a7 053e
000003f0: f46c 2cbd 409a 25bc 5596 e9bd d8a1 de3c
0.0080090165 -0.04095968 0.1292561 0.124412924 0.09196001 0.07433355 0.06935489 -0.12122565
-0.077468 -0.072837666 -0.13831116 0.05934204 -0.09227747 0.03433305 -0.04313849 0.038405642
0.09174253 0.0753919 -0.069974005 -0.09518145 -0.009943998 0.113164194 -0.050359044 0.05323532
-0.004801949 0.05985356 0.12867655 0.057883248 -0.11821049 0.21077017 0.1346962 0.043707564
-0.11265136 0.06973553 0.04308054 0.012434974 0.13870409 0.11657649 0.04020387 -0.05157333
0.078288466 -0.0999779 0.0928258 0.00019924343 -0.11444785 -0.1427193 -0.018797457 -0.12337321
-0.06487782 -0.016084 -0.0765976 0.12893409 0.13822624 -0.05720219 -0.0872383 -0.100532055
0.06827195 -0.0039829314 -0.018333048 -0.082571685 -0.07781616 -0.08167365 -0.11790833 0.0026013702
0.05593845 0.0147062745 -0.26201358 0.05583698 0.032069765 -0.29705194 -0.37418613 -0.14376283
-0.08712359 -0.36814666 0.09381149 -0.29099995 -0.50052273 0.21957117 -1.0026442 0.16382524
0.044219777 0.12568492 0.037135735 0.07658756 -0.073059484 0.03609252 0.0954964 0.040856272
0.05164887 -0.030318499 -0.05378098 -0.07012177 0.12206656 -0.12309756 0.03438805 0.05447367
-0.022298403 0.092153266 -0.12183971 -0.08481499 -0.026812218 -0.06370517 -0.08759688 -0.026430577
-0.122694455 -0.12556675 -0.035842538 0.11793408 0.0014436841 0.14419651 0.07296568 0.08388901
0.09645209 0.021478686 -0.05014327 -0.12664177 -0.012106244 0.027628869 -0.44279128 -0.22673449
-0.15706213 -0.114117734 0.16725563 0.15873484 -0.17245919 0.14599235 0.009095373 0.15926324
-0.037229784 0.0033142865 -0.114323206 0.10518555 0.050427526 -0.08326177 -0.09204273 0.053074107
-0.11400351 0.09397064 -0.112169445 -0.052594014 -0.0029292554 -0.11221801 -0.13541433 0.03651513
-0.05558452 0.040523022 -0.117419496 0.05792713 0.040293112 0.11472282 -0.049624197 0.030870408
-0.09678429 -0.03368555 0.089516625 0.11673465 0.078593224 -0.11517526 0.07670152 -0.10654117
-0.016998 0.14787869 0.22531028 0.116312414 -0.2801663 -0.07985324 0.124038 -0.0135426875
0.20104793 -0.005950055 0.0684842 -0.09287598 0.08574253 -0.17075051 0.05537668 -0.064648084
-0.0054339767 -0.13016133 0.03135787 -0.052741952 0.045258418 0.068367034 0.06186433 -0.08237977
0.012981176 0.075277254 0.10716665 -0.12634902 -0.08485721 -0.02006635 -0.096487895 0.014280438
0.002567947 0.13301808 0.09456536 -0.099389166 0.026800618 -0.035500064 -0.06085982 -0.09766863
-0.05133678 -0.1289126 -0.059944063 -0.1090447 0.106432796 0.019333228 -0.11818401 -0.019804612
-0.17922695 0.10927486 0.14398813 -0.009607103 -0.095018044 -0.06729515 0.100427076 -0.13957913
0.090898454 -0.0047796615 -0.107261285 -0.25146377 0.12490256 -0.1537435 -0.019542418 -0.10224936
-0.10087019 -0.022615515 -0.0011093318 0.04945506 -0.09479087 0.123754084 0.1274437 -0.0053777546
-0.07499097 -0.019936688 0.1062758 0.14202318 0.10484834 -0.13222289 0.099153206 0.08689135
0.023115799 -0.019312337 0.074000224 0.12832987 0.01102677 0.014697999 -0.08130737 -0.06856404
-0.04421003 0.06567727 0.11825803 0.13052344 -0.042096093 -0.010107577 -0.11405627 0.027176782

sequential/conv2d_4/Conv2D_bias f4 [16]
00000000: f6a9 73be 105d 95be 514d c2be 3221 2d3f
00000010: e886 6f3f 32f9 203f 30b2 b8bf aff9 f7bf
00000020: 2c32 b0bf 7712 a840 0452 683f 8ffd 4a3e
00000030: 889a 793f 8f98 6a3f e7af 1bbe 6724 bbbe
-0.23795304 -0.29172564 -0.37949613 0.6762878 0.93565226 0.6288024 -1.4429379 -1.9373072
-1.3765311 5.252254 0.90750146 0.19823287 0.9750142 0.91639036 -0.1520382 -0.3655121

sequential/dense/MatMul/ReadVariableOp/transpose f4 [64, 80]
00000000: 6e1b 3e3e 0fc0 753d 5884 bfbd f19c 8abe
00000010: f511 ab3d db87 803e aa7e 303a 22d3 babd
00000020: f3a7 6a3e 94b6 15be 5b6f c4be 3e8c 723e
00000030: 7a30 f63c 22f9 853e e3fe 99bd 1c3e 15be
00000040: a809 143e 04a9 0fbe 0e43 75bc c00f bebe
00000050: c931 443d a866 a6bf ec27 98bd deee 593e
00000060: b0eb 4b3e b67f 61bf ccc0 26bf e58f 7cbb
00000070: b8f7 28be bd43 7fbe 1e96 d13d 0bbe 73be
00000080: adc1 0bbe c761 813d a170 3b3d 2b5b c9be
00000090: 38a2 83be 8cbe 943c 09ff b2bd 5598 83bd
000000a0: e40d fd3d a250 06bb e37a 07be 3e79 7fbe
000000b0: c925 6dbe c68d 9fbd ade4 47be e3c7 7fbc
000000c0: f27a c2bc efa0 0a3e fb12 993d a5ed b9bd
000000d0: d438 b7be 6208 8a3d c0c1 afbd 4c55 f83c
000000e0: 4422 41bd a9d4 073b 6374 7fbe 7507 14be
000000f0: 3191 92be df43 b4bd a61d 6bbe 319c 31bc
00000100: f948 5ebe efed e93d 4f09 013e 1ab5 3fbb
00000110: 5ce2 58be 89e0 bcbc ca37 dabc 1299 67bd
00000120: c301 2b3e 8899 9ebd 8c33 cabd 2ac9 33bc
00000130: 383e 02be a487 1b3e 9e26 07be 23f9 6bbd
00000140: 010d 1cbd 168b 60be 1e79 923c fdf2 17bf
00000150: 55aa 9a3d 0155 033f 5e80 b13e c247 ed3e
00000160: da44 22be 9803 29be 6e2d 253d a54b a4bd
00000170: f85a 7b3d 4017 333d ead8 b7bf 2ee3 6d3d
00000180: 419e fc3d 988b 09be 8091 9a3d b844 9bbe
00000190: 05b1 a23d 5c7d 303e ea54 33bd 2925 4c3e
000001a0: c3e2 8abe 2f2a aa3d 2746 863d 4ddd 6fbd
000001b0: a06e 823d 51d3 bc3d 56ab 1abf 71f9 bfbe
000001c0: cc33 0c3e d064 ee3d 4083 1cbd fa08 0dbe
000001d0: 484d 523d 0a1c 94bd ae36 11be 15e0 2dbe
000001e0: 593f 70be 9519 21be 9829 eabd 9284 8bbc
000001f0: ebfa 323e b79d 9cbb 854e 19be 32e0 b6bd
00000200: 5cb4 373d e268 b5bd 21cc f13d 1922 3abe
00000210: 9a84 16be e3bc 8ebe 3e5f a2bd c4c8 af3e
00000220: 4a89 87be 04df 51be 841e 66be 7699 45be
00000230: 6911 943e e85c cc3e 7e02 93bf ec99 c73d
00000240: ded6 5cbe 1a85 df3d cb5c 80be 931a d6be
00000250: f88f 05bf 4518 e2bd 454f 66be 627f f8ba
00000260: 6290 25bc 7cab 313e 642e 7dbe 4b12 84be
00000270: f345 333d 3b21 2c3e ca27 7ebd bf78 fbbe
00000280: ea1f c33d a537 a4bf 107f 38bd 1df1 d7be
00000290: f641 9fbd 0359 b4be 857e 8bbf 47bd b1be
000002a0: dd00 a9be 9743 8cbe 27a0 eebb b7e1 e3be
000002b0: 5d20 5dbf 6427 26bf 6f75 64bf 23b6 90be
000002c0: e11b d7bf 2b4d 72bd 9e84 d2bd 6f70 ae3e
000002d0: 8840 883e f723 be3c 12ea b53e 35da 1cbe
000002e0: 894b 98be 5045 7abf 1a78 0cbf 9484 e7be
000002f0: 2a5c 9ebe d8d6 b6be bdc1 32bf 18ce aabe
00000300: 4f02 6bbd 76e5 1abe d2ff d7be aae1 353e
00000310: c8ff bf3e 4c81 eabe aa58 82be f41a dfbe
00000320: bf3f 8dbe 155f 62bf de4a a3be 35cd 2abd
00000330: 4182 15be 7953 f3bd fd77 1dbe abcc 91bd
00000340: b47b ba3e 12f1 833d d369 84bc cea1 25be
00000350: 37b7 2cbe 502a 41bd 68b5 013e cd7c 063d
00000360: c552 c93b 2a9a b63d 25c2 7d3e 38c2 68be
00000370: 744c 323d 04a7 cebd 22b9 743e a755 6cbe
00000380: 8fc2 b93d bf30 163e ae6e e43c 4f7f e2bd
00000390: a127 08bf d56c 883d 167a 5bbd 5130 03bf
000003a0: 96f1 cd3d 886e a8bd 4df5 723e d1dd 133e
000003b0: fb21 9cbe 07d8 b53e 19a7 49be b2fe 373e
000003c0: 6bd9 073c e7e0 ebbc dc11 923e c554 69be
000003d0: 1c06 43bc 02dc 15bf d0e9 e6be 5115 c3be
000003e0: 3398 d7bd 94a4 83bf 0b76 89bf a03f 633e
000003f0: 34db e4be 4a27 59bf a8f2 9fbc 090c a93c
0.18565151 0.059997614 -0.093514144 -0.27072862 0.083530344 0.2510365 0.00067327416 -0.09122302
0.2291563 -0.1462043 -0.38366207 0.2368631 0.030052412 0.26166636 -0.07519319 -0.14574474
0.14456809 -0.14029318 -0.0149696 -0.3712139 0.04789904 -1.3000078 -0.074294895 0.21282527
0.19914126 -0.88085496 -0.65137935 -0.0038537916 -0.16500747 -0.24928184 0.10233711 -0.23802964
-0.136481 0.06317478 0.04576171 -0.39327368 -0.257097 0.018157266 -0.0874005 -0.064255394
0.12356165 -0.0020494838 -0.13230471 -0.24948594 -0.23158945 -0.07790713 -0.19520827 -0.015611622
-0.023740266 0.13537954 0.07474323 -0.0907853 -0.35785544 0.0673988 -0.08581877 0.03031411
-0.04715182 0.002072612 -0.24946742 -0.1445597 -0.28626397 -0.08802008 -0.22960529 -0.010840462
-0.21707524 0.11422335 0.12601207 -0.0029252232 -0.21180099 -0.023056285 -0.02663793 -0.056542464
0.16699891 -0.077441275 -0.09873113 -0.010973254 -0.12719047 0.15188462 -0.13198325 -0.057610642
-0.03809834 -0.21928057 0.017880019 -0.59355146 0.075520195 0.5130158 0.3466825 0.4634381
-0.15846577 -0.16505277 0.04032653 -0.080222405 0.06136605 0.043723345 -1.4363072 0.058077984
0.12334872 -0.13432157 0.07547283 -0.30325866 0.0794392 0.17235321 -0.043782152 0.1993605
-0.2712613 0.08308827 0.06556349 -0.05856066 0.06368756 0.09219993 -0.6041769 -0.37494996
0.13691634 0.11640322 -0.038211107 -0.13772956 0.051343232 -0.072319105 -0.14181015 -0.16980012
-0.23461665 -0.15732415 -0.11433715 -0.017030988 0.1747853 -0.0047795433 -0.14971359 -0.089294806
0.04484974 -0.088578954 0.118065126 -0.1817707 -0.14699021 -0.27878484 -0.07928322 0.3433286
-0.2647193 -0.2049523 -0.22472578 -0.19296822 0.28919533 0.39914632 -1.1485136 0.09746155
-0.2156634 0.10914059 -0.25070795 -0.4181715 -0.52172804 -0.11039785 -0.22491176 -0.0018958861
-0.010105224 0.17350572 -0.24724728 -0.25795206 0.04376788 0.16809551 -0.062049665 -0.4911556
0.095275715 -1.2829481 -0.04504305 -0.42176142 -0.07776253 -0.3522416 -1.0897986 -0.3471472
-0.3300847 -0.27395317 -0.0072822752 -0.44508144 -0.8637751 -0.64903855 -0.8924169 -0.2826396
-1.6805383 -0.059155624 -0.10279201 0.34070155 0.26611733 0.023210509 0.35530144 -0.15317614
-0.2974513 -0.9776201 -0.5487076 -0.45218337 -0.3092969 -0.35710788 -0.6982687 -0.33360362
-0.05737525 -0.15126595 -0.42187363 0.17761865 0.37499833 -0.4580177 -0.2545827 -0.4357525
-0.27587697 -0.88426334 -0.31893057 -0.041699607 -0.14600469 -0.118811555 -0.15377803 -0.071191154
0.36422503 0.06442465 -0.016163742 -0.16175005 -0.16866766 -0.047159493 0.12666857 0.032833863
0.0061439 0.08916123 0.24781092 -0.22730339 0.043529943 -0.100904495 0.23898748 -0.23079549
0.09070312 0.14667033 0.027884807 -0.110594384 -0.5318547 0.06661383 -0.053583227 -0.512456
0.100558445 -0.08224207 0.23726387 0.14440085 -0.30494675 0.35516378 -0.19692649 0.17968252
0.008291583 -0.028793765 0.2852925 -0.22786243 -0.011903312 -0.5853883 -0.4510026 -0.381022
-0.105270766 -1.02846 -1.0739149 0.2219224 -0.4469849 -0.84825575 -0.019524887 0.020635622

sequential/dense/MatMul_bias f4 [64]
00000000: 338f 94bd 34b8 8d3f f02e d2bc 8928 273f
00000010: ecc4 4cbf 266a 18bd cdeb 073f 74c4 12bf
00000020: 04a9 993f c024 993f 95d1 24be 2749 423f
00000030: 1f4f 65be 0d9e a93f e52e 263f 12e1 18c0
00000040: 837d 45bf 2ce8 6ebe 037a ab3e da5a 0cbf
00000050: f015 3f3e 38b7 c33f 600b 93bf 8926 b53f
00000060: 0ccd a23f 2773 a8bd 02e9 babe 6841 2dc0
00000070: fb87 d4be 88f1 e83e 57de cf3e 8a49 7e3f
00000080: 5b04 1b3e e848 983e 7349 b93f 5cbf 873f
00000090: ffdd ac3f 161b 95bf a5dc a23d f16c 9dbd
000000a0: 4995 a2bf 4640 53bf 6e3e 9a3d 7d76 dcbd
000000b0: 887c 90bf 255d b6bf 6b66 a83c fa56 48bf
000000c0: 0817 823e 5f61 aa3f 1fd5 b13f a174 29bf
000000d0: 6f9a e03e 05bd afbf b6af 20bf b630 9abd
000000e0: 5a6e e23f 351e 08c0 fdf0 48be 7ac3 2c3f
000000f0: 5cd9 34bf 420e 043f 8acd 04bf fa2d 4c3f
-0.072538756 1.1071839 -0.025657147 0.65296227 -0.7998798 -0.037210606 0.5309418 -0.57331014
1.2004704 1.196434 -0.16095574 0.7589287 -0.22393464 1.3251358 0.64915305 -2.3887372
-0.7714464 -0.23330754 0.33491525 -0.5482613 0.18660712 1.5290289 -1.1487846 1.4152385
1.2718825 -0.082250886 -0.36505896 -2.707117 -0.41509995 0.45496774 0.4059932 0.9933096
0.1513838 0.29743123 1.447554 1.0605273 1.3505248 -1.1648891 0.07952241 -0.076867945
-1.2701808 -0.8251995 0.07531439 -0.10764787 -1.1288004 -1.4247175 0.02055665 -0.78257716
0.25408196 1.3310965 1.3893164 -0.66193587 0.43867823 -1.3729559 -0.62768114 -0.07528822
1.7689927 -2.1268437 -0.1962318 0.67485774 -0.70644164 0.51584256 -0.5187613 0.79757655

sequential/dense_1/MatMul/ReadVariableOp/transpose f4 [32, 64]
00000000: ce8e 4cbc 3548 4d3d 0269 c6be f8ac a0bb
00000010: edeb 03bc 5ddb 4abd 9099 22bf 2326 e83d
00000020: 2f87 aabc cfad 92bd ff96 6fbe df79 dc3d
00000030: e92d ddbc 285a a83d afc8 e3be 5256 91bd
00000040: 73ff 6d3d d85b 103d 44e9 6dbd abdc 4f3c
00000050: 1ee9 03bf 4a9d d6bb 6a02 97bd 172c 56bf
00000060: 5a35 7a3d a3aa a4bc 6c1b 253e 8b62 153d
00000070: 347c b5b9 882e 92bd e7b8 6bbe 3294 9c3d
00000080: 60f0 0ebe 97e0 1c3d 623b 41bf a2ee ccbe
00000090: c40b c0be 5e5b 093c 20c4 adbe d9f4 b6bd
000000a0: 293b 2bba 2bb5 18be 980a 8abd c2c0 4fbe
000000b0: 0e95 6a3d aa95 913c 32b2 b53d ae65 463d
000000c0: bd1f a13c 6235 d1be 9802 30be 4d84 73bb
000000d0: 15eb 1dbe 1d5a 4dbd 1efb 613d 1f58 753d
000000e0: 20f4 303d 9ab5 9f3d 0ba7 283d 86fa 32bb
000000f0: 670c 593d d1ea cc3c 51bb 63bd 6f27 f53d
00000100: 0534 99bc de46 eabc 9162 c9bd 4ae7 5fbc
00000110: 94a2 4a3d a84f 03bf 26ef e8be 8456 abbd
00000120: 755a 9cbd d6e6 94bc 918a 0f3d eec6 81be
00000130: ef39 a1bd abf1 1d3e 7529 f5bd b993 853d
00000140: f7fa 123d 36f0 23bd b5a3 1d3e 9020 863d
00000150: 2805 20be b5ea 0c3e d385 90bc eeee 29be
00000160: ba08 88be 8419 383c 88bf 323c 6947 4d3d
00000170: 408a d7be a27d ebba 2a26 3e3e 55a1 943d
00000180: facf 4dbe 3195 293e d9ef f4bd fef3 19bf
00000190: 777d 44bd e6f5 e5bd 34aa 58be f844 16be
000001a0: 8826 013e 31fd 65be c113 c33b 27d5 b5be
000001b0: f9d1 393d 8f4e 07be 4788 f8be 5c85 653c
000001c0: 96eb 60be 39e3 3fbe 92b7 e6bd 71ef 133c
000001d0: 6635 e03c 2836 d6bb d105 91bb 6464 e8bd
000001e0: 8f9b 063e 214c c33d 96ed 6bbe 6ee2 033d
000001f0: bbff 02bc 86f8 04bf a8fe 3abe 62e9 243e
00000200: 7f54 42bc a58c bf3c 0eee b1be 9f06 183d
00000210: bf29 643d ca9d debd 2102 bbbd 83ca e8bd
00000220: ebcc 84bd 1704 debd b269 d73a f1d9 75bd
00000230: 5aab 63be 9a1b b03d ad5f cebe c565 b03d
00000240: 18ff a53d 97a6 01bd 3e6d de3d ac43 7fbe
00000250: 1a35 f13d 91ad cc3d dd7a 2a3d f920 98be
00000260: 3ea3 06bd d857 7ebd 6093 9c3d 21ea 6b3d
00000270: 859c e13c 3814 223d 3bac 23be df65 793d
00000280: d62e 5c3c 7b26 803d bc43 2abf 541f 9dbe
00000290: 4364 9dbe bc04 3cbe 0b64 95be fc5c 583d
000002a0: f725 4e3d c7c1 1d3c 2eff d13d e8f5 343d
000002b0: c890 093d f615 373d cfd3 a4bd 2179 fbbd
000002c0: d54d 86bc dd0b 10be 6dd8 1dbe bd5a cdbc
000002d0: bcd9 28bc cfa2 1dbd f413 73bd 67b2 69be
000002e0: 104e 2f3e 6d97 b4bc aeb5 8ebe a2a5 2abe
000002f0: e13e 023c 707b d4bd 727c 0bbf c529 d83d
00000300: 54f0 e0be a8ee b1bc 4920 343c 21ab f03d
00000310: a3ad fbbd 3228 52bd 6e1e edbd eebb b63d
00000320: 5434 02be 7d68 debd eec7 073e 81ea 46bc
00000330: 187b b1bd b440 72be b676 573d d1bf d73d
00000340: 6858 4dbe 871d 06be f57c 423e 958f 1f3e
00000350: c66b 9bbe 3b3b 923d 5bdc 2bbe 520e d7bd
00000360: 6b63 1c3c b3e8 373e 983a c5be 159d a5be
00000370: 8bd0 043e 6fbf 353c ac1e 75bd 86bc 723d
00000380: 35d0 0cbe 3061 a8be 50db 1d3c 44b4 b8bd
00000390: 4e06 4cbe 0031 b73c 3bf8 1e3d a99d a3bd
000003a0: e698 3abe fe14 013d b967 bdbc 18e4 85bd
000003b0: e17e f6bd d2cb 82bd bd79 63bb c0fb 81be
000003c0: cf1d a33d 9e6d 28be 3faf fdbc 666a 70bd
000003d0: aba3 da3d 1bb2 0b3e cb41 ab3d 0eea cfba
000003e0: c982 4bbe 1e77 d7bd 1977 2dbd 1a71 08be
000003f0: 3d13 8cbe ebcc a2bc 052d a73c 129a 80be
-0.012485219 0.05011769 -0.3875199 -0.004903432 -0.008051855 -0.049525607 -0.6351557 0.11335399
-0.020816414 -0.071620576 -0.23397444 0.107654326 -0.02699943 0.08220321 -0.44489047 -0.070965424
0.058104943 0.03524384 -0.058083788 0.012686889 -0.51527584 -0.006549512 -0.07373507 -0.83661026
0.061086036 -0.020100897 0.16123742 0.03647093 -0.0003461555 -0.071377814 -0.23019753 0.076454535
-0.13958883 0.038300123 -0.75481236 -0.40025812 -0.37508976 0.0083836 -0.33938694 -0.0893342
-0.0006531948 -0.1491286 -0.06740302 -0.20288375 0.057271056 0.01777156 0.08871879 0.048436813
0.019668454 -0.4086104 -0.1718849 -0.0037157715 -0.15421708 -0.050134767 0.055171125 0.059898492
0.043201566 0.077983096 0.04117493 -0.0027309968 0.052990343 0.025014313 -0.05559856 0.11970412
-0.018701563 -0.028598245 -0.09833253 -0.013665983 0.049471453 -0.5129342 -0.45494956 -0.08366111
-0.07634441 -0.018176477 0.035044257 -0.25347084 -0.07872378 0.1542422 -0.11970798 0.065223165
0.03588387 -0.040024005 0.1539448 0.065491796 -0.15626967 0.13761409 -0.017641937 -0.1659505
-0.26569158 0.011236552 0.010909922 0.05011693 -0.42097664 -0.0017966519 0.18569246 0.07257334
-0.20098868 0.16560818 -0.1195981 -0.6013793 -0.047971215 -0.11228542 -0.21158677 -0.14674747
0.12612355 -0.22459866 0.0059532826 -0.35514185 0.04536626 -0.13213561 -0.4854147 0.014008846
-0.21964869 -0.18739022 -0.11265482 0.009029255 0.027369212 -0.0065372176 -0.004425742 -0.11347273
0.13145278 0.09536005 -0.2303985 0.032198362 -0.007995541 -0.51941717 -0.18261206 0.16104653
-0.011860966 0.023382494 -0.34751934 0.03711569 0.055703875 -0.108699396 -0.091312654 -0.11366751
-0.064843975 -0.10840624 0.0016434698 -0.0600223 -0.22233334 0.085990146 -0.4030737 0.08613161
0.08105296 -0.031653013 0.1086068 -0.24928159 0.117777064 0.09994043 0.041621078 -0.29712656
-0.032870524 -0.062095493 0.07645297 0.05759633 0.027540455 0.039570063 -0.1598367 0.060888167
0.013438901 0.062573396 -0.66509604 -0.30687964 -0.30740556 -0.18361181 -0.2917789 0.05282305
0.050329175 0.00962872 0.1025375 0.044179827 0.03358534 0.044698678 -0.08048212 -0.12278963
-0.016394535 -0.14067025 -0.15414591 -0.025067681 -0.010305818 -0.038485344 -0.0593452 -0.22821961
0.17119622 -0.022044862 -0.27872986 -0.16664746 0.007949562 -0.10375106 -0.54486763 0.10554842
-0.43933356 -0.021720245 0.0109940255 0.1175139 -0.12288978 -0.051307864 -0.115780696 0.089225635
-0.12715274 -0.10859773 0.13259861 -0.012140871 -0.086660564 -0.23657495 0.052603446 0.10534633
-0.20053256 -0.13097201 0.1899298 0.15582116 -0.30355662 0.071402036 -0.16783278 -0.10500778
0.0095451875 0.17959861 -0.38521266 -0.32346407 0.12970178 0.011093005 -0.059843704 0.05926182
-0.137513 -0.32886648 0.009634808 -0.09018758 -0.1992428 0.022362232 0.03881095 -0.07989056
-0.18222389 0.03151416 -0.023120748 -0.06537646 -0.12035919 -0.06386532 -0.0034710013 -0.25387383
0.0796467 -0.16448066 -0.030967353 -0.05869522 0.106757484 0.1364216 0.083621584 -0.00158626
-0.1987411 -0.10520767 -0.04234991 -0.13324395 -0.27358428 -0.019873103 0.02040721 -0.25117546

sequential/dense_1/MatMul_bias f4 [32]
00000000: be42 8e3e 7aa6 1c3f 5734 a13f 344b 743f
00000010: e163 873f 7ba1 763f c110 ce3f f07b c33f
00000020: b964 273f 5769 d93e 868d 733e 56a2 843e
00000030: e2a6 763f e08d ac3f 258f ae3f 09e8 653f
00000040: 7ca0 723f ca01 ec3e 5941 c03e 8eb3 743e
00000050: e540 903f c919 0d3f 7ce7 553f b755 243f
00000060: 3061 b73f d414 9e3f 33c1 a13f 1d60 193f
00000070: 10bd b83f 4998 443f 2b29 603f 5087 183f
0.27785295 0.61191523 1.2594098 0.9542725 1.0577356 0.9634015 1.6098863 1.5272198
0.65388066 0.4246318 0.23784456 0.25905102 0.9634839 1.3480797 1.3637434 0.8980718
0.9477613 0.46095115 0.37549856 0.2389662 1.1269804 0.5511747 0.8355634 0.6419329
1.4326534 1.2350106 1.2637085 0.5991228 1.4432697 0.7679487 0.8756282 0.5958147

sequential/dense_2/MatMul/ReadVariableOp/transpose f4 [10, 32]
00000000: 8381 043e fcd8 e8bc bba2 443d 26b7 d5bd
00000010: b628 12be e5ee 1c3e f666 34be e9fa 063d
00000020: 65a1 863c 3fe2 38bb 81f4 e0bd d028 d93d
00000030: 6aed 1c3e 9320 39be 478d b5be 5d11 e33d
00000040: 1baf 793d 0e75 bf3d db3d b9bd ccf2 4d3e
00000050: d2c8 bcbd a1f4 b53c f63c 3abd acf5 5fbd
00000060: 612f f8bd 5220 41be 3fa6 12bf 5755 e5bd
00000070: 7d1e 9cbd d0d0 8d3d 1515 8ebe e0cf c6be
00000080: cfcf b0be 617e 50be 6e66 86be d432 14be
00000090: 580e 753d 99c2 3fbe 6169 8ebe d13b b73d
000000a0: ec36 7dbe 60f7 0d3d ceb3 72bf 7211 60be
000000b0: 4d50 fa3d 2f22 17be aab3 bebd 7509 cf3d
000000c0: bfee 653d 4265 ad3c 0515 803d ba30 7ebd
000000d0: 964f 3dbc 388e f43d adc1 65be 39b0 a63d
000000e0: e2da 3cbe cc8b bdbe 5236 acbe 2a62 84be
000000f0: 70c8 953d c111 a83d 6206 3d3a 1254 53be
00000100: fff1 e53d 4bf7 94bc 4c37 c03d a19a 803d
00000110: 7944 003e 59cd c7bd c654 7abe 79aa 203e
00000120: 48ed 95bd 9d34 903b 76c0 6d3d d559 c13d
00000130: 2fe5 b4be c412 57be 5107 8cbe 5213 12be
00000140: ed1d 4bbe 89b3 063e fcb8 d5bd 4372 fe3d
00000150: 1124 c1be 52de 3b3d f2a9 663e 3ab7 c0bd
00000160: dbd0 86be 68d8 d0bd 208c 0d3e 7a96 7fbd
00000170: 6fd5 b53d 95ed a3bd aed7 233e 6809 0a3e
00000180: 5c5b 2cbe 58e1 04be 0147 85bd d640 4abc
00000190: 2055 373e fc8d bbbe c2c1 e1be 5790 943d
000001a0: 2814 203d dc8f 4fbd f000 4d3d 642c 173d
000001b0: ddd2 aebe 3e85 f5bd 766a 61be e083 b7bc
000001c0: fc6f ebbe ed5d a63d 83cd 223d de20 33bd
000001d0: dd09 95be 565a c83d 06c8 6b3e 82ef 89bd
000001e0: 3c43 a3be 25c2 b63d cb45 223e de3b 45be
000001f0: 25d1 0f3d 0a34 94bd 3b12 273e 14e2 1e3e
00000200: 0416 c73d 02cc 6ebe bede 98bd 4b22 113e
00000210: e5f3 e7bd e284 08be 7e47 7cbe 418a 28bd
00000220: beef 823d f6ad 1bbe 7dfd 2cbe 1abc f3bd
00000230: 3776 1dbe dfb9 243d 0c0f a1bd dcd1 823c
00000240: 16d3 5fbe e1b2 1c3e c574 bd3d 098c 773d
00000250: 4893 c33c 9508 cb3d 8504 403d 5b7e 8c3d
00000260: 04d2 cf3b 308f 943c 1a97 b83d 93db 2bbd
00000270: a4f9 11be 6fca c8bd 7d97 ecbd f377 27be
00000280: eb96 08be 0e8b e1bd cc2f a53d 1023 5e3d
00000290: da56 52bd 9dbf e03d ee9a 74be 1380 a2bd
000002a0: f9b5 be3c 037b 86be aacd 293d 65d3 e63d
000002b0: dc7c 053e 5f02 073d 5716 8fbe 72e3 f13d
000002c0: 4621 10bd 129a f13c 7129 a13d d3c5 013d
000002d0: 8971 ccbd 3dd2 d8bc 3798 543e 2586 21be
000002e0: 7913 eabc 53e1 9a3d 3866 11be d3f8 6fbd
000002f0: d5aa 33be 6c35 3f3d bc33 ddbe 2dd7 bcbc
00000300: f11c fe3d be7c cfbd 5392 0bbe 1fdb 42bd
00000310: 9b44 54be a319 283e 6b7d 9fbd 447d 793d
00000320: 1580 31bd d484 3c3b e1f0 70be 0eb5 853d
00000330: 44da 193e e1bc 4fbe 273e ddbd 7f27 f6bb
00000340: 462f 353d 554c e13c 69e2 6ebd 1663 5f3e
00000350: 0978 143d da99 00be 02fa a1bd cf17 1abd
00000360: 17f3 79bc 32fa 2a3d 4511 ccbe e0e9 23bd
00000370: 899b 243d d931 90bc 736a c0be 855a a1be
00000380: 33c3 90be 4033 71bd 4691 60be e138 103e
00000390: f25e 2f3d a0fc cdbe fb56 adbe 6cdb 0f3d
000003a0: ff2f a0bd 14a9 a73c 5c3a 1dbe 6536 2fbc
000003b0: 10e2 a3be 2df3 69be 8055 83bd 7dc2 d2bc
000003c0: b986 6cbe 5e4e 233d 9a2a 5e3c a10b 393e
000003d0: 932c 62be 552f 0a3e 69a3 afbc c225 7b3d
000003e0: 42b7 aabe ef99 c2bd d8a9 f13d 2418 a0bd
000003f0: a8b6 d73c 95dd b13d e32f 2a3e 9dd6 073e
0.1294003 -0.028423779 0.048006754 -0.104353234 -0.14273342 0.15325506 -0.17617401 0.03295413
0.01643438 -0.0028211025 -0.109841354 0.106034875 0.15324941 -0.18078832 -0.3545935 0.11087296
0.06095801 0.09348498 -0.09045001 0.20112151 -0.09217991 0.022211375 -0.045468293 -0.05467765
-0.12118412 -0.18859985 -0.5728492 -0.11197918 -0.07623003 0.069245934 -0.2775046 -0.3883047
-0.34533545 -0.2036071 -0.26250023 -0.14472514 0.059828132 -0.18726577 -0.27814773 0.08946956
-0.24727982 0.034659743 -0.9480561 -0.21881655 0.122223474 -0.14759134 -0.09311612 0.10109226
0.05613589 0.021166448 0.06254009 -0.062058188 -0.011554619 0.119411886 -0.22437163 0.081390806
-0.18442872 -0.3702072 -0.33635193 -0.25856143 0.07313621 0.08206511 0.0007210729 -0.20637539
0.11227798 -0.018184325 0.09385547 0.06279493 0.1252612 -0.09755964 -0.24446401 0.1569003
-0.073206484 0.0044008032 0.058044873 0.09440962 -0.35331103 -0.21003252 -0.27349332 -0.14265183
-0.19835635 0.13154425 -0.104356736 0.124241374 -0.3772283 0.045866318 0.22525766 -0.09409948
-0.2633122 -0.10197526 0.13822985 -0.062399365 0.088786 -0.080042996 0.16000244 0.1348015
-0.16831726 -0.12976587 -0.065076835 -0.01234456 0.17903566 -0.36631763 -0.44093138 0.07254093
0.039081722 -0.050674304 0.050049722 0.03690757 -0.3414525 -0.119883046 -0.22013268 -0.02240175
-0.45983875 0.08123384 0.039746772 -0.043732516 -0.29109088 0.09782855 0.23025522 -0.067351356
-0.31887233 0.08923749 0.15846936 -0.19261119 0.035111565 -0.07236488 0.16315548 0.1551593
0.09720996 -0.2332001 -0.0746436 0.14173238 -0.11325816 -0.13331941 -0.24636647 -0.041147474
0.063933834 -0.1520308 -0.16893573 -0.11901112 -0.15377127 0.040216323 -0.07864198 0.01596921
-0.21857867 0.15302612 0.09250788 0.060436282 0.02387394 0.09913746 0.04687931 0.06860038
0.0063421745 0.018134683 0.09013195 -0.04195745 -0.14255387 -0.09804236 -0.115523316 -0.16354351
-0.1333882 -0.11012851 0.08065757 0.054232657 -0.05135236 0.10974047 -0.23887226 -0.079345845
0.02328013 -0.26265725 0.041455902 0.11270789 0.13035911 0.032961246 -0.2794673 0.1181096
-0.035187982 0.029492412 0.078692324 0.0316828 -0.099825926 -0.026467437 0.2076119 -0.15773828
-0.028573738 0.075625084 -0.1419915 -0.058586907 -0.17545636 0.046681806 -0.43203533 -0.023051823
0.12407864 -0.101312146 -0.13630037 -0.04757225 -0.20729296 0.1641603 -0.077875935 0.06091048
-0.04333504 0.0028765695 -0.23529388 0.06528674 0.15024668 -0.20286895 -0.1080287 -0.0075120325
0.044234537 0.027502218 -0.05832139 0.21815142 0.036247287 -0.1255869 -0.07909013 -0.037620362
-0.015255711 0.04174251 -0.39856926 -0.040017962 0.040187392 -0.017601894 -0.37581214 -0.31514373
-0.28273925 -0.058886766 -0.21930417 0.14084198 0.042815156 -0.402318 -0.33855423 0.035121366
-0.078216545 0.020466365 -0.15354294 -0.010694121 -0.3200841 -0.2284667 -0.06412792 -0.025727505
-0.23098268 0.03986966 0.013559962 0.18070842 -0.22087316 0.13494618 -0.021440225 0.061315306
-0.3334294 -0.09502017 0.11799973 -0.078171045 0.026332214 0.086848415 0.1661983 0.13265462

sequential/dense_2/MatMul_bias f4 [10]
00000000: 71a3 0cbe fcee df3e 0a74 b7be 9e85 c8bd
00000010: 56d8 1bbc 468d 42bd 1f13 a33e d2b6 68bf
00000020: 063a cbbd 1054 80be
-0.13734223 0.43737018 -0.35830718 -0.097911105 -0.009512028 -0.04749801 0.31850526 -0.9090396
-0.099231765 -0.25064135
