model_quantized.tflite (tflite, 21544 bytes, 16 tensors)

sequential/conv2d/Conv2D/ReadVariableOp f4 [1, 3, 3, 8]
0	0x3e18da94	0.14927131
1	0xbd6ec6a0	-0.058294892
2	0xbde9054d	-0.11377964
3	0xbe65b7cd	-0.22433396
4	0xbd0c763c	-0.034292445
5	0xbddd6f58	-0.10812253
6	0xbeac1e6e	-0.33616966
7	0x3e25b4d3	0.1618226
8	0x3cd22d88	0.025656477
9	0xbf27708b	-0.654061
10	0x3d1eba55	0.03875192
11	0xbd25436b	-0.040347498
12	0xbc98ac8f	-0.01863697
13	0xbea756f8	-0.3268354
14	0x3dc945cd	0.098277666
15	0xbdeb478e	-0.11488257
16	0x3e07fdf1	0.13280465
17	0xbd451f1e	-0.04812538
18	0x3db2e154	0.08734384
19	0x3ee054df	0.43814752
20	0x3d5d3c38	0.054012507
21	0xbd9670f3	-0.07345762
22	0x3e7fd60c	0.24983996
23	0x3a5c1462	0.0008395371
24	0xbdfa2207	-0.122135215
25	0x3e0328b0	0.1280849
26	0x3e4292d3	0.19001321
27	0xbb54a651	-0.0032447765
28	0xbe9347d3	-0.28765735
29	0x3dc7ab7a	0.097495034
30	0xbe418e20	-0.18901873
31	0x3db7e9be	0.0898013
32	0xbdd421dd	-0.103580214
33	0xbe600a9e	-0.2187905
34	0x3de34db8	0.11098808
35	0xbda1b8d3	-0.078965805
36	0x3de3f3fa	0.11130519
37	0xbe793c0e	-0.24339315
38	0xbd084bf7	-0.03327557
39	0xbe828023	-0.25488386
40	0xbe239bf8	-0.15977466
41	0x3ed70a9c	0.42000282
42	0xbdbba477	-0.091622286
43	0x3ec29d22	0.38010508
44	0xbdc13d29	-0.094354935
45	0x3dd6b20d	0.10483179
46	0xbd030b59	-0.031993244
47	0xbe15319f	-0.1456971
48	0xbe65c065	-0.22436674
49	0x3d8f4e92	0.06997408
50	0xbd928c1f	-0.07155632
51	0xbe295bda	-0.16538945
52	0x3ea4beb0	0.32176733
53	0xbe81f00b	-0.2537845
54	0xbe54141d	-0.20710798
55	0xbcb5e399	-0.022203254
56	0xbd3a894f	-0.045541104
57	0xbcb97d4a	-0.02264275
58	0x3db1f42c	0.0868915
59	0x3bd61582	0.0065333256
60	0xbe0f0f2d	-0.13970633
61	0x3ebce39d	0.36892405
62	0x3d7308b1	0.05933446
63	0x3e983eb1	0.2973533
64	0xbd91af6f	-0.071135394
65	0x3e7cb452	0.24678162
66	0xbe2a3624	-0.16622216
67	0x3e4b6d92	0.19866017
68	0xbd0959fe	-0.03353309
69	0x3ddc4e8b	0.107571684
70	0x3c93e69f	0.018054305
71	0x3d1a90a6	0.037735604

sequential/conv2d/Conv2D_bias f4 [8]
0	0x40b32006	5.597659
1	0x4097eb9f	4.7475123
2	0x3fd2882c	1.6447806
3	0xc0029a47	-2.0406663
4	0xc0bdb94c	-5.9288692
5	0xc06a4284	-3.6603098
6	0x4082064a	4.0632677
7	0xbb37aee2	-0.0028027822

sequential/conv2d_1/Conv2D/ReadVariableOp f4 [8, 3, 3, 8]
0	0x3dc720d9	0.09723062
1	0x3d8c083d	0.06837509
2	0x3d77101c	0.060318097
3	0xbdbbd1a4	-0.09170845
4	0x3e09e764	0.13467175
5	0xbc670f8e	-0.01410283
6	0xbb884c25	-0.0041594678
7	0xbd4c235c	-0.04983841
8	0x3e5bea4f	0.214761
9	0xbddb922e	-0.10721241
10	0x3d9a9470	0.075478435
11	0xbd6e6a60	-0.058206916
12	0x3e95ab5d	0.29232302
13	0xbe766c5b	-0.24064772
14	0x3d49ad50	0.04923755
15	0x3cebcd63	0.02878446
16	0x3f1d8d56	0.61543787
17	0xc0b5785b	-5.670942
18	0xbbb84e80	-0.0056245923
19	0x3e532958	0.2062124
20	0xbf35a63e	-0.7095679
21	0xbf68857d	-0.90828687
22	0x3eb95f3c	0.3620547
23	0xc02158b6	-2.5210395
24	0x3df1bf44	0.11804059
25	0xbd2de00d	-0.04245
26	0x3e04eb5b	0.12980406
27	0xbdc9b3af	-0.09848725
28	0x3e1abb99	0.15110625
29	0xbdaafc47	-0.08348899
30	0x3d224f02	0.03962613
31	0xbcd4181c	-0.025890402
32	0xbc01d3be	-0.007924018
33	0x3d89647e	0.067086205
34	0xbec058bb	-0.37567696
35	0x3e386a8f	0.18009399
36	0x3e945f8b	0.28979144
37	0xbe806582	-0.25077444
38	0xbe05717a	-0.13031569
39	0x3d70d997	0.05880126
40	0x3f8ebfe4	1.115231
41	0xc0879b64	-4.2377186
42	0x3ea982d2	0.3310762
43	0x3d15e444	0.036594644
44	0xbf4ac230	-0.79202557
45	0xc0117f90	-2.2734108
46	0x3e8d8608	0.2764132
47	0xbfc692dc	-1.5513568
48	0x3dd1e785	0.10249237
49	0xbd89932e	-0.067175254
50	0xbca89198	-0.020577237
51	0xbd874040	-0.066040516
52	0x3e0400d2	0.12890938
53	0x3d02ddf7	0.031949963
54	0x3dfef972	0.12449922
55	0x3c084fd2	0.008319812
56	0x3ec7b048	0.3900168
57	0xbe87958b	-0.2648128
58	0xbda661a4	-0.08124092
59	0x3e43a030	0.19104075
60	0x3e80dca8	0.25168347
61	0xbe2274bf	-0.15864848
62	0x3da8aaca	0.082357004
63	0xbc4e8d8d	-0.0126069905
64	0x3e7f1ab1	0.24912526
65	0xc01a2a9a	-2.4088502
66	0xbcf5fd05	-0.030027876
67	0xbe820ab7	-0.253988
68	0xbebe485a	-0.37164575
69	0xbfb9f2d3	-1.4527229
70	0x3d79c523	0.06097902
71	0xbf7504d2	-0.9571048
72	0x3e1ca951	0.15298964
73	0x3b688026	0.0035476773
74	0xbe549461	-0.20759727
75	0xbdffa0e5	-0.1248186
76	0x3e242f1d	0.16033597
77	0x3d983de6	0.07433681
78	0x3e36bc7f	0.17845343
79	0x3d848992	0.06471552
80	0xbd53488b	-0.051582854
81	0x3edafb2b	0.4276975
82	0xbd21ab7c	-0.03947018
83	0xbf170ccb	-0.59003896
84	0xbd1ddbd9	-0.03853974
85	0x3e5109d7	0.2041391
86	0x3e5f6374	0.21815282
87	0x3e3c9af1	0.1841848
88	0xbf4a6bbd	-0.79070646
89	0x3ea8432f	0.32863757
90	0xc0209d26	-2.5095916
91	0x3dfa6447	0.12226158
92	0xbf8beb35	-1.0931154
93	0xbef05794	-0.46941817
94	0xbf2a22e9	-0.6645952
95	0xbe0ba809	-0.13638319
96	0x3e4dab55	0.20084889
97	0x3ceed5db	0.029154709
98	0x3dcd33ef	0.10019671
99	0xbd013048	-0.031540185
100	0x3d831c8b	0.064019285
101	0x3c9fddd5	0.019514957
102	0xbca78f79	-0.020454155
103	0xbe7b45ad	-0.24538298
104	0xbd7e9d39	-0.062161658
105	0x3eb3c6c5	0.35112587
106	0xbdabdc8d	-0.08391676
107	0xbeafd1ee	-0.3433985
108	0x3e6f421b	0.23365061
109	0xbdb55f38	-0.08856052
110	0x3e1b46e3	0.1516376
111	0xbe2c811a	-0.16846123
112	0xbff21d06	-1.8915107
113	0x3e15d78c	0.14633006
114	0xbee4f87a	-0.44720823
115	0x3bd9e672	0.0066497857
116	0xbf9b310f	-1.2124346
117	0x3ca06fc5	0.019584546
118	0xbfa6f51e	-1.3043554
119	0xbe76d389	-0.24104132
120	0x3e8e9220	0.2784586
121	0x3dac4ecd	0.084134676
122	0x3e4a027e	0.19727513
123	0xbce04997	-0.02737884
124	0x3e39cd96	0.18144831
125	0xbda6306d	-0.08114705
126	0xbcc3e89b	-0.023914626
127	0x3df369db	0.11885425
128	0xbda60d92	-0.08108057
129	0xbf4026c2	-0.7505914
130	0x3da5eae0	0.081014395
131	0xbe7caf3f	-0.24676226
132	0x3da07a20	0.078357935
133	0xbe21101c	-0.15728801
134	0xbed9bb38	-0.4252565
135	0xbe5c0b1c	-0.21488613
136	0xbd40d4ef	-0.04707807
137	0xbe8cf1ad	-0.27528134
138	0xbe8aa267	-0.27077028
139	0x3e4abbf0	0.19798255
140	0xbedc2107	-0.42993948
141	0xbfa54d46	-1.2914207
142	0xc067c2e6	-3.6212707
143	0x39900323	0.00027468157
144	0xbf2b06ce	-0.6680726
145	0xbe20c128	-0.15698683
146	0xbdf18faa	-0.1179498
147	0xbe2a3198	-0.16620481
148	0x3dbea4d5	0.09308783
149	0x3e8ba3c9	0.27273396
150	0xbfd40e47	-1.6566857
151	0x3cf61c95	0.030042926
152	0x3e80aba0	0.2513094
153	0xbee3052c	-0.44339883
154	0x3dc93c07	0.098259024
155	0x3e2997d6	0.16561827
156	0x3e08ea31	0.13370587
157	0xbdd518ea	-0.104051426
158	0xbed14ef5	-0.40880552
159	0x3d220bfd	0.039562214
160	0xbea21756	-0.3165843
161	0x3e26038e	0.16212294
162	0xbef61a6d	-0.48067036
163	0x3de13bc8	0.109977305
164	0x3ee25c8b	0.4421123
165	0xbeabe591	-0.33573583
166	0x3e2d1981	0.1690426
167	0xbef2b839	-0.47406176
168	0xbf2737db	-0.65319604
169	0x3b7c75ac	0.0038522286
170	0xbeca73da	-0.39541513
171	0xbfb4a93b	-1.4114145
172	0xbe319e5a	-0.17345563
173	0xbc11cae4	-0.008898471
174	0xbfee2d06	-1.860749
175	0x3e192fc1	0.14959623
176	0x3e63591c	0.22201961
177	0xbe541823	-0.20712332
178	0x3be4effc	0.006986616
179	0x3c3aa529	0.011391916
180	0x3e3a0aeb	0.18168227
181	0xbafa0149	-0.0019073869
182	0x3d950b12	0.07277502
183	0x3e8809bf	0.26569936
184	0x3e12f343	0.1435061
185	0x3c8683fa	0.016420353
186	0xbed3aac0	-0.4134121
187	0xbe790a6a	-0.24320379
188	0x3e1ddc38	0.15416038
189	0xbe94d358	-0.29067492
190	0x3eb485ef	0.35258433
191	0x3e06b0a0	0.13153315
192	0xbd3a23ab	-0.045444172
193	0xbd495647	-0.049154546
194	0x3e50db96	0.20396265
195	0xbea1e68c	-0.31621206
196	0xbc0a9475	-0.0084582465
197	0xbddc7a9c	-0.107655734
198	0xbf1b1fda	-0.60595477
199	0x3d9d0d4e	0.07668553
200	0x3edca5bd	0.43095198
201	0x3a125618	0.0005582287
202	0xbe670c5e	-0.22563311
203	0xbe37b980	-0.17941856
204	0x3e3f69de	0.18692729
205	0x3e96e142	0.29468733
206	0xbe9a02b2	-0.3008018
207	0x3e6bf158	0.23041284
208	0xbdf576c7	-0.119855456
209	0xbd607a9b	-0.054804426
210	0x3e2e574a	0.17025486
211	0xbdaaf769	-0.08347971
212	0xbcce127b	-0.025155297
213	0x3da54bba	0.08071084
214	0x3c058aa1	0.0081507275
215	0xbcc8b3c9	-0.02449979
216	0x3dd3810c	0.10327348
217	0xbdd6450c	-0.104623884
218	0xbedfffd1	-0.4374986
219	0xbc67640c	-0.014122974
220	0xbcfac33b	-0.030610671
221	0xbe464132	-0.19360808
222	0x3e1d3930	0.15353847
223	0xbd3743d2	-0.044742413
224	0xbeb1366a	-0.34611827
225	0xbce337c3	-0.02773655
226	0xbee77fca	-0.45214683
227	0xbdfb0249	-0.12256295
228	0xbe2e05e0	-0.16994429
229	0xbe1435a6	-0.1447359
230	0x3e163908	0.14670193
231	0xbe8920c6	-0.26782817
232	0x3da9e019	0.08294696
233	0xbf012426	-0.50445783
234	0x3da41379	0.080115266
235	0xbe1f4a5c	-0.1555571
236	0xbecf0ebd	-0.40440932
237	0x3d7e9fe1	0.06216419
238	0x3f3fe665	0.7496093
239	0xbea7c211	-0.32765248
240	0x3d8f765f	0.07004999
241	0x3e26e922	0.1629987
242	0x3da2563c	0.07926604
243	0xbd46df74	-0.048552945
244	0xbd85846d	-0.06519399
245	0xbd777d46	-0.060422204
246	0xbd0c9a32	-0.03432674
247	0xbdaabcee	-0.08336817
248	0xbeb11b55	-0.34591165
249	0x3e330597	0.17482601
250	0xbee3ab43	-0.444666
251	0x3c29a788	0.010354884
252	0xbf21f938	-0.632709
253	0xbe8b32ac	-0.27187097
254	0x3edefbfc	0.43551624
255	0x3ddeaa47	0.108723216

sequential/conv2d_1/Conv2D_bias f4 [8]
0	0xbf58959d	-0.8460329
1	0x40411171	3.0166895
2	0xbf797386	-0.974419
3	0xbee46d62	-0.44614702
4	0x3fba52cb	1.4556516
5	0x4009c9d9	2.1529448
6	0x3f7c82a5	0.9863685
7	0x3e68349f	0.22676323

sequential/conv2d_2/Conv2D/ReadVariableOp f4 [8, 3, 3, 8]
0	0x3ea3d65a	0.31999475
1	0xbbe7631f	-0.0070613767
2	0x3de6bf2a	0.112669304
3	0x3c9921dd	0.018692905
4	0x3d6c200e	0.057647757
5	0xbe95b832	-0.29242092
6	0x3e94db84	0.29073727
7	0x3d80ec5e	0.062950835
8	0xbe636ef3	-0.22210293
9	0x3e0721d4	0.13196498
10	0x3e13f351	0.14448287
11	0xbe400d05	-0.18754967
12	0xbe4cd9f7	-0.20005022
13	0xbe60f949	-0.21970095
14	0x3d800fe2	0.062530294
15	0xbedf5380	-0.43618393
16	0xbf94f88e	-1.1638353
17	0x3d92f093	0.07174792
18	0x3d830734	0.06397858
19	0x3de09589	0.109660216
20	0xbe88bb27	-0.26705286
21	0xbeb6fd6f	-0.3574023
22	0x3ca8b53c	0.020594232
23	0x3cc7ca1a	0.024388362
24	0x3dc15927	0.094408326
25	0x3c961858	0.018322155
26	0xbc4e4370	-0.012589321
27	0xbd836a9f	-0.06416821
28	0x3da5c478	0.08094114
29	0xbf0cd0ee	-0.550063
30	0x3dcd08be	0.10011433
31	0x3d1477bb	0.036246996
32	0xbd793db6	-0.060849868
33	0x3d8ca4a6	0.06867342
34	0x3e400d30	0.1875503
35	0xbc8145a7	-0.015780283
36	0xbd48fed1	-0.049071137
37	0xbebf5054	-0.37365973
38	0xbe2451bf	-0.16046809
39	0xbf358d1b	-0.70918435
40	0xbe3a2d72	-0.18181399
41	0x3d483ff0	0.0488891
42	0x3db9d23d	0.09073303
43	0xbe90674b	-0.28203806
44	0x3e8bbfaf	0.2729468
45	0x3f02dc03	0.5111696
46	0x3e982b91	0.2972074
47	0x3e44dab6	0.19224057
48	0xbeed721f	-0.4637613
49	0x3d9decce	0.077111825
50	0x3ca064e0	0.019579351
51	0x3c9678fe	0.01836824
52	0xbdaf6437	-0.08564036
53	0xbf7c99e0	-0.98672295
54	0xbe7b919f	-0.24567269
55	0xbe6273ea	-0.2211453
56	0x3de6c39c	0.11267778
57	0xbd0a5a3f	-0.03377747
58	0xbc93244a	-0.01796164
59	0x3da4aa0c	0.08040246
60	0x3decab55	0.115561165
61	0xbe735056	-0.23761114
62	0x3cfd7797	0.030940814
63	0xbe141531	-0.14461209
64	0x3d0f9e52	0.035063095
65	0xbd545ef2	-0.05184836
66	0x3e4c7f9c	0.19970554
67	0xbda6d515	-0.08146111
68	0xbd80585d	-0.06266854
69	0xbd8a898a	-0.06764515
70	0x3e055aae	0.13022873
71	0x3e1d86fb	0.15383522
72	0x3eaef879	0.34173945
73	0xbf03483b	-0.5128209
74	0x3daf1edb	0.08550807
75	0xbdac298e	-0.084063634
76	0x3d9e9e8b	0.077450834
77	0x3deb0913	0.1147634
78	0x3dee8369	0.11646158
79	0x3e1a62d8	0.15076768
80	0xbc2dd14c	-0.010608982
81	0xbe8007d1	-0.25005963
82	0x3e98f805	0.29876724
83	0x3d89bfb4	0.067260176
84	0xbd1bf28b	-0.038073104
85	0xbf7e9fff	-0.99462885
86	0xbde47ddb	-0.111568175
87	0xbe00c82a	-0.12576357
88	0xbfaae65c	-1.335155
89	0x3e97ddfe	0.29661554
90	0xbf4ea9a3	-0.80727595
91	0xbf0703b0	-0.5274
92	0xc004efc0	-2.0771332
93	0xbf50bc0a	-0.81536925
94	0xbf768d0c	-0.9630897
95	0xbfb391f9	-1.4028922
96	0xbee5d38d	-0.44887963
97	0x3dab897b	0.08375832
98	0x3b88415a	0.004158181
99	0xbd0cd81f	-0.034385797
100	0xbc5f1324	-0.013615403
101	0xbcda7773	-0.026668286
102	0x3dfba335	0.12286989
103	0x3caa577e	0.020793673
104	0xbf06c884	-0.5264971
105	0xbcc8871e	-0.024478491
106	0xbeacbaad	-0.33736172
107	0x3e49da17	0.19712101
108	0xbe13f931	-0.14450528
109	0xc024d885	-2.5757153
110	0xbef636ef	-0.48088786
111	0xbf3bb771	-0.73326784
112	0xbf86fb33	-1.054541
113	0x3cb67d3e	0.022276517
114	0xbe8da232	-0.27662808
115	0xbfa962f0	-1.3233318
116	0xbfeaec77	-1.8353413
117	0xbf69f65a	-0.9139153
118	0xbe66fbae	-0.22556946
119	0xbf7a087b	-0.9766919
120	0xbf20165d	-0.62534124
121	0x3eeb0213	0.4590002
122	0xbdb8e44a	-0.09027918
123	0x3dbf899b	0.09352418
124	0xbe99310c	-0.29920232
125	0xbe52a80b	-0.20571916
126	0xbe86ae37	-0.2630479
127	0xbe378f42	-0.17925742
128	0xbd6fedea	-0.058576502
129	0x3e6b1743	0.22958092
130	0xbf2fd4d4	-0.68684125
131	0xbe3f7c55	-0.18699773
132	0x3cafdd2f	0.021467773
133	0xbf4c30c5	-0.79761916
134	0x3e28b6ab	0.16475932
135	0x3e18c596	0.14919123
136	0xbf6906b7	-0.9102587
137	0x3ef5946f	0.47964808
138	0x3d78cc46	0.060741685
139	0xbf8522a0	-1.0401192
140	0xbfe47847	-1.7849206
141	0xbf19e888	-0.6012044
142	0xbe5726c0	-0.21010876
143	0xbf4c76cf	-0.7986879
144	0x3e9c904e	0.30578846
145	0xbd23b010	-0.03996283
146	0x3cc2ee2e	0.023795214
147	0xbcbb7fdb	-0.022888115
148	0xbd1f35f4	-0.038869813
149	0xbe49274c	-0.19643897
150	0x3dd77501	0.105203636
151	0xbc9e59f5	-0.019330004
152	0xbf4e6295	-0.80619174
153	0x3e2f3ee6	0.17113838
154	0x3dab822b	0.08374437
155	0xbf04d653	-0.5188953
156	0xbf286cc7	-0.6579098
157	0xbd8f04ee	-0.06983362
158	0xbc8cfb14	-0.017209567
159	0xbe648ca8	-0.22319281
160	0xbf74f024	-0.95678926
161	0x3eb3616b	0.35035262
162	0xbe1fd9fc	-0.15610498
163	0xbe051b73	-0.12998752
164	0xbf19760c	-0.5994575
165	0x3d95e603	0.07319262
166	0xbeb77f8b	-0.35839495
167	0xbe53d3c9	-0.20686258
168	0xbd48ede7	-0.049055006
169	0xbd88e2ad	-0.0668386
170	0x3d8755e0	0.06608176
171	0xbd3d092e	-0.046151333
172	0x3c8848ad	0.016636217
173	0xbec0963d	-0.37614623
174	0x3e70e07f	0.23523138
175	0x3de86bbb	0.11348673
176	0xbef6ab15	-0.481774
177	0x3ceff534	0.029291727
178	0xbec0af8e	-0.37633938
179	0xbf061d11	-0.523881
180	0xbec5e212	-0.3864904
181	0xbdaba369	-0.083807774
182	0x3d37a37d	0.04483365
183	0x3d9061b0	0.070498824
184	0x3f3550d4	0.7082646
185	0x3d092d2f	0.033490356
186	0xbdfd2bea	-0.123618916
187	0xbf9a2e86	-1.2045448
188	0xbd6979b4	-0.05700083
189	0x3cdf67e7	0.027271224
190	0x3e7762a8	0.24158728
191	0x3dbdb24e	0.092625245
192	0x3e02bb8e	0.12766859
193	0xbe536cd8	-0.2064699
194	0x3dd2fdd1	0.10302318
195	0xbd025d27	-0.03182712
196	0x3ba511fb	0.005037544
197	0xbf49c61a	-0.78817904
198	0x3df1d2a4	0.11807755
199	0x3d9d01cb	0.076663576
200	0xbda55b56	-0.080740616
201	0xbd8d480a	-0.06898506
202	0xbe9cd18d	-0.30628625
203	0x3d6e1bfc	0.058132157
204	0xbba19353	-0.0049308925
205	0x3cf9ac66	0.030477714
206	0x3dbdc245	0.092655696
207	0x3dcf28c1	0.10115195
208	0x3eb44a18	0.3521278
209	0xbf1e644b	-0.61871785
210	0xbd471098	-0.04859981
211	0xbe1039f9	-0.14084615
212	0x3da79b5e	0.08183931
213	0xbef0a8d8	-0.47003818
214	0x3ea8d2e9	0.32973412
215	0x3dfeaa9e	0.124348864
216	0x3d97cbb9	0.07411904
217	0x3e2f7362	0.17133859
218	0xbe871d6f	-0.26389644
219	0x3c496f72	0.012294637
220	0xbea514b9	-0.32242373
221	0x3d0b75ac	0.034047768
222	0x3dd6948e	0.10477553
223	0x3dd5beac	0.104367584
224	0xbfc19d52	-1.5126135
225	0x3dc62abd	0.096761204
226	0x3d7a7b47	0.061152723
227	0x3dae9f86	0.085265204
228	0xbfd9991c	-1.699985
229	0xbe96f9d2	-0.29487473
230	0xbf26ff94	-0.6523373
231	0xbf34e6ac	-0.7066448
232	0xbd6d660b	-0.057958644
233	0xc067be6a	-3.620997
234	0xbe5b6fb8	-0.21429336
235	0xbdfa809b	-0.12231561
236	0x3cba7208	0.022759452
237	0xbfc05998	-1.5027342
238	0xbe9a87e2	-0.30181795
239	0xbfd42e14	-1.6576562
240	0x3e03426f	0.12818311
241	0x3e1cba22	0.15305379
242	0x3da124db	0.07868358
243	0xbc721968	-0.014776565
244	0xbe2de909	-0.16983427
245	0x3b43e75c	0.002989254
246	0xbce70aa7	-0.028203322
247	0x3dabed99	0.083949275
248	0xbf4163c4	-0.75542855
249	0x3df2c0b8	0.118531644
250	0x3db24e01	0.08706284
251	0x3e526977	0.20548044
252	0xbded0117	-0.115724735
253	0xbe69ff43	-0.22851281
254	0xbe80df38	-0.25170302
255	0xbf751fdf	-0.95751756

sequential/conv2d_2/Conv2D_bias f4 [8]
0	0x3f742cae	0.95380676
1	0xbd4ae109	-0.049531016
2	0x3fb6c528	1.4278917
3	0x3fe3acde	1.778713
4	0xbf8ae4d6	-1.0851085
5	0xbf368a2f	-0.713046
6	0xbdb955b5	-0.090495504
7	0x3fcb667a	1.5890648

sequential/conv2d_3/Conv2D/ReadVariableOp i1 [16, 3, 3, 8] scale=0.018005224 zero_point=0
0	0xe4	-0.5041463
1	0xfb	-0.09002612
2	0xf6	-0.18005224
3	0x03	0.054015674
4	0xf1	-0.27007836
5	0x00	0.0
6	0xfd	-0.054015674
7	0x04	0.072020896
8	0x00	0.0
9	0x0f	0.27007836
10	0xfc	-0.072020896
11	0x10	0.28808358
12	0x04	0.072020896
13	0x01	0.018005224
14	0xfb	-0.09002612
15	0xee	-0.32409403
16	0xfd	-0.054015674
17	0xfd	-0.054015674
18	0xf1	-0.27007836
19	0xf5	-0.19805746
20	0x0b	0.19805746
21	0xf3	-0.23406792
22	0x17	0.41412014
23	0x06	0.10803135
24	0xf1	-0.27007836
25	0xdd	-0.63018286
26	0xfb	-0.09002612
27	0x03	0.054015674
28	0x05	0.09002612
29	0x08	0.14404179
30	0xf7	-0.16204701
31	0xf5	-0.19805746
32	0x01	0.018005224
33	0xfd	-0.054015674
34	0x00	0.0
35	0x01	0.018005224
36	0xfe	-0.036010448
37	0x02	0.036010448
38	0x03	0.054015674
39	0xf5	-0.19805746
40	0xfc	-0.072020896
41	0xf2	-0.25207314
42	0xfd	-0.054015674
43	0xf6	-0.18005224
44	0x0f	0.27007836
45	0x02	0.036010448
46	0x05	0.09002612
47	0x23	0.63018286
48	0x00	0.0
49	0xd3	-0.8102351
50	0x02	0.036010448
51	0x03	0.054015674
52	0x07	0.12603657
53	0x02	0.036010448
54	0xfd	-0.054015674
55	0xf7	-0.16204701
56	0xfc	-0.072020896
57	0xfc	-0.072020896
58	0xfd	-0.054015674
59	0xde	-0.6121776
60	0xfe	-0.036010448
61	0xfd	-0.054015674
62	0x03	0.054015674
63	0xff	-0.018005224
64	0x03	0.054015674
65	0x00	0.0
66	0x06	0.10803135
67	0xff	-0.018005224
68	0xfe	-0.036010448
69	0xf1	-0.27007836
70	0xb9	-1.2783709
71	0x09	0.16204701
72	0xfa	-0.10803135
73	0x04	0.072020896
74	0xee	-0.32409403
75	0xf9	-0.12603657
76	0xfd	-0.054015674
77	0xf6	-0.18005224
78	0xfe	-0.036010448
79	0xfe	-0.036010448
80	0x06	0.10803135
81	0x18	0.4321254
82	0x08	0.14404179
83	0xfe	-0.036010448
84	0x02	0.036010448
85	0xf5	-0.19805746
86	0xfb	-0.09002612
87	0x01	0.018005224
88	0xff	-0.018005224
89	0x09	0.16204701
90	0xf2	-0.25207314
91	0x01	0.018005224
92	0x12	0.32409403
93	0xfd	-0.054015674
94	0x04	0.072020896
95	0xf5	-0.19805746
96	0x02	0.036010448
97	0x0b	0.19805746
98	0x04	0.072020896
99	0x0b	0.19805746
100	0xf4	-0.2160627
101	0xef	-0.3060888
102	0x09	0.16204701
103	0xfc	-0.072020896
104	0x05	0.09002612
105	0x1d	0.52215147
106	0xfc	-0.072020896
107	0x0f	0.27007836
108	0xee	-0.32409403
109	0x01	0.018005224
110	0x05	0.09002612
111	0xf3	-0.23406792
112	0x0a	0.18005224
113	0x08	0.14404179
114	0x00	0.0
115	0x0e	0.25207314
116	0x10	0.28808358
117	0xe8	-0.4321254
118	0xf4	-0.2160627
119	0xf4	-0.2160627
120	0x02	0.036010448
121	0x0c	0.2160627
122	0x03	0.054015674
123	0x07	0.12603657
124	0xfa	-0.10803135
125	0x09	0.16204701
126	0xfd	-0.054015674
127	0xf9	-0.12603657
128	0xfd	-0.054015674
129	0xfe	-0.036010448
130	0xfb	-0.09002612
131	0xf7	-0.16204701
132	0xf7	-0.16204701
133	0x0e	0.25207314
134	0x02	0.036010448
135	0xf4	-0.2160627
136	0xfd	-0.054015674
137	0xfa	-0.10803135
138	0xf9	-0.12603657
139	0xea	-0.39611492
140	0xe5	-0.48614106
141	0x04	0.072020896
142	0xf7	-0.16204701
143	0xe9	-0.41412014
144	0xfd	-0.054015674
145	0xda	-0.6841985
146	0x05	0.09002612
147	0xee	-0.32409403
148	0xff	-0.018005224
149	0x07	0.12603657
150	0xfc	-0.072020896
151	0xf0	-0.28808358
152	0xf1	-0.27007836
153	0xfb	-0.09002612
154	0x07	0.12603657
155	0xfd	-0.054015674
156	0xf7	-0.16204701
157	0x02	0.036010448
158	0xfd	-0.054015674
159	0xfa	-0.10803135
160	0xf8	-0.14404179
161	0x27	0.70220375
162	0xee	-0.32409403
163	0xf8	-0.14404179
164	0xd0	-0.8642508
165	0x0a	0.18005224
166	0xed	-0.34209925
167	0xe7	-0.4501306
168	0x01	0.018005224
169	0xf6	-0.18005224
170	0xfb	-0.09002612
171	0xf2	-0.25207314
172	0x0a	0.18005224
173	0xf7	-0.16204701
174	0x03	0.054015674
175	0xd1	-0.8462455
176	0x04	0.072020896
177	0x0f	0.27007836
178	0xf9	-0.12603657
179	0xfa	-0.10803135
180	0xed	-0.34209925
181	0x03	0.054015674
182	0x00	0.0
183	0xf2	-0.25207314
184	0x05	0.09002612
185	0x25	0.6661933
186	0xc4	-1.0803134
187	0xe2	-0.5401567
188	0xb3	-1.3864022
189	0xfc	-0.072020896
190	0xef	-0.3060888
191	0x04	0.072020896
192	0x0f	0.27007836
193	0xe3	-0.52215147
194	0x0a	0.18005224
195	0xf1	-0.27007836
196	0x07	0.12603657
197	0x03	0.054015674
198	0xfd	-0.054015674
199	0xe1	-0.5581619
200	0xf1	-0.27007836
201	0x0b	0.19805746
202	0xfc	-0.072020896
203	0xfb	-0.09002612
204	0xf1	-0.27007836
205	0x07	0.12603657
206	0x05	0.09002612
207	0x01	0.018005224
208	0x0d	0.23406792
209	0xf9	-0.12603657
210	0xe9	-0.41412014
211	0xee	-0.32409403
212	0xf2	-0.25207314
213	0xed	-0.34209925
214	0xea	-0.39611492
215	0x09	0.16204701
216	0xe9	-0.41412014
217	0xd4	-0.79222983
218	0xd1	-0.8462455
219	0xfd	-0.054015674
220	0x01	0.018005224
221	0xde	-0.6121776
222	0xec	-0.36010447
223	0xe0	-0.57616717
224	0xff	-0.018005224
225	0xf5	-0.19805746
226	0xfb	-0.09002612
227	0xf7	-0.16204701
228	0x05	0.09002612
229	0xfc	-0.072020896
230	0x03	0.054015674
231	0xfe	-0.036010448
232	0x06	0.10803135
233	0xfb	-0.09002612
234	0xd7	-0.7382142
235	0xe6	-0.46813583
236	0xee	-0.32409403
237	0x17	0.41412014
238	0x12	0.32409403
239	0x06	0.10803135
240	0x15	0.3781097
241	0xe4	-0.5041463
242	0xfd	-0.054015674
243	0xed	-0.34209925
244	0x03	0.054015674
245	0xfa	-0.10803135
246	0x03	0.054015674
247	0x01	0.018005224
248	0x01	0.018005224
249	0xfe	-0.036010448
250	0x04	0.072020896
251	0xfc	-0.072020896
252	0x05	0.09002612
253	0xfb	-0.09002612
254	0x02	0.036010448
255	0x05	0.09002612

sequential/conv2d_3/Conv2D_bias f4 [16]
0	0xc0080647	-2.1253831
1	0xc00ea61d	-2.2288888
2	0xbfcb3fda	-1.5878861
3	0xbff20e82	-1.8910677
4	0x3f0e1a66	0.5550903
5	0xc030f032	-2.7646604
6	0xbebd2f29	-0.36950043
7	0x4012ce31	2.293835
8	0xbfd252b5	-1.643149
9	0x3feff5d3	1.8746895
10	0xc0533ae7	-3.30047
11	0xbfd4b058	-1.6616316
12	0xbeaf18aa	-0.34198505
13	0xbf1b6568	-0.6070161
14	0xc0148b25	-2.3209927
15	0x3fdec7a6	1.7404678

sequential/conv2d_4/Conv2D/ReadVariableOp i1 [16, 3, 3, 16] scale=0.0150297005 zero_point=0
0	0x01	0.0150297005
1	0xfd	-0.045089103
2	0x09	0.1352673
3	0x08	0.120237604
4	0x06	0.09017821
5	0x05	0.0751485
6	0x05	0.0751485
7	0xf8	-0.120237604
8	0xfb	-0.0751485
9	0xfb	-0.0751485
10	0xf7	-0.1352673
11	0x04	0.060118802
12	0xfa	-0.09017821
13	0x02	0.030059401
14	0xfd	-0.045089103
15	0x03	0.045089103
16	0x06	0.09017821
17	0x05	0.0751485
18	0xfb	-0.0751485
19	0xfa	-0.09017821
20	0xff	-0.0150297005
21	0x08	0.120237604
22	0xfd	-0.045089103
23	0x04	0.060118802
24	0x00	0.0
25	0x04	0.060118802
26	0x09	0.1352673
27	0x04	0.060118802
28	0xf8	-0.120237604
29	0x0e	0.21041581
30	0x09	0.1352673
31	0x03	0.045089103
32	0xf9	-0.105207905
33	0x05	0.0751485
34	0x03	0.045089103
35	0x01	0.0150297005
36	0x09	0.1352673
37	0x08	0.120237604
38	0x03	0.045089103
39	0xfd	-0.045089103
40	0x05	0.0751485
41	0xf9	-0.105207905
42	0x06	0.09017821
43	0x00	0.0
44	0xf8	-0.120237604
45	0xf7	-0.1352673
46	0xff	-0.0150297005
47	0xf8	-0.120237604
48	0xfc	-0.060118802
49	0xff	-0.0150297005
50	0xfb	-0.0751485
51	0x09	0.1352673
52	0x09	0.1352673
53	0xfc	-0.060118802
54	0xfa	-0.09017821
55	0xf9	-0.105207905
56	0x05	0.0751485
57	0x00	0.0
58	0xff	-0.0150297005
59	0xfb	-0.0751485
60	0xfb	-0.0751485
61	0xfb	-0.0751485
62	0xf8	-0.120237604
63	0x00	0.0
64	0x04	0.060118802
65	0x01	0.0150297005
66	0xef	-0.2555049
67	0x04	0.060118802
68	0x02	0.030059401
69	0xec	-0.300594
70	0xe7	-0.37574252
71	0xf6	-0.150297
72	0xfa	-0.09017821
73	0xe8	-0.36071283
74	0x06	0.09017821
75	0xed	-0.2855643
76	0xdf	-0.4959801
77	0x0f	0.22544551
78	0xbd	-1.00699
79	0x0b	0.1653267
80	0x03	0.045089103
81	0x08	0.120237604
82	0x02	0.030059401
83	0x05	0.0751485
84	0xfb	-0.0751485
85	0x02	0.030059401
86	0x06	0.09017821
87	0x03	0.045089103
88	0x03	0.045089103
89	0xfe	-0.030059401
90	0xfc	-0.060118802
91	0xfb	-0.0751485
92	0x08	0.120237604
93	0xf8	-0.120237604
94	0x02	0.030059401
95	0x04	0.060118802
96	0xff	-0.0150297005
97	0x06	0.09017821
98	0xf8	-0.120237604
99	0xfa	-0.09017821
100	0xfe	-0.030059401
101	0xfc	-0.060118802
102	0xfa	-0.09017821
103	0xfe	-0.030059401
104	0xf8	-0.120237604
105	0xf8	-0.120237604
106	0xfe	-0.030059401
107	0x08	0.120237604
108	0x00	0.0
109	0x0a	0.150297
110	0x05	0.0751485
111	0x06	0.09017821
112	0x06	0.09017821
113	0x01	0.0150297005
114	0xfd	-0.045089103
115	0xf8	-0.120237604
116	0xff	-0.0150297005
117	0x02	0.030059401
118	0xe3	-0.43586132
119	0xf1	-0.22544551
120	0xf6	-0.150297
121	0xf8	-0.120237604
122	0x0b	0.1653267
123	0x0b	0.1653267
124	0xf5	-0.1653267
125	0x0a	0.150297
126	0x01	0.0150297005
127	0x0b	0.1653267
128	0xfe	-0.030059401
129	0x00	0.0
130	0xf8	-0.120237604
131	0x07	0.105207905
132	0x03	0.045089103
133	0xfa	-0.09017821
134	0xfa	-0.09017821
135	0x04	0.060118802
136	0xf8	-0.120237604
137	0x06	0.09017821
138	0xf9	-0.105207905
139	0xfd	-0.045089103
140	0x00	0.0
141	0xf9	-0.105207905
142	0xf7	-0.1352673
143	0x02	0.030059401
144	0xfc	-0.060118802
145	0x03	0.045089103
146	0xf8	-0.120237604
147	0x04	0.060118802
148	0x03	0.045089103
149	0x08	0.120237604
150	0xfd	-0.045089103
151	0x02	0.030059401
152	0xfa	-0.09017821
153	0xfe	-0.030059401
154	0x06	0.09017821
155	0x08	0.120237604
156	0x05	0.0751485
157	0xf8	-0.120237604
158	0x05	0.0751485
159	0xf9	-0.105207905
160	0xff	-0.0150297005
161	0x0a	0.150297
162	0x0f	0.22544551
163	0x08	0.120237604
164	0xed	-0.2855643
165	0xfb	-0.0751485
166	0x08	0.120237604
167	0xff	-0.0150297005
168	0x0d	0.19538611
169	0x00	0.0
170	0x05	0.0751485
171	0xfa	-0.09017821
172	0x06	0.09017821
173	0xf5	-0.1653267
174	0x04	0.060118802
175	0xfc	-0.060118802
176	0x00	0.0
177	0xf7	-0.1352673
178	0x02	0.030059401
179	0xfc	-0.060118802
180	0x03	0.045089103
181	0x05	0.0751485
182	0x04	0.060118802
183	0xfb	-0.0751485
184	0x01	0.0150297005
185	0x05	0.0751485
186	0x07	0.105207905
187	0xf8	-0.120237604
188	0xfa	-0.09017821
189	0xff	-0.0150297005
190	0xfa	-0.09017821
191	0x01	0.0150297005
192	0x00	0.0
193	0x09	0.1352673
194	0x06	0.09017821
195	0xf9	-0.105207905
196	0x02	0.030059401
197	0xfe	-0.030059401
198	0xfc	-0.060118802
199	0xfa	-0.09017821
200	0xfd	-0.045089103
201	0xf7	-0.1352673
202	0xfc	-0.060118802
203	0xf9	-0.105207905
204	0x07	0.105207905
205	0x01	0.0150297005
206	0xf8	-0.120237604
207	0xff	-0.0150297005
208	0xf4	-0.18035641
209	0x07	0.105207905
210	0x0a	0.150297
211	0xff	-0.0150297005
212	0xfa	-0.09017821
213	0xfc	-0.060118802
214	0x07	0.105207905
215	0xf7	-0.1352673
216	0x06	0.09017821
217	0x00	0.0
218	0xf9	-0.105207905
219	0xef	-0.2555049
220	0x08	0.120237604
221	0xf6	-0.150297
222	0xff	-0.0150297005
223	0xf9	-0.105207905
224	0xf9	-0.105207905
225	0xfe	-0.030059401
226	0x00	0.0
227	0x03	0.045089103
228	0xfa	-0.09017821
229	0x08	0.120237604
230	0x08	0.120237604
231	0x00	0.0
232	0xfb	-0.0751485
233	0xff	-0.0150297005
234	0x07	0.105207905
235	0x09	0.1352673
236	0x07	0.105207905
237	0xf7	-0.1352673
238	0x07	0.105207905
239	0x06	0.09017821
240	0x02	0.030059401
241	0xff	-0.0150297005
242	0x05	0.0751485
243	0x09	0.1352673
244	0x01	0.0150297005
245	0x01	0.0150297005
246	0xfb	-0.0751485
247	0xfb	-0.0751485
248	0xfd	-0.045089103
249	0x04	0.060118802
250	0x08	0.120237604
251	0x09	0.1352673
252	0xfd	-0.045089103
253	0xff	-0.0150297005
254	0xf8	-0.120237604
255	0x02	0.030059401

sequential/conv2d_4/Conv2D_bias f4 [16]
0	0xbe73a9f6	-0.23795304
1	0xbe955d10	-0.29172564
2	0xbec24d51	-0.37949613
3	0x3f2d2132	0.6762878
4	0x3f6f86e8	0.93565226
5	0x3f20f932	0.6288024
6	0xbfb8b230	-1.4429379
7	0xbff7f9af	-1.9373072
8	0xbfb0322c	-1.3765311
9	0x40a81277	5.252254
10	0x3f685204	0.90750146
11	0x3e4afd8f	0.19823287
12	0x3f799a88	0.9750142
13	0x3f6a988f	0.91639036
14	0xbe1bafe7	-0.1520382
15	0xbebb2467	-0.3655121

sequential/dense/MatMul/ReadVariableOp/transpose i1 [64, 80] scale=0.017366057 zero_point=0
0	0x0b	0.19102663
1	0x03	0.05209817
2	0xfb	-0.08683029
3	0xf0	-0.27785692
4	0x05	0.08683029
5	0x0e	0.2431248
6	0x00	0.0
7	0xfb	-0.08683029
8	0x0d	0.22575875
9	0xf8	-0.13892846
10	0xea	-0.38205326
11	0x0e	0.2431248
12	0x02	0.034732115
13	0x0f	0.26049086
14	0xfc	-0.06946423
15	0xf8	-0.13892846
16	0x08	0.13892846
17	0xf8	-0.13892846
18	0xff	-0.017366057
19	0xeb	-0.3646872
20	0x03	0.05209817
21	0xb5	-1.3024544
22	0xfc	-0.06946423
23	0x0c	0.20839268
24	0x0b	0.19102663
25	0xcd	-0.88566893
26	0xda	-0.6599102
27	0x00	0.0
28	0xf6	-0.17366058
29	0xf2	-0.2431248
30	0x06	0.10419634
31	0xf2	-0.2431248
32	0xf8	-0.13892846
33	0x04	0.06946423
34	0x03	0.05209817
35	0xe9	-0.3994193
36	0xf1	-0.26049086
37	0x01	0.017366057
38	0xfb	-0.08683029
39	0xfc	-0.06946423
40	0x07	0.1215624
41	0x00	0.0
42	0xf8	-0.13892846
43	0xf2	-0.2431248
44	0xf3	-0.22575875
45	0xfc	-0.06946423
46	0xf5	-0.19102663
47	0xff	-0.017366057
48	0xff	-0.017366057
49	0x08	0.13892846
50	0x04	0.06946423
51	0xfb	-0.08683029
52	0xeb	-0.3646872
53	0x04	0.06946423
54	0xfb	-0.08683029
55	0x02	0.034732115
56	0xfd	-0.05209817
57	0x00	0.0
58	0xf2	-0.2431248
59	0xf8	-0.13892846
60	0xf0	-0.27785692
61	0xfb	-0.08683029
62	0xf3	-0.22575875
63	0xff	-0.017366057
64	0xf4	-0.20839268
65	0x07	0.1215624
66	0x07	0.1215624
67	0x00	0.0
68	0xf4	-0.20839268
69	0xff	-0.017366057
70	0xfe	-0.034732115
71	0xfd	-0.05209817
72	0x0a	0.17366058
73	0xfc	-0.06946423
74	0xfa	-0.10419634
75	0xff	-0.017366057
76	0xf9	-0.1215624
77	0x09	0.15629451
78	0xf8	-0.13892846
79	0xfd	-0.05209817
80	0xfe	-0.034732115
81	0xf3	-0.22575875
82	0x01	0.017366057
83	0xde	-0.59044594
84	0x04	0.06946423
85	0x1e	0.5209817
86	0x14	0.34732115
87	0x1b	0.46888354
88	0xf7	-0.15629451
89	0xf6	-0.17366058
90	0x02	0.034732115
91	0xfb	-0.08683029
92	0x04	0.06946423
93	0x03	0.05209817
94	0xad	-1.4413828
95	0x03	0.05209817
96	0x07	0.1215624
97	0xf8	-0.13892846
98	0x04	0.06946423
99	0xef	-0.29522297
100	0x05	0.08683029
101	0x0a	0.17366058
102	0xfd	-0.05209817
103	0x0b	0.19102663
104	0xf0	-0.27785692
105	0x05	0.08683029
106	0x04	0.06946423
107	0xfd	-0.05209817
108	0x04	0.06946423
109	0x05	0.08683029
110	0xdd	-0.607812
111	0xea	-0.38205326
112	0x08	0.13892846
113	0x07	0.1215624
114	0xfe	-0.034732115
115	0xf8	-0.13892846
116	0x03	0.05209817
117	0xfc	-0.06946423
118	0xf8	-0.13892846
119	0xf6	-0.17366058
120	0xf2	-0.2431248
121	0xf7	-0.15629451
122	0xf9	-0.1215624
123	0xff	-0.017366057
124	0x0a	0.17366058
125	0x00	0.0
126	0xf7	-0.15629451
127	0xfb	-0.08683029
128	0x03	0.05209817
129	0xfb	-0.08683029
130	0x07	0.1215624
131	0xf6	-0.17366058
132	0xf8	-0.13892846
133	0xf0	-0.27785692
134	0xfb	-0.08683029
135	0x14	0.34732115
136	0xf1	-0.26049086
137	0xf4	-0.20839268
138	0xf3	-0.22575875
139	0xf5	-0.19102663
140	0x11	0.29522297
141	0x17	0.3994193
142	0xbe	-1.1461598
143	0x06	0.10419634
144	0xf4	-0.20839268
145	0x06	0.10419634
146	0xf2	-0.2431248
147	0xe8	-0.41678536
148	0xe2	-0.5209817
149	0xfa	-0.10419634
150	0xf3	-0.22575875
151	0x00	0.0
152	0xff	-0.017366057
153	0x0a	0.17366058
154	0xf2	-0.2431248
155	0xf1	-0.26049086
156	0x03	0.05209817
157	0x0a	0.17366058
158	0xfc	-0.06946423
159	0xe4	-0.4862496
160	0x05	0.08683029
161	0xb6	-1.2850882
162	0xfd	-0.05209817
163	0xe8	-0.41678536
164	0xfc	-0.06946423
165	0xec	-0.34732115
166	0xc1	-1.0940616
167	0xec	-0.34732115
168	0xed	-0.3299551
169	0xf0	-0.27785692
170	0x00	0.0
171	0xe6	-0.4515175
172	0xce	-0.8683029
173	0xdb	-0.6425441
174	0xcd	-0.88566893
175	0xf0	-0.27785692
176	0x9f	-1.6845076
177	0xfd	-0.05209817
178	0xfa	-0.10419634
179	0x14	0.34732115
180	0x0f	0.26049086
181	0x01	0.017366057
182	0x14	0.34732115
183	0xf7	-0.15629451
184	0xef	-0.29522297
185	0xc8	-0.9724992
186	0xe0	-0.55571383
187	0xe6	-0.4515175
188	0xee	-0.31258902
189	0xeb	-0.3646872
190	0xd8	-0.6946423
191	0xed	-0.3299551
192	0xfd	-0.05209817
193	0xf7	-0.15629451
194	0xe8	-0.41678536
195	0x0a	0.17366058
196	0x16	0.38205326
197	0xe6	-0.4515175
198	0xf1	-0.26049086
199	0xe7	-0.43415144
200	0xf0	-0.27785692
201	0xcd	-0.88566893
202	0xee	-0.31258902
203	0xfe	-0.034732115
204	0xf8	-0.13892846
205	0xf9	-0.1215624
206	0xf7	-0.15629451
207	0xfc	-0.06946423
208	0x15	0.3646872
209	0x04	0.06946423
210	0xff	-0.017366057
211	0xf7	-0.15629451
212	0xf6	-0.17366058
213	0xfd	-0.05209817
214	0x07	0.1215624
215	0x02	0.034732115
216	0x00	0.0
217	0x05	0.08683029
218	0x0e	0.2431248
219	0xf3	-0.22575875
220	0x03	0.05209817
221	0xfa	-0.10419634
222	0x0e	0.2431248
223	0xf3	-0.22575875
224	0x05	0.08683029
225	0x08	0.13892846
226	0x02	0.034732115
227	0xfa	-0.10419634
228	0xe1	-0.5383478
229	0x04	0.06946423
230	0xfd	-0.05209817
231	0xe2	-0.5209817
232	0x06	0.10419634
233	0xfb	-0.08683029
234	0x0e	0.2431248
235	0x08	0.13892846
236	0xee	-0.31258902
237	0x14	0.34732115
238	0xf5	-0.19102663
239	0x0a	0.17366058
240	0x00	0.0
241	0xfe	-0.034732115
242	0x10	0.27785692
243	0xf3	-0.22575875
244	0xff	-0.017366057
245	0xde	-0.59044594
246	0xe6	-0.4515175
247	0xea	-0.38205326
248	0xfa	-0.10419634
249	0xc5	-1.0245974
250	0xc2	-1.0766956
251	0x0d	0.22575875
252	0xe6	-0.4515175
253	0xcf	-0.85093683
254	0xff	-0.017366057
255	0x01	0.017366057

sequential/dense/MatMul_bias f4 [64]
0	0xbd948f33	-0.072538756
1	0x3f8db834	1.1071839
2	0xbcd22ef0	-0.025657147
3	0x3f272889	0.65296227
4	0xbf4cc4ec	-0.7998798
5	0xbd186a26	-0.037210606
6	0x3f07ebcd	0.5309418
7	0xbf12c474	-0.57331014
8	0x3f99a904	1.2004704
9	0x3f9924c0	1.196434
10	0xbe24d195	-0.16095574
11	0x3f424927	0.7589287
12	0xbe654f1f	-0.22393464
13	0x3fa99e0d	1.3251358
14	0x3f262ee5	0.64915305
15	0xc018e112	-2.3887372
16	0xbf457d83	-0.7714464
17	0xbe6ee82c	-0.23330754
18	0x3eab7a03	0.33491525
19	0xbf0c5ada	-0.5482613
20	0x3e3f15f0	0.18660712
21	0x3fc3b738	1.5290289
22	0xbf930b60	-1.1487846
23	0x3fb52689	1.4152385
24	0x3fa2cd0c	1.2718825
25	0xbda87327	-0.082250886
26	0xbebae902	-0.36505896
27	0xc02d4168	-2.707117
28	0xbed487fb	-0.41509995
29	0x3ee8f188	0.45496774
30	0x3ecfde57	0.4059932
31	0x3f7e498a	0.9933096
32	0x3e1b045b	0.1513838
33	0x3e9848e8	0.29743123
34	0x3fb94973	1.447554
35	0x3f87bf5c	1.0605273
36	0x3facddff	1.3505248
37	0xbf951b16	-1.1648891
38	0x3da2dca5	0.07952241
39	0xbd9d6cf1	-0.076867945
40	0xbfa29549	-1.2701808
41	0xbf534046	-0.8251995
42	0x3d9a3e6e	0.07531439
43	0xbddc767d	-0.10764787
44	0xbf907c88	-1.1288004
45	0xbfb65d25	-1.4247175
46	0x3ca8666b	0.02055665
47	0xbf4856fa	-0.78257716
48	0x3e821708	0.25408196
49	0x3faa615f	1.3310965
50	0x3fb1d51f	1.3893164
51	0xbf2974a1	-0.66193587
52	0x3ee09a6f	0.43867823
53	0xbfafbd05	-1.3729559
54	0xbf20afb6	-0.62768114
55	0xbd9a30b6	-0.07528822
56	0x3fe26e5a	1.7689927
57	0xc0081e35	-2.1268437
58	0xbe48f0fd	-0.1962318
59	0x3f2cc37a	0.67485774
60	0xbf34d95c	-0.70644164
61	0x3f040e42	0.51584256
62	0xbf04cd8a	-0.5187613
63	0x3f4c2dfa	0.79757655

sequential/dense_1/MatMul/ReadVariableOp/transpose i1 [32, 64] scale=0.006716403 zero_point=0
0	0xfe	-0.013432806
1	0x07	0.04701482
2	0xc6	-0.38955137
3	0xff	-0.006716403
4	0xff	-0.006716403
5	0xf9	-0.04701482
6	0xa1	-0.6380583
7	0x11	0.11417885
8	0xfd	-0.020149209
9	0xf5	-0.073880434
10	0xdd	-0.23507412
11	0x10	0.10746245
12	0xfc	-0.026865613
13	0x0c	0.080596834
14	0xbe	-0.4432826
15	0xf5	-0.073880434
16	0x09	0.06044763
17	0x05	0.033582017
18	0xf7	-0.06044763
19	0x02	0.013432806
20	0xb3	-0.51716304
21	0xff	-0.006716403
22	0xf5	-0.073880434
23	0x83	-0.8395504
24	0x09	0.06044763
25	0xfd	-0.020149209
26	0x18	0.16119367
27	0x05	0.033582017
28	0x00	0.0
29	0xf5	-0.073880434
30	0xde	-0.2283577
31	0x0b	0.073880434
32	0xeb	-0.14104447
33	0x06	0.040298417
34	0x90	-0.75223714
35	0xc4	-0.4029842
36	0xc8	-0.37611857
37	0x01	0.006716403
38	0xcd	-0.34253657
39	0xf3	-0.08731324
40	0x00	0.0
41	0xea	-0.14776087
42	0xf6	-0.06716403
43	0xe2	-0.2014921
44	0x09	0.06044763
45	0x03	0.020149209
46	0x0d	0.08731324
47	0x07	0.04701482
48	0x03	0.020149209
49	0xc3	-0.4097006
50	0xe6	-0.17462648
51	0xff	-0.006716403
52	0xe9	-0.15447727
53	0xf9	-0.04701482
54	0x08	0.053731225
55	0x09	0.06044763
56	0x06	0.040298417
57	0x0c	0.080596834
58	0x06	0.040298417
59	0x00	0.0
60	0x08	0.053731225
61	0x04	0.026865613
62	0xf8	-0.053731225
63	0x12	0.12089526
64	0xfd	-0.020149209
65	0xfc	-0.026865613
66	0xf1	-0.10074605
67	0xfe	-0.013432806
68	0x07	0.04701482
69	0xb4	-0.51044667
70	0xbc	-0.4567154
71	0xf4	-0.080596834
72	0xf5	-0.073880434
73	0xfd	-0.020149209
74	0x05	0.033582017
75	0xda	-0.25522333
76	0xf4	-0.080596834
77	0x17	0.15447727
78	0xee	-0.12089526
79	0x0a	0.06716403
80	0x05	0.033582017
81	0xfa	-0.040298417
82	0x17	0.15447727
83	0x0a	0.06716403
84	0xe9	-0.15447727
85	0x14	0.13432807
86	0xfd	-0.020149209
87	0xe7	-0.16791008
88	0xd8	-0.26865613
89	0x02	0.013432806
90	0x02	0.013432806
91	0x07	0.04701482
92	0xc1	-0.4231334
93	0x00	0.0
94	0x1c	0.18805929
95	0x0b	0.073880434
96	0xe2	-0.2014921
97	0x19	0.16791008
98	0xee	-0.12089526
99	0xa6	-0.6044763
100	0xf9	-0.04701482
101	0xef	-0.11417885
102	0xe0	-0.2149249
103	0xea	-0.14776087
104	0x13	0.12761167
105	0xdf	-0.2216413
106	0x01	0.006716403
107	0xcb	-0.35596937
108	0x07	0.04701482
109	0xec	-0.13432807
110	0xb8	-0.48358104
111	0x02	0.013432806
112	0xdf	-0.2216413
113	0xe4	-0.18805929
114	0xef	-0.11417885
115	0x01	0.006716403
116	0x04	0.026865613
117	0xff	-0.006716403
118	0xff	-0.006716403
119	0xef	-0.11417885
120	0x14	0.13432807
121	0x0e	0.09402964
122	0xde	-0.2283577
123	0x05	0.033582017
124	0xff	-0.006716403
125	0xb3	-0.51716304
126	0xe5	-0.18134288
127	0x18	0.16119367
128	0xfe	-0.013432806
129	0x03	0.020149209
130	0xcc	-0.34925297
131	0x06	0.040298417
132	0x08	0.053731225
133	0xf0	-0.10746245
134	0xf2	-0.09402964
135	0xef	-0.11417885
136	0xf6	-0.06716403
137	0xf0	-0.10746245
138	0x00	0.0
139	0xf7	-0.06044763
140	0xdf	-0.2216413
141	0x0d	0.08731324
142	0xc4	-0.4029842
143	0x0d	0.08731324
144	0x0c	0.080596834
145	0xfb	-0.033582017
146	0x10	0.10746245
147	0xdb	-0.24850692
148	0x12	0.12089526
149	0x0f	0.10074605
150	0x06	0.040298417
151	0xd4	-0.29552174
152	0xfb	-0.033582017
153	0xf7	-0.06044763
154	0x0b	0.073880434
155	0x09	0.06044763
156	0x04	0.026865613
157	0x06	0.040298417
158	0xe8	-0.16119367
159	0x09	0.06044763
160	0x02	0.013432806
161	0x09	0.06044763
162	0x9d	-0.6649239
163	0xd2	-0.30895454
164	0xd2	-0.30895454
165	0xe5	-0.18134288
166	0xd5	-0.28880534
167	0x08	0.053731225
168	0x07	0.04701482
169	0x01	0.006716403
170	0x0f	0.10074605
171	0x07	0.04701482
172	0x05	0.033582017
173	0x07	0.04701482
174	0xf4	-0.080596834
175	0xee	-0.12089526
176	0xfe	-0.013432806
177	0xeb	-0.14104447
178	0xe9	-0.15447727
179	0xfc	-0.026865613
180	0xfe	-0.013432806
181	0xfa	-0.040298417
182	0xf7	-0.06044763
183	0xde	-0.2283577
184	0x19	0.16791008
185	0xfd	-0.020149209
186	0xd7	-0.27537253
187	0xe7	-0.16791008
188	0x01	0.006716403
189	0xf1	-0.10074605
190	0xaf	-0.54402864
191	0x10	0.10746245
192	0xbf	-0.4365662
193	0xfd	-0.020149209
194	0x02	0.013432806
195	0x11	0.11417885
196	0xee	-0.12089526
197	0xf8	-0.053731225
198	0xef	-0.11417885
199	0x0d	0.08731324
200	0xed	-0.12761167
201	0xf0	-0.10746245
202	0x14	0.13432807
203	0xfe	-0.013432806
204	0xf3	-0.08731324
205	0xdd	-0.23507412
206	0x08	0.053731225
207	0x10	0.10746245
208	0xe2	-0.2014921
209	0xec	-0.13432807
210	0x1c	0.18805929
211	0x17	0.15447727
212	0xd3	-0.30223814
213	0x0b	0.073880434
214	0xe7	-0.16791008
215	0xf0	-0.10746245
216	0x01	0.006716403
217	0x1b	0.18134288
218	0xc7	-0.38283497
219	0xd0	-0.32238734
220	0x13	0.12761167
221	0x02	0.013432806
222	0xf7	-0.06044763
223	0x09	0.06044763
224	0xec	-0.13432807
225	0xcf	-0.32910377
226	0x01	0.006716403
227	0xf3	-0.08731324
228	0xe2	-0.2014921
229	0x03	0.020149209
230	0x06	0.040298417
231	0xf4	-0.080596834
232	0xe5	-0.18134288
233	0x05	0.033582017
234	0xfd	-0.020149209
235	0xf6	-0.06716403
236	0xee	-0.12089526
237	0xf6	-0.06716403
238	0xff	-0.006716403
239	0xda	-0.25522333
240	0x0c	0.080596834
241	0xe8	-0.16119367
242	0xfb	-0.033582017
243	0xf7	-0.06044763
244	0x10	0.10746245
245	0x14	0.13432807
246	0x0c	0.080596834
247	0x00	0.0
248	0xe2	-0.2014921
249	0xf0	-0.10746245
250	0xfa	-0.040298417
251	0xec	-0.13432807
252	0xd7	-0.27537253
253	0xfd	-0.020149209
254	0x03	0.020149209
255	0xdb	-0.24850692

sequential/dense_1/MatMul_bias f4 [32]
0	0x3e8e42be	0.27785295
1	0x3f1ca67a	0.61191523
2	0x3fa13457	1.2594098
3	0x3f744b34	0.9542725
4	0x3f8763e1	1.0577356
5	0x3f76a17b	0.9634015
6	0x3fce10c1	1.6098863
7	0x3fc37bf0	1.5272198
8	0x3f2764b9	0.65388066
9	0x3ed96957	0.4246318
10	0x3e738d86	0.23784456
11	0x3e84a256	0.25905102
12	0x3f76a6e2	0.9634839
13	0x3fac8de0	1.3480797
14	0x3fae8f25	1.3637434
15	0x3f65e809	0.8980718
16	0x3f72a07c	0.9477613
17	0x3eec01ca	0.46095115
18	0x3ec04159	0.37549856
19	0x3e74b38e	0.2389662
20	0x3f9040e5	1.1269804
21	0x3f0d19c9	0.5511747
22	0x3f55e77c	0.8355634
23	0x3f2455b7	0.6419329
24	0x3fb76130	1.4326534
25	0x3f9e14d4	1.2350106
26	0x3fa1c133	1.2637085
27	0x3f19601d	0.5991228
28	0x3fb8bd10	1.4432697
29	0x3f449849	0.7679487
30	0x3f60292b	0.8756282
31	0x3f188750	0.5958147

sequential/dense_2/MatMul/ReadVariableOp/transpose f4 [10, 32]
0	0x3e048183	0.1294003
1	0xbce8d8fc	-0.028423779
2	0x3d44a2bb	0.048006754
3	0xbdd5b726	-0.104353234
4	0xbe1228b6	-0.14273342
5	0x3e1ceee5	0.15325506
6	0xbe3466f6	-0.17617401
7	0x3d06fae9	0.03295413
8	0x3c86a165	0.01643438
9	0xbb38e23f	-0.0028211025
10	0xbde0f481	-0.109841354
11	0x3dd928d0	0.106034875
12	0x3e1ced6a	0.15324941
13	0xbe392093	-0.18078832
14	0xbeb58d47	-0.3545935
15	0x3de3115d	0.11087296
16	0x3d79af1b	0.06095801
17	0x3dbf750e	0.09348498
18	0xbdb93ddb	-0.09045001
19	0x3e4df2cc	0.20112151
20	0xbdbcc8d2	-0.09217991
21	0x3cb5f4a1	0.022211375
22	0xbd3a3cf6	-0.045468293
23	0xbd5ff5ac	-0.05467765
24	0xbdf82f61	-0.12118412
25	0xbe412052	-0.18859985
26	0xbf12a63f	-0.5728492
27	0xbde55557	-0.11197918
28	0xbd9c1e7d	-0.07623003
29	0x3d8dd0d0	0.069245934
30	0xbe8e1515	-0.2775046
31	0xbec6cfe0	-0.3883047
32	0xbeb0cfcf	-0.34533545
33	0xbe507e61	-0.2036071
34	0xbe86666e	-0.26250023
35	0xbe1432d4	-0.14472514
36	0x3d750e58	0.059828132
37	0xbe3fc299	-0.18726577
38	0xbe8e6961	-0.27814773
39	0x3db73bd1	0.08946956
40	0xbe7d36ec	-0.24727982
41	0x3d0df760	0.034659743
42	0xbf72b3ce	-0.9480561
43	0xbe601172	-0.21881655
44	0x3dfa504d	0.122223474
45	0xbe17222f	-0.14759134
46	0xbdbeb3aa	-0.09311612
47	0x3dcf0975	0.10109226
48	0x3d65eebf	0.05613589
49	0x3cad6542	0.021166448
50	0x3d801505	0.06254009
51	0xbd7e30ba	-0.062058188
52	0xbc3d4f96	-0.011554619
53	0x3df48e38	0.119411886
54	0xbe65c1ad	-0.22437163
55	0x3da6b039	0.081390806
56	0xbe3cdae2	-0.18442872
57	0xbebd8bcc	-0.3702072
58	0xbeac3652	-0.33635193
59	0xbe84622a	-0.25856143
60	0x3d95c870	0.07313621
61	0x3da811c1	0.08206511
62	0x3a3d0662	0.0007210729
63	0xbe535412	-0.20637539
64	0x3de5f1ff	0.11227798
65	0xbc94f74b	-0.018184325
66	0x3dc0374c	0.09385547
67	0x3d809aa1	0.06279493
68	0x3e004479	0.1252612
69	0xbdc7cd59	-0.09755964
70	0xbe7a54c6	-0.24446401
71	0x3e20aa79	0.1569003
72	0xbd95ed48	-0.073206484
73	0x3b90349d	0.0044008032
74	0x3d6dc076	0.058044873
75	0x3dc159d5	0.09440962
76	0xbeb4e52f	-0.35331103
77	0xbe5712c4	-0.21003252
78	0xbe8c0751	-0.27349332
79	0xbe121352	-0.14265183
80	0xbe4b1ded	-0.19835635
81	0x3e06b389	0.13154425
82	0xbdd5b8fc	-0.104356736
83	0x3dfe7243	0.124241374
84	0xbec12411	-0.3772283
85	0x3d3bde52	0.045866318
86	0x3e66a9f2	0.22525766
87	0xbdc0b73a	-0.09409948
88	0xbe86d0db	-0.2633122
89	0xbdd0d868	-0.10197526
90	0x3e0d8c20	0.13822985
91	0xbd7f967a	-0.062399365
92	0x3db5d56f	0.088786
93	0xbda3ed95	-0.080042996
94	0x3e23d7ae	0.16000244
95	0x3e0a0968	0.1348015
96	0xbe2c5b5c	-0.16831726
97	0xbe04e158	-0.12976587
98	0xbd854701	-0.065076835
99	0xbc4a40d6	-0.01234456
100	0x3e375520	0.17903566
101	0xbebb8dfc	-0.36631763
102	0xbee1c1c2	-0.44093138
103	0x3d949057	0.07254093
104	0x3d201428	0.039081722
105	0xbd4f8fdc	-0.050674304
106	0x3d4d00f0	0.050049722
107	0x3d172c64	0.03690757
108	0xbeaed2dd	-0.3414525
109	0xbdf5853e	-0.119883046
110	0xbe616a76	-0.22013268
111	0xbcb783e0	-0.02240175
112	0xbeeb6ffc	-0.45983875
113	0x3da65ded	0.08123384
114	0x3d22cd83	0.039746772
115	0xbd3320de	-0.043732516
116	0xbe9509dd	-0.29109088
117	0x3dc85a56	0.09782855
118	0x3e6bc806	0.23025522
119	0xbd89ef82	-0.067351356
120	0xbea3433c	-0.31887233
121	0x3db6c225	0.08923749
122	0x3e2245cb	0.15846936
123	0xbe453bde	-0.19261119
124	0x3d0fd125	0.035111565
125	0xbd94340a	-0.07236488
126	0x3e27123b	0.16315548
127	0x3e1ee214	0.1551593
128	0x3dc71604	0.09720996
129	0xbe6ecc02	-0.2332001
130	0xbd98debe	-0.0746436
131	0x3e11224b	0.14173238
132	0xbde7f3e5	-0.11325816
133	0xbe0884e2	-0.13331941
134	0xbe7c477e	-0.24636647
135	0xbd288a41	-0.041147474
136	0x3d82efbe	0.063933834
137	0xbe1badf6	-0.1520308
138	0xbe2cfd7d	-0.16893573
139	0xbdf3bc1a	-0.11901112
140	0xbe1d7637	-0.15377127
141	0x3d24b9df	0.040216323
142	0xbda10f0c	-0.07864198
143	0x3c82d1dc	0.01596921
144	0xbe5fd316	-0.21857867
145	0x3e1cb2e1	0.15302612
146	0x3dbd74c5	0.09250788
147	0x3d778c09	0.060436282
148	0x3cc39348	0.02387394
149	0x3dcb0895	0.09913746
150	0x3d400485	0.04687931
151	0x3d8c7e5b	0.06860038
152	0x3bcfd204	0.0063421745
153	0x3c948f30	0.018134683
154	0x3db8971a	0.09013195
155	0xbd2bdb93	-0.04195745
156	0xbe11f9a4	-0.14255387
157	0xbdc8ca6f	-0.09804236
158	0xbdec977d	-0.115523316
159	0xbe2777f3	-0.16354351
160	0xbe0896eb	-0.1333882
161	0xbde18b0e	-0.11012851
162	0x3da52fcc	0.08065757
163	0x3d5e2310	0.054232657
164	0xbd5256da	-0.05135236
165	0x3de0bf9d	0.10974047
166	0xbe749aee	-0.23887226
167	0xbda28013	-0.079345845
168	0x3cbeb5f9	0.02328013
169	0xbe867b03	-0.26265725
170	0x3d29cdaa	0.041455902
171	0x3de6d365	0.11270789
172	0x3e057cdc	0.13035911
173	0x3d07025f	0.032961246
174	0xbe8f1657	-0.2794673
175	0x3df1e372	0.1181096
176	0xbd102146	-0.035187982
177	0x3cf19a12	0.029492412
178	0x3da12971	0.078692324
179	0x3d01c5d3	0.0316828
180	0xbdcc7189	-0.099825926
181	0xbcd8d23d	-0.026467437
182	0x3e549837	0.2076119
183	0xbe218625	-0.15773828
184	0xbcea1379	-0.028573738
185	0x3d9ae153	0.075625084
186	0xbe116638	-0.1419915
187	0xbd6ff8d3	-0.058586907
188	0xbe33aad5	-0.17545636
189	0x3d3f356c	0.046681806
190	0xbedd33bc	-0.43203533
191	0xbcbcd72d	-0.023051823
192	0x3dfe1cf1	0.12407864
193	0xbdcf7cbe	-0.101312146
194	0xbe0b9253	-0.13630037
195	0xbd42db1f	-0.04757225
196	0xbe54449b	-0.20729296
197	0x3e2819a3	0.1641603
198	0xbd9f7d6b	-0.077875935
199	0x3d797d44	0.06091048
200	0xbd318015	-0.04333504
201	0x3b3c84d4	0.0028765695
202	0xbe70f0e1	-0.23529388
203	0x3d85b50e	0.06528674
204	0x3e19da44	0.15024668
205	0xbe4fbce1	-0.20286895
206	0xbddd3e27	-0.1080287
207	0xbbf6277f	-0.0075120325
208	0x3d352f46	0.044234537
209	0x3ce14c55	0.027502218
210	0xbd6ee269	-0.05832139
211	0x3e5f6316	0.21815142
212	0x3d147809	0.036247287
213	0xbe0099da	-0.1255869
214	0xbda1fa02	-0.07909013
215	0xbd1a17cf	-0.037620362
216	0xbc79f317	-0.015255711
217	0x3d2afa32	0.04174251
218	0xbecc1145	-0.39856926
219	0xbd23e9e0	-0.040017962
220	0x3d249b89	0.040187392
221	0xbc9031d9	-0.017601894
222	0xbec06a73	-0.37581214
223	0xbea15a85	-0.31514373
224	0xbe90c333	-0.28273925
225	0xbd713340	-0.058886766
226	0xbe609146	-0.21930417
227	0x3e1038e1	0.14084198
228	0x3d2f5ef2	0.042815156
229	0xbecdfca0	-0.402318
230	0xbead56fb	-0.33855423
231	0x3d0fdb6c	0.035121366
232	0xbda02fff	-0.078216545
233	0x3ca7a914	0.020466365
234	0xbe1d3a5c	-0.15354294
235	0xbc2f3665	-0.010694121
236	0xbea3e210	-0.3200841
237	0xbe69f32d	-0.2284667
238	0xbd835580	-0.06412792
239	0xbcd2c27d	-0.025727505
240	0xbe6c86b9	-0.23098268
241	0x3d234e5e	0.03986966
242	0x3c5e2a9a	0.013559962
243	0x3e390ba1	0.18070842
244	0xbe622c93	-0.22087316
245	0x3e0a2f55	0.13494618
246	0xbcafa369	-0.021440225
247	0x3d7b25c2	0.061315306
248	0xbeaab742	-0.3334294
249	0xbdc299ef	-0.09502017
250	0x3df1a9d8	0.11799973
251	0xbda01824	-0.078171045
252	0x3cd7b6a8	0.026332214
253	0x3db1dd95	0.086848415
254	0x3e2a2fe3	0.1661983
255	0x3e07d69d	0.13265462

sequential/dense_2/MatMul_bias f4 [10]
0	0xbe0ca371	-0.13734223
1	0x3edfeefc	0.43737018
2	0xbeb7740a	-0.35830718
3	0xbdc8859e	-0.097911105
4	0xbc1bd856	-0.009512028
5	0xbd428d46	-0.04749801
6	0x3ea3131f	0.31850526
7	0xbf68b6d2	-0.9090396
8	0xbdcb3a06	-0.099231765
9	0xbe805410	-0.25064135
