model.tflite (tflite, 53368 bytes, 16 tensors)

sequential/conv2d/Conv2D/ReadVariableOp f4 [1, 3, 3, 8]
000000 f6 8e f6 bd 53 73 23 be 02 1d a9 bc b8 e2 96 be
       -0.120389864 -0.15961961 -0.020643715 -0.29469848
000010 18 2b 66 be da 5c 14 3e 93 e1 e1 ba c3 c9 ca 3d
       -0.22477376 0.14488545 -0.0017233364 0.09901764
000020 2f c4 51 3e a7 c6 bb be 99 6c 2d 3e 47 4e b6 bd
       0.20484994 -0.36674997 0.16935958 -0.08901649
000030 66 50 4a 3d 9b 75 4f bd 89 7c 44 3e c3 21 37 bd
       0.04939308 -0.050649267 0.19188131 -0.044709932
000040 34 f5 84 bd ef 52 80 3e d8 e8 8d be f5 b3 85 3e
       -0.06492081 0.25063273 -0.27716708 0.2611386
000050 42 7e 89 3d c3 e8 23 3e bb 58 98 be 32 00 9d bd
       0.06713535 0.1600676 -0.29755196 -0.07666053
000060 29 bd 17 bd 3a f1 d3 3d 3f 21 e8 bd 0f 07 9e be
       -0.03704563 0.10348745 -0.11334466 -0.3086476
000070 11 b2 dd 3d a3 5d 80 3e 5c 98 13 3d 62 d4 13 3e
       0.10824979 0.2507144 0.036033973 0.14436486
000080 f5 82 d6 bc 3c f7 9b 3c 48 ec 96 be 0d a7 56 3d
       -0.026185492 0.019038789 -0.29477143 0.052405406
000090 9a 12 f4 3c 3b e8 87 bd ef ba d7 be 57 1c 54 be
       0.029794026 -0.06636091 -0.42134807 -0.20713936
0000a0 0c e8 9a be fe af a4 3e fe 7a a6 be fe dd c2 be
       -0.30255163 0.3216552 -0.3251571 -0.38059992
0000b0 91 c8 50 3e 6f 1c 54 bd 25 de e6 3e 7d 97 26 be
       0.2038901 -0.05178493 0.45091358 -0.16268726
0000c0 b3 e5 e8 bd 6a 2c 16 3d f7 d9 76 3d 43 48 1f be
       -0.11371937 0.03666345 0.06026646 -0.1555491
0000d0 75 72 6c 3d df bb cc be 88 49 75 3d 2d c7 5d 3e
       0.057726342 -0.39987084 0.059884578 0.21658011
0000e0 4d e0 d2 3d 31 75 25 3c 5f 1c 20 be 66 81 a1 bd
       0.10296688 0.010098741 -0.15635823 -0.07886009
0000f0 79 e7 3d be f3 ad 22 3e fc a0 15 be 56 63 9c 39
       -0.18545331 0.15886669 -0.14612192 0.0002982865
000100 9f 01 0a be db 16 85 3d 51 bf 01 bf 0c 36 7f 3e
       -0.13477181 0.064985 -0.5068255 0.24922961
000110 c1 2c 8d be b8 db 04 be e3 04 bf 3d cc 5a 43 be
       -0.27573207 -0.12974441 0.09327104 -0.19077605

sequential/conv2d/Conv2D_bias f4 [8]
000000 79 ce 0c 41 dc 2c fc 3e 83 98 ff 3f 57 d8 0f 40
       8.800408 0.49252975 1.9968418 2.2475793
000010 3c a7 40 40 72 ec 7d be 6a 02 4b c0 49 6c 2c 40
       3.0102072 -0.24797228 -3.1720223 2.6941092

sequential/conv2d_1/Conv2D/ReadVariableOp f4 [8, 3, 3, 8]
000000 52 93 e9 be f8 0f 5c bd 76 6f 4d be 93 0d 0f 3e
       -0.4562021 -0.053726166 -0.2006205 0.13970022
000010 3e 3a 3c 3d e8 6f 82 3d f3 5b 03 be 09 eb a2 3d
       0.04595398 0.06369001 -0.12828045 0.07954986
000020 df 01 c3 bf 50 45 e9 3d 11 3b 00 bf 13 96 14 3d
       -1.5234946 0.113901734 -0.5009013 0.036275934
000030 a8 eb 34 bd 55 f8 10 bf 75 d2 94 bc 53 b4 68 be
       -0.04417005 -0.56628925 -0.01816676 -0.22725038
000040 eb eb 81 3f 4e 4b 42 3e bf d4 15 3e 26 03 df be
       1.0150121 0.18974039 0.14631937 -0.4355709
000050 c1 fc 4b bf fc cc d0 3e 99 fd 36 3f da bc 6d bf
       -0.79682547 0.4078139 0.7148071 -0.9286629
000060 a8 be d1 3d 24 f1 89 be 0e bf a5 bd d6 32 7b 3d
       0.10241443 -0.26941788 -0.080930814 0.061327778
000070 09 5f 90 3e 43 01 8b 3d f1 27 46 be d5 c2 d8 bc
       0.28197506 0.0678735 -0.19351174 -0.02646009
000080 9a d1 8f bf 3f b2 6d 3e 35 2f 0d c0 89 cb f5 3d
       -1.123584 0.23212527 -2.2060063 0.12001712
000090 90 2b 5a 3e 71 c2 bd 3d b9 14 84 bd cb 6d 6b be
       0.2130568 0.092656024 -0.06449265 -0.22991101
0000a0 86 f6 2e 3f 7b 7a 28 bf c1 23 b3 be 2a 38 4b bf
       0.68344915 -0.6581189 -0.34988216 -0.79382575
0000b0 35 e3 57 3d f7 ab 9f be 02 40 61 3f 99 36 b7 bf
       0.052706916 -0.31185886 0.87988293 -1.4313537
0000c0 69 05 2c be d4 91 0f be 8a 6c 84 bb 62 25 5f 3d
       -0.16798939 -0.14020473 -0.004041259 0.05447901
0000d0 4a 56 83 3e 47 5e c1 3d 64 09 79 be fb 37 d5 3d
       0.2565177 0.0944181 -0.24319988 0.10411068
0000e0 07 ae 55 bf 58 6d c5 bd 89 be d8 bf 0f 7d fd bf
       -0.8346867 -0.09639996 -1.6933147 -1.980379
0000f0 9a e6 43 bd ac 0e ba 3d b9 ee 21 3e 9a c6 fd bd
       -0.04782734 0.0908483 0.15813722 -0.12391396
000100 4f b6 9c 3e b0 a8 26 3f af 71 4f bc 3d 67 42 3d
       0.3060784 0.65101147 -0.012661382 0.047461737
000110 cf bf c7 be a2 55 42 be 88 5e 83 bf a3 d8 bc bf
       -0.39013526 -0.18977979 -1.0263224 -1.4753612
000120 80 14 24 be 5b d0 98 bd 76 79 a2 3e 93 c5 d4 3b
       -0.16023445 -0.07461616 0.31733292 0.0064932792
000130 1d ab 08 3d 46 bb 1c bd 43 96 94 bd 0a 1c 90 bd
       0.03336631 -0.038264535 -0.07255223 -0.07036598
000140 08 f8 f5 3d 40 4d 8b 3c c1 6b e1 be dc 6e 04 bf
       0.12010199 0.01700461 -0.44027522 -0.5173166
000150 3a 56 9b bd 8b e4 41 3e 1e ef b8 3d 06 af a7 bd
       -0.07584806 0.18934838 0.09029983 -0.0818768
000160 54 ed a5 3e 04 12 90 be 06 f5 05 3c 58 e3 08 3f
       0.3240763 -0.28138745 0.008176094 0.534719
000170 2a d2 3a 3c 3c 63 92 3c b6 f1 a4 be c5 37 30 3d
       0.011402646 0.017869584 -0.3221566 0.043021936
000180 b3 71 70 be db 9a 82 be ec 24 f0 bb 3c bd cb 3d
       -0.23480873 -0.2550877 -0.00732862 0.09948203
000190 cb 95 47 3e c5 07 a7 bc 26 ee f6 3d b9 5a 1c be
       0.19490735 -0.020389447 0.12057142 -0.15268983
0001a0 87 fc 8c 3e 42 04 3f bf 6c 47 c5 be eb 92 e9 bd
       0.27536413 -0.7461587 -0.38531053 -0.114049755
0001b0 53 87 5f bf a1 12 53 be a1 44 3f 3d 9e 15 2a be
       -0.87315863 -0.20612575 0.04669631 -0.16609809
0001c0 86 14 ca 3e b7 85 92 bd 3b a3 bc 3d a5 3c 23 3f
       0.39468783 -0.0715441 0.09210821 0.6376441
0001d0 9f d9 a7 3d 3d 7b 36 be 5a 91 16 bd b8 82 19 3e
       0.08195805 -0.17820449 -0.03675971 0.14991271
0001e0 7b a7 73 3c 9d 26 62 be 9d 5a 27 3c 65 52 ca 3c
       0.014871473 -0.22085042 0.010214475 0.024697492
0001f0 70 be 8b 3d b7 d2 2d 3d e0 63 e2 bd 98 83 1f 3d
       0.068234324 0.04243728 -0.11054206 0.038943857
000200 67 71 d0 3e c7 74 67 bf 92 0e 80 be 91 c8 94 bd
       0.4071152 -0.90412563 -0.25011116 -0.072648175
000210 56 85 2e 3d 36 20 c9 bd 72 b5 ed bd 96 34 c2 3d
       0.042607628 -0.09820597 -0.116068736 0.09482686
000220 de ac 7b be 6a 78 a8 3d d2 95 82 3e 71 65 c6 3e
       -0.24577662 0.08226092 0.2550493 0.3874927
000230 22 79 f7 bc dd 2b 21 3d 4d ef 44 3e 5d 93 8a bd
       -0.030209128 0.039348472 0.19231911 -0.067663886
000240 b2 11 9c be 7a 6b 91 39 10 d0 a4 3e 10 44 f8 3d
       -0.3048225 0.0002773663 0.3218999 0.12122357
000250 fc a6 1c bb 25 d6 11 3e 88 f8 35 3d 68 5f b2 bd
       -0.0023903241 0.14241846 0.04442647 -0.087096035
000260 c2 1c 98 bd 87 d9 22 be d6 0e 80 3d 39 b7 75 be
       -0.0742736 -0.15903293 0.0625283 -0.23995675
000270 46 9e 36 3e 22 9b 50 3e c3 81 66 3d df 18 f9 bd
       0.17833814 0.20371678 0.056276094 -0.12162947
000280 c4 9b 1a 3e 03 50 e1 bd eb df 49 bd c2 63 b0 3d
       0.15098482 -0.11001589 -0.04928581 0.08612777
000290 e5 c0 b8 3e 83 fc 88 3c ae 39 cf 3e 69 01 ff be
       0.36084667 0.01672197 0.40473694 -0.49805763
0002a0 0f 3e 96 bd 1f 1a a7 bd b3 7f 28 3c d0 2f 37 bf
       -0.073360555 -0.08159279 0.010284352 -0.7155733
0002b0 b8 f7 53 be f8 0c 03 3e 46 8f 2e be 53 43 10 3e
       -0.20699966 0.12797916 -0.17046842 0.14088182
0002c0 8f 84 89 be ca ce 2b be 16 16 b0 be 3e 97 5a 3d
       -0.26858947 -0.16778103 -0.3439185 0.053366892
0002d0 df 1d e6 3d 6d 48 90 be b9 e2 de be 75 b6 64 be
       0.11236166 -0.28180256 -0.4353235 -0.22335227
0002e0 3b 81 a3 3d 58 f5 22 bf 8b ab c3 be 51 04 f6 be
       0.07983633 -0.63655615 -0.38216814 -0.48050168
0002f0 56 07 ae 3e 0b 03 7d 3e cf b8 dc 3e 20 75 a0 be
       0.33989972 0.24708192 0.43109748 -0.3133936
000300 63 5f ee bd 66 79 16 bd e4 78 03 be 46 c0 f6 3d
       -0.11639287 -0.03673687 -0.12839085 0.12048392
000310 b7 c6 44 be 3e f7 61 3d e5 c2 19 be ec 2b 1e be
       -0.19216429 0.05516743 -0.15015753 -0.15446442
000320 9d 06 56 bf 05 cb 50 3e 3f b1 27 3e c4 05 8f bf
       -0.8360384 0.20389946 0.16376208 -1.1173635
000330 75 e1 09 3e 43 c8 a0 3e 25 52 c9 3d 7d de ca 3e
       0.13464911 0.31402788 0.09830121 0.3962287
000340 d7 b9 18 3f a9 55 a4 bf 71 32 c1 3e 1f 0b ed 3c
       0.5965857 -1.2838641 0.37733796 0.028935967
000350 f3 7a 02 bf 39 25 c3 3e 1b 99 d0 be cd 5c d6 3e
       -0.50968856 0.38114336 -0.4074181 0.41867676
000360 d5 03 a6 3c 1a 2d 88 3e b9 ed 92 be 10 d1 16 3c
       0.0202655 0.2659691 -0.28696993 0.009205118
000370 f2 a1 03 be ab 46 98 be 74 eb 8b bd f5 de bb 3c
       -0.12854746 -0.29741415 -0.068320185 0.022933463
000380 b0 a3 71 3e 1e 80 e6 be 9b 9e e4 3d a2 73 07 3f
       0.23597598 -0.4501962 0.11163064 0.52910817
000390 83 41 cb 3e fd 9c 3c bf 07 f3 a6 3d 0b 62 04 bf
       0.3969842 -0.73677045 0.081518225 -0.517121
0003a0 b6 08 6e bf 66 1d bb be d0 b3 9c bd 47 a3 19 bf
       -0.9298204 -0.36545867 -0.07651484 -0.60014766
0003b0 3c 26 b9 be f7 1d 97 3e 8d fc b3 bd 4c bd 80 be
       -0.36161983 0.2951505 -0.087884046 -0.25144422
0003c0 b7 f7 19 3d de e3 5c 3d 40 fd 5a bd 90 06 2f be
       0.037589755 0.05392825 -0.053464174 -0.17092347
0003d0 99 ce f7 3d c9 cf d5 be 2a 06 80 3e 43 3f 39 3b
       0.12099952 -0.4176009 0.25004703 0.0028266467
0003e0 6b fc 3c 3e 04 08 3b be 99 88 67 be 0a 2b 0f 3f
       0.18455665 -0.18264776 -0.22610702 0.5592505
0003f0 2d 18 d4 3d b2 d8 7e 3e 4c d4 af be c8 76 3b 3e
       0.10356174 0.2488735 -0.34341657 0.1830703

sequential/conv2d_1/Conv2D_bias f4 [8]
000000 2f ca f4 3f a7 4b 83 3e f6 ff f3 be e3 ba a9 bd
       1.9124202 0.25643656 -0.4765622 -0.08287599
000010 16 bc 10 3f f0 b6 d3 3f 1f 79 16 c0 09 e8 6f 3f
       0.56536996 1.6540203 -2.3511426 0.9371343

sequential/conv2d_2/Conv2D/ReadVariableOp f4 [8, 3, 3, 8]
000000 29 e0 b1 bc ca 06 9b bc 1e b7 91 3d 9b 96 2e bd
       -0.021713333 -0.018924136 0.07115005 -0.042624097
000010 61 fd 95 3d 73 d5 59 bf 19 60 cf bd ee d3 0f bc
       0.07323719 -0.8509132 -0.10125751 -0.008778555
000020 89 00 55 bf fc 6f ad be de 6d 4e bf 7f 6f d3 bf
       -0.8320394 -0.338745 -0.80636394 -1.6518401
000030 3a 86 87 bf 52 be 3b bf 6c 63 57 bf ad e5 9d 3d
       -1.0587838 -0.7333728 -0.8413608 0.07709823
000040 5b d2 82 bf b9 a0 d9 bf 02 db d6 bf f0 dc 89 bf
       -1.0220445 -1.7002174 -1.6785586 -1.077055
000050 34 bd 28 c0 28 e7 16 bf 58 3f ba bf 91 5f 0f c0
       -2.636548 -0.58946466 -1.4550581 -2.240208
000060 18 08 c5 bb 53 47 b3 3d 48 19 29 bc 92 1f 26 3d
       -0.0060129277 0.087538384 -0.010320969 0.04055745
000070 f0 f4 af bc f8 d6 20 3d ea 28 74 3d f7 3e 4f 3d
       -0.0214791 0.03926751 0.05960933 0.050597157
000080 30 8d 82 be 10 ac c2 be 08 c9 83 be 90 d4 17 be
       -0.25498343 -0.38021898 -0.25739312 -0.1482718
000090 4b c4 2a be 05 aa 10 3f ad b1 56 3e 38 74 ee bc
       -0.16676442 0.5650943 0.20966215 -0.029108152
0000a0 01 3f 3c 3f 8d b6 e0 3e df 0f 25 bf 98 ff de be
       0.73533636 0.43889275 -0.6447734 -0.43554378
0000b0 e4 ba 1e 3f 20 16 59 3e 1e 94 14 bf dc 63 ac bf
       0.6200392 0.21199846 -0.5803851 -1.3467975
0000c0 6f 32 84 be e2 68 e8 3d 13 5a cd bd e6 a9 3e 3d
       -0.25819728 0.1134813 -0.10026946 0.046548747
0000d0 81 11 05 3c 18 47 a5 3d 52 d1 14 bd fb ee 22 3d
       0.008121849 0.08070201 -0.036332436 0.03977869
0000e0 41 41 59 3e c0 db d2 be 49 97 ce bd e6 75 17 3e
       0.21216299 -0.4118328 -0.10087449 0.14791068
0000f0 36 92 a3 3c 6c cc 96 3e e1 ef b9 3e b9 42 9b be
       0.01996718 0.29452837 0.36315826 -0.30324343
000100 e0 b5 59 3e e5 cc c1 3d a1 33 51 3e 12 a9 89 be
       0.21260786 0.09462909 0.20429851 -0.26886803
000110 5f 54 a3 be c4 1c 4e 3c 48 e1 4e bd 59 6c 21 bf
       -0.31900308 0.0125801 -0.050507814 -0.6305595
000120 a5 a3 d7 3d 83 f0 18 3e 10 9c 7a 3b c1 90 10 3e
       0.105292596 0.14935498 0.0038239993 0.14117719
000130 1e 2b 29 bd 09 14 7e 3d d5 cf 90 3e 09 b4 01 be
       -0.041300885 0.062030826 0.28283563 -0.12666334
000140 63 80 6b bf ab e4 1c bc 23 f6 a6 bd 85 6e 6e 3d
       -0.9199278 -0.009576003 -0.081524156 0.05821087
000150 57 71 1d be 30 64 03 3e d7 18 3a bd 1a 79 7a 3d
       -0.15375267 0.12831187 -0.045433845 0.061150648
000160 2b 45 1a be bd 8e 3c 3d ac 13 6a be 10 e3 b5 3c
       -0.15065448 0.046034563 -0.22859067 0.022202998
000170 af 0d 17 be 32 db d3 3d 54 72 3a 3e cd 0c 91 3e
       -0.14751314 0.103445426 0.18207675 0.2833008
000180 01 2c f3 3d 73 ad ab 3d 66 42 09 bf 9f af e0 bd
       0.118736275 0.08382692 -0.5361694 -0.10970997
000190 fb 20 0a bf aa 21 ed be 8d 70 76 3e 0b b6 31 bd
       -0.53956574 -0.46314746 0.24066372 -0.0433865
0001a0 c1 47 d6 bf a2 9f e6 bd d0 c8 96 be b5 f8 9c bc
       -1.6740648 -0.11260916 -0.29450083 -0.019161562
0001b0 17 e6 aa be 1e 19 51 be 32 f6 89 bf 21 cc 05 be
       -0.3337867 -0.20419738 -1.0778258 -0.1306615
0001c0 06 73 80 bd 8b a1 27 3e 6d 51 8c bb 30 09 01 bd
       -0.06271939 0.16370218 -0.0042821676 -0.031502903
0001d0 03 b9 bb be 1f 6e e4 3d d9 ff a2 3d 77 99 23 bf
       -0.3666459 0.111538164 0.07958955 -0.63906044
0001e0 80 19 3a bc 2f d7 ad 3c 48 04 ee be 7a 3e 6b be
       -0.011358619 0.021220772 -0.4648764 -0.22973052
0001f0 28 77 05 bf 95 07 28 bf 1d b1 0e bf 46 8f 35 bf
       -0.52134943 -0.6563657 -0.55739003 -0.7092174
000200 b3 8e 84 bf 88 56 37 bd ac eb 29 bf f4 fe ba bc
       -1.0356048 -0.044760257 -0.6637523 -0.02282665
000210 41 4e 89 bf 46 f9 0e bf ad 8b 6b bf 50 7e b9 be
       -1.0727006 -0.5584911 -0.92010003 -0.3622918
000220 3c a3 18 bd 34 68 3f bc d0 cb 3f bf 7b 87 d7 3d
       -0.037265047 -0.011682559 -0.7492037 0.10523888
000230 ae 8a e0 bd 31 75 f4 bd 48 7f 6c 3e ad ae 2b bf
       -0.10963951 -0.11936415 0.23095429 -0.6706341
000240 ec 25 f9 bd a2 0f ca 3d 8b 4b 76 3d cf 57 29 3d
       -0.12165436 0.09866263 0.060130637 0.041343506
000250 48 9d e8 bd 7e dd d1 3d e2 7c c5 be 74 9c 32 bf
       -0.11358124 0.102473244 -0.3857184 -0.6976998
000260 26 74 8d be 08 ea 9b bd 1c bd 06 3e e1 04 3e be
       -0.27627677 -0.07612997 0.13158077 -0.18556549
000270 43 cf c3 be 26 f1 41 3e 3e d2 fe be 28 fd 21 3d
       -0.38244066 0.18939647 -0.49769777 0.03954807
000280 9b 69 3e bd bb c9 4f bd 1a 89 cf bc 78 75 b7 bb
       -0.046487432 -0.050729495 -0.02533393 -0.00559872
000290 05 e2 a9 3e ff 7a 37 be 0e 54 7c bf 3b f6 02 3e
       0.33180252 -0.17918013 -0.9856576 0.12789242
0002a0 91 ea 3a be 3b c9 1f bc ed 6a 22 be 81 c0 2c 3d
       -0.18253542 -0.009752567 -0.15861101 0.042175774
0002b0 fe 62 51 bd 1d 83 f7 3d c3 0b 5b bf d5 7a 8e be
       -0.051119797 0.12085555 -0.8556482 -0.27828088
0002c0 7b 7e 29 bf 28 c9 02 3c e8 10 3b 3e 2e 54 7c be
       -0.6620862 0.00798253 0.18268168 -0.24641487
0002d0 69 65 40 bf 78 d6 ec bc eb a8 a4 bf 98 ed 29 bb
       -0.7515474 -0.02891086 -1.286405 -0.002592897
0002e0 65 af 07 be c9 49 b7 3d 26 7a f8 bb 37 31 a1 be
       -0.13250501 0.0894962 -0.0075829206 -0.3148286
0002f0 d3 00 f9 ba b3 ed bd bd ce 51 e8 be 68 70 55 bd
       -0.0018997438 -0.09273853 -0.45374912 -0.052109152
000300 4a ea cf bd a1 7f 21 bd 39 dd 66 bf fd a9 77 3d
       -0.10152109 -0.039428357 -0.9018131 0.060464848
000310 d5 8b a6 bc 3c db 02 3c ca af 25 be 97 d3 bc bd
       -0.020330349 0.00798684 -0.1618034 -0.09220045
000320 e2 c2 96 be da 22 52 3e 17 d9 89 3d 5e 38 8e bd
       -0.2944556 0.20521107 0.0673086 -0.06944345
000330 6d c5 8c be 39 77 7d bd 0b 1b 61 bf d3 44 43 3d
       -0.27494374 -0.061881278 -0.8793189 0.047673058
000340 c2 d7 0e be b4 84 68 3e 44 dd 71 3d cd ff ab bd
       -0.13949493 0.22706872 0.059048906 -0.083983995
000350 59 e1 1a 3d 3d 20 49 3e 8c 8e 6c bc 2b 6a 88 be
       0.037812565 0.19641204 -0.014438283 -0.266435
000360 a3 20 06 3d da ba 80 3c bc 6b 66 bd dc d3 e4 bc
       0.03274597 0.015714098 -0.056255087 -0.027933054
000370 85 3a 73 bd 68 1d 7d bd a9 d8 70 3d d3 89 bc 3c
       -0.05938198 -0.061795622 0.058800373 0.023014938
000380 68 c7 a0 3c a5 e7 6b bf 84 bb 81 bd 92 fc 53 3d
       0.019626334 -0.92150337 -0.06334594 0.05175454
000390 4f 4a 8c be e0 91 0b be b4 60 1f be a1 00 6e bf
       -0.27400443 -0.13629866 -0.15564233 -0.9296971
0003a0 dc 38 eb 3d b4 08 e5 be 03 4c 12 3e 4d 64 ad bd
       0.114854544 -0.44733202 0.14286809 -0.084663965
0003b0 6d e6 21 3d d8 8c bb bf df 25 c2 3d 3b b6 66 bf
       0.03952639 -1.4652357 0.094798796 -0.9012181
0003c0 dd ea 94 3d 7f 04 bd 3c 61 01 fd 3c 44 f0 a7 bd
       0.07271359 0.023073433 0.030884447 -0.08200124
0003d0 ad 08 b7 bd f5 ed 17 be 02 41 51 3c 07 7a 88 bc
       -0.08937202 -0.14836867 0.012771847 -0.01665975
0003e0 45 88 32 be 65 b9 1e bf a3 cf 88 bd 65 02 29 be
       -0.17434795 -0.6200164 -0.066802286 -0.1650482
0003f0 52 bd 0a bf 9c a9 d0 be 9c 3a 1b be c9 ed 9a 3c
       -0.5419513 -0.40754402 -0.15159076 0.018912213

sequential/conv2d_2/Conv2D_bias f4 [8]
000000 96 46 1e 3f 7f 36 7a 40 97 60 13 40 8f 3b 7b 40
       0.61826456 3.9095762 2.3027704 3.9255102
000010 9b 85 5b bf ed 1b e1 bf ef a0 d0 3e cf ba 27 c0
       -0.8575074 -1.7586647 0.40747783 -2.620777

sequential/conv2d_3/Conv2D/ReadVariableOp f4 [16, 3, 3, 8]
000000 68 6d 5e bf 17 99 da be b5 9f 15 bf 69 52 38 be
       -0.8688569 -0.42694923 -0.5844682 -0.18000187
000010 0c 43 57 be e6 5e 99 be 28 11 03 bf a6 6f 72 be
       -0.2102167 -0.29955214 -0.51198053 -0.23675403
000020 c3 6d 6b be 9f 5e 1b bc 81 d2 ba bc bc fa 23 3d
       -0.2299109 -0.009483009 -0.022805454 0.04003404
000030 28 f7 98 bd 72 0c b6 bf 29 56 7c bf 44 cd 97 bd
       -0.07469016 -1.4222548 -0.9856897 -0.07412198
000040 52 39 58 be 00 b9 20 be 82 c1 a5 bd 00 2e 33 bf
       -0.21115616 -0.15695572 -0.08093549 -0.69992065
000050 e9 dd 73 be ef f6 4d 3e 42 ed ce be 7a b4 d3 3d
       -0.23815121 0.20113729 -0.40415388 0.103371575
000060 89 06 0a 3f 6f 82 05 3e d7 c8 8c be 3d b0 62 3e
       0.5391622 0.13038038 -0.2749698 0.22137542
000070 2b 04 f7 be 42 8d a3 be 3a 51 bf be c4 9c 53 3e
       -0.48245367 -0.3194371 -0.37366658 0.2066527
000080 ff 17 22 bd d0 ef a1 3d 0b 5c 51 3c 72 ea 02 3e
       -0.039573666 0.07907069 0.012778292 0.12784746
000090 91 c6 f3 3c a3 2a 80 bf ac 18 07 be 74 2b a9 bd
       0.02975777 -1.0013012 -0.13193005 -0.08260241
0000a0 19 46 80 bd fd 13 15 3e df 99 b8 bc a7 eb 58 bf
       -0.0626337 0.14558406 -0.022534309 -0.84734577
0000b0 45 86 58 3e f6 b8 a1 3e 62 0c 27 be 68 51 67 3e
       0.2114497 0.31586426 -0.16313317 0.22589648
0000c0 19 17 e2 bd 2c 59 f9 3d 89 04 04 be 25 4e 32 3c
       -0.11039562 0.12175211 -0.12892355 0.010882889
0000d0 f7 3b 87 be 60 e5 c5 be fa 7a 87 3b 84 e9 42 3d
       -0.26412937 -0.38651562 0.004134533 0.04758598
0000e0 d1 75 5f be fd d6 00 3e 14 67 c6 bc 1e 9c e1 bc
       -0.21822287 0.12582012 -0.024219073 -0.027540263
0000f0 8c ff 90 ba 59 e1 5e be ae 27 85 be 2f 2e 74 be
       -0.0011062487 -0.21765651 -0.26006836 -0.23845743
000100 c2 a9 3b bf 52 84 55 3e a4 09 0f 3e df 08 cc be
       -0.73305905 0.20851257 0.13968521 -0.39850518
000110 5c e5 c1 3d 59 66 4b 3e 4b 85 60 bf f4 26 7d bc
       0.09467575 0.19863261 -0.8770339 -0.015451182
000120 59 09 3d 3e f8 06 36 be 77 b6 60 be 59 0c 80 bf
       0.18460597 -0.17776096 -0.21944605 -1.0003768
000130 b3 0c 62 bf 5b 81 cf be 01 1f 9a be b7 b7 01 bf
       -0.8830063 -0.40528378 -0.3010178 -0.5067095
000140 12 57 df 3d 85 46 8b bd b5 cf fc 3c cb 30 ec bd
       0.10905279 -0.0680056 0.030860761 -0.11532744
000150 cf 44 d8 bd 40 2b 75 be 3d 61 44 3d ed 06 f2 bc
       -0.10559999 -0.2394228 0.047944296 -0.029544318
000160 ae 2c 3d 3e ba ca 0a bf 41 d6 17 bf 02 f6 91 3e
       0.18474075 -0.54215586 -0.593113 0.28508002
000170 49 92 5d 3f fb 14 87 3e a0 a8 a1 3e 54 db 93 bd
       0.8655134 0.26383194 0.31573963 -0.07219568
000180 ec 00 fd 3e 96 61 0a 3e f7 db f1 3c 2c 3f 85 bd
       0.49414766 0.13513789 0.029523833 -0.0650619
000190 a3 99 0c be 5a 27 a3 be bd 60 07 be 44 59 88 3e
       -0.13730483 -0.3186596 -0.13220496 0.26630604
0001a0 82 38 30 3d 32 c2 1a bf 78 cd d6 bc 18 20 80 bb
       0.04302264 -0.6045257 -0.026221022 -0.003910076
0001b0 71 1e e6 bc 50 ed 3b bd 18 f9 e4 be 81 43 29 bf
       -0.028090687 -0.045880616 -0.44721293 -0.6611863
0001c0 c7 01 02 be 86 9e 3b bf a0 4f b4 be 0a e6 b9 bf
       -0.1269599 -0.7328876 -0.35217 -1.4523327
0001d0 af fa f0 3e 12 25 a8 3e ce 10 63 bf 34 19 a6 3d
       0.47066256 0.32840782 -0.88697517 0.08110276
0001e0 f2 41 0f 3e 5f 79 70 3d 4f 23 6a 3d 97 07 53 bd
       0.1399 0.0587095 0.05716258 -0.05152091
0001f0 46 7a dd bd b1 8b 0b be 7a 0e f5 bd bc 76 f4 3c
       -0.108143374 -0.13627507 -0.11965652 0.029841773
000200 27 b3 d6 bc c9 66 be be 74 38 a6 3d 49 8d 01 39
       -0.026208473 -0.37187794 0.08116236 0.00012355032
000210 01 b0 37 bd ee 2d dc 3d 1b ac 39 bd 74 6e 2a 3d
       -0.044845585 0.10750948 -0.04533015 0.041609243
000220 b1 1c 55 be 66 6e 59 bf e8 c2 6b 3e f3 a5 f7 3d
       -0.20811726 -0.8493408 0.2302357 0.12092199
000230 1e 89 c2 bd 5e cf 6a be 7d 48 2b 3e 24 dd f3 3c
       -0.09498809 -0.22930667 0.16726871 0.029768534
000240 a4 d6 c1 3c d4 17 9b be 5d 81 cf be e1 86 f1 bd
       0.023661919 -0.30291617 -0.40528384 -0.11793304
000250 8f a6 90 bc 79 f6 f9 3d 02 b4 29 3d 97 bc 21 3e
       -0.017657546 0.12205214 0.041431434 0.15794598
000260 e6 fe 97 be 31 35 1a 3d 63 15 09 bf 8a 51 2e 3d
       -0.2968666 0.037648384 -0.5354826 0.04255823
000270 99 8f ab bd 29 69 12 be 5b ea ab be 91 76 5f 3d
       -0.083769985 -0.14297928 -0.33577237 0.054556433
000280 8e cb 01 bd 19 4f b4 bd 60 b4 5f bf c4 9b e0 be
       -0.031688266 -0.08804149 -0.87384605 -0.4386884
000290 7c f6 d0 3d 92 fc bc bf 13 9b ea bf 21 d4 86 bf
       0.10203263 -1.4764578 -1.8328575 -1.0533487
0002a0 a2 b3 84 bd 63 c7 0e bf dd ca 8e be 62 26 07 bf
       -0.06479575 -0.5577299 -0.27889147 -0.5279294
0002b0 42 1e 2f 3e ff 28 d3 bd e1 79 ea 3d 99 07 5b 3e
       0.17101386 -0.10310554 0.11449028 0.21389617
0002c0 67 77 50 be b0 5b 79 be 26 fb 93 bd f7 7a 12 bd
       -0.20358048 -0.24351382 -0.07225637 -0.0357618
0002d0 cc f1 5e 3d d2 92 1e be 62 b4 36 3e f6 d0 0a 3e
       0.054429814 -0.15485695 0.17842248 0.13556275
0002e0 6a 33 c0 3d 30 d8 71 3c 42 41 41 bf 15 70 14 3f
       0.093848065 0.014761016 -0.754902 0.57983524
0002f0 be 0e 06 bf 8c 7b 48 bf 83 2a c4 3e ca eb d2 bd
       -0.52366245 -0.7831352 0.38313684 -0.102988794
000300 35 30 a5 3d 39 1d 0f be 37 e0 9e bd e7 12 ec 3c
       0.080658354 -0.13975991 -0.07757609 0.028817607
000310 de ba 08 be 7c 16 e5 bd fa 6e 50 bc ee df db 3d
       -0.13352534 -0.11185929 -0.012721771 0.107360706
000320 8c d4 93 3d da fa 81 be 5d 8f b8 bc 01 bb 0e be
       0.072182745 -0.25386697 -0.022529298 -0.13938524
000330 70 22 ec 3d 14 95 ff 3d 9e 72 10 3e 9b 3a 8c bd
       0.11530006 0.12479606 0.14106223 -0.068471156
000340 b2 41 5f 3e 3a f0 23 bf 4f 1e d8 3e 98 91 1b 3e
       0.21802405 -0.6403843 0.42210624 0.15192258
000350 ed 66 9d 3d 72 e7 71 3e b4 aa 15 3e 1b fa b8 3d
       0.07685647 0.23623446 0.146159 0.09032079
000360 a2 8d ff bd bb ab 03 bf 8b e0 a0 3b 13 b1 9f 3c
       -0.12478186 -0.51433915 0.00490958 0.019493615
000370 ca 75 2a bd c0 21 85 3e 77 e3 e5 bd 1c 2d 19 be
       -0.04161624 0.26002312 -0.11225026 -0.14958614
000380 71 37 5d bd fb 2a 8b bd b5 97 bb 3c f8 4e 81 bd
       -0.05400795 -0.06795307 0.022899488 -0.0631389
000390 d2 2d 0c 3d 41 b0 a1 3d 78 13 09 bf 57 bf be bd
       0.034223385 0.07894946 -0.5354533 -0.09313839
0003a0 7b e4 bb be 28 ac 31 be fe 82 08 bf 35 b9 02 bf
       -0.36697754 -0.17350829 -0.5332488 -0.51063854
0003b0 1d cd fb 3e 58 76 1e 3e 72 ad d0 be 61 51 74 3e
       0.49179927 0.15474832 -0.40757328 0.23859169
0003c0 4f a3 30 3e 4d c9 f0 3d c7 5a bf 3d 55 fa 05 bf
       0.17249797 0.11757145 0.09343486 -0.523351
0003d0 a2 33 1d bd fb d7 91 be 27 31 2a 3e f6 7e bf bc
       -0.03837932 -0.28485093 0.16620313 -0.02337597
0003e0 51 1d 55 3e c6 97 2b 3e 75 26 dc bc e4 ac 6c bd
       0.20811965 0.16757116 -0.026873806 -0.05778207
0003f0 8f 73 e9 bc bd 66 ec 3d ff 3f aa 3e 9a 5b cd bd
       -0.028497485 0.11543033 0.3325195 -0.10027237

sequential/conv2d_3/Conv2D_bias f4 [16]
000000 43 6d d6 3f a4 ad f6 bf 2a 93 e5 be f2 27 43 be
       1.6752094 -1.9271741 -0.4483884 -0.19058207
000010 12 59 00 c0 26 c5 1e bf f3 b8 ee 3e e3 53 10 c0
       -2.0054364 -0.62019575 0.4662548 -2.25512
000020 2b 96 0e 3e 8f 45 09 3f cf 4c d3 bf 2e 14 ba 3f
       0.13924472 0.53621763 -1.6507815 1.4537408
000030 99 ea 83 bf da a1 d0 be bc 25 cb bf fa 47 24 3f
       -1.0305969 -0.40748483 -1.5870891 0.6417233

sequential/conv2d_4/Conv2D/ReadVariableOp f4 [16, 3, 3, 16]
000000 44 af ad bc 52 8e 9e 3d 48 c1 13 be de 7d 9e bd
       -0.021201737 0.07741989 -0.144292 -0.07738851
000010 a0 a4 bd bd 70 73 98 bc 40 5d 0b 3e 96 c4 f7 bd
       -0.09259915 -0.018609732 0.13609791 -0.12098043
000020 50 0e c7 3c e0 fb 0c 3e 24 23 0c bd d0 1c 02 3e
       0.024298817 0.13767958 -0.0342132 0.12706304
000030 b2 d4 8e 3d 5f 11 06 be e0 d0 07 3e ae f0 97 3d
       0.06974162 -0.13092564 0.13263273 0.07418953
000040 09 be 08 3b 75 7f 47 3e 46 ee 6b bd 42 28 b9 bd
       0.0020865223 0.19482215 -0.057600282 -0.09040882
000050 77 9e 63 bc 74 30 4d 3e 99 d6 1b 3e 7b c7 57 3c
       -0.013892761 0.20038015 0.15218581 0.013170118
000060 0f 6f b6 bc e0 07 49 be fa 46 76 bb cb f6 93 3d
       -0.022269754 -0.1963191 -0.0037578926 0.072248064
000070 c9 3d b8 3e 69 d0 7b be c3 53 84 3d 64 5f fc bc
       0.35984638 -0.24591221 0.06461289 -0.030807205
000080 ea 05 c7 3d 1d 30 91 bd 16 fa e6 bd 03 7f 90 bd
       0.09717925 -0.07089255 -0.11278169 -0.070554756
000090 74 52 81 bd c0 94 3f bb 76 4f 0c 3e 74 e7 09 3e
       -0.06314555 -0.002923295 0.13702187 0.13467199
0000a0 0c be db 3d 02 90 04 be 40 e3 b3 3b 3e 4c 10 be
       0.10729608 -0.1294556 0.005489737 -0.14091584
0000b0 c4 56 cf 3d 50 ff 83 bc 00 24 82 3d a8 15 73 3d
       0.10123971 -0.016112953 0.06354523 0.059346825
0000c0 3c 32 1e 3d d8 9c 62 3d a6 ab 03 3e 00 30 e5 3c
       0.038622126 0.05532536 0.12858447 0.02797699
0000d0 76 b9 0f 3e 20 d0 4d 3c 02 10 04 3e 7c 00 4f 3d
       0.14035591 0.012561828 0.12896731 0.05053757
0000e0 40 e6 02 3c a8 fc c4 3d 30 52 5e 3c b6 0f aa 3d
       0.007989466 0.09618503 0.0135694 0.08303778
0000f0 dc fb 76 3d bc 92 71 3d 2b f7 8b bd 74 91 ad bd
       0.060298786 0.058977827 -0.06834253 -0.084750086
000100 61 17 8e be 5a 9d ca be 0c 98 d3 3c e0 57 a0 3d
       -0.27752212 -0.39573175 0.025829338 0.07829261
000110 d2 89 86 3d ff c2 14 be 3a 57 13 bf 1f fa 8c be
       0.06569256 -0.1452751 -0.5755497 -0.27534577
000120 35 74 9f bd bf 9a 5f bf cc 9b 26 3e 39 fe 9c bd
       -0.077858366 -0.873455 0.1627037 -0.076656766
000130 73 3b 5d 3d 4a fc 18 bb 5a 1b 35 3e e8 55 06 be
       0.054011773 -0.0023343735 0.17686215 -0.13118708
000140 e2 5b c4 3d 60 87 9d 3d be f8 28 bd f2 52 4d bd
       0.09587838 0.07691836 -0.041252844 -0.05012793
000150 f4 30 53 bd a8 7d 37 3d 98 f2 df bc 4a d3 43 bd
       -0.051560357 0.04479757 -0.027337357 -0.047808923
000160 65 58 12 be a0 c0 f8 bb e2 7e bf bd 80 2e 9a 3d
       -0.14291532 -0.007591322 -0.09350373 0.075284004
000170 b8 7f e3 3d 12 f3 b9 bd 20 0e e6 3c 00 d7 a2 bb
       0.11108345 -0.09079565 0.028082907 -0.0049694777
000180 ac aa f3 bd 00 10 a0 38 14 cf 0e bd 66 d4 11 3e
       -0.118977875 7.632375e-05 -0.034865454 0.1424118
000190 58 47 8a 3d 58 91 13 be 20 b5 ac bc 04 f5 39 bd
       0.06751889 -0.14410913 -0.02108246 -0.04539968
0001a0 e1 32 cb bd 10 cd 38 bc dc bb ea 3d 8c a6 41 3d
       -0.09921814 -0.011279359 0.114616126 0.047277972
0001b0 4c ee fa 3d 24 cb 6a bd 4e 5b c2 bd e0 1b fb 3b
       0.12252483 -0.057322636 -0.09490071 0.007663235
0001c0 64 66 23 bf 7e ee 16 bf fb 86 47 bf 50 97 08 bc
       -0.6382811 -0.5895766 -0.7794034 -0.008336857
0001d0 cf 35 cd be 98 aa 9f bf 10 8c 1e bf 13 8b a4 be
       -0.40080115 -1.2473936 -0.6193247 -0.32137355
0001e0 5b 96 96 bd b1 9a 21 be 3e 71 07 be de 02 9a 3d
       -0.07352897 -0.15781666 -0.13226792 0.07520078
0001f0 51 17 1e bf 4f 4d 53 be 87 87 74 3c aa 25 bb 3d
       -0.6175433 -0.2063496 0.01492489 0.09138043
000200 1e 93 d1 3d 98 1e 9b bc 38 50 fe bd 00 68 e8 3d
       0.102331385 -0.018935487 -0.12417644 0.113479614
000210 0c bb 04 be 13 49 11 be a2 ce 28 bd 14 27 df bc
       -0.12961978 -0.14188032 -0.041212685 -0.027240314
000220 98 41 c2 3d aa d7 9e bd c7 d2 ef bd 20 a8 67 3c
       0.09485167 -0.077559784 -0.117101245 0.014139205
000230 82 9a c1 bd 8c e2 eb 3d 40 d8 95 bb b0 31 e0 bd
       -0.09453298 0.1151782 -0.004572898 -0.10946977
000240 4e 6d 84 bd 68 d4 05 be b0 5e 65 3d 3c c2 3e bd
       -0.06466161 -0.13069308 0.055998504 -0.046571955
000250 0c b6 11 3e 38 1f a0 bc ca b5 c3 bd 92 c6 63 bd
       0.14229602 -0.019546136 -0.09556158 -0.055609293
000260 94 30 60 3d ec db f5 3d ae 09 d8 bd 1c 48 cb bc
       0.054733828 0.120048374 -0.10548721 -0.024814658
000270 f4 73 62 bd a4 13 1e 3d 84 28 fb 3d 3e 07 88 3d
       -0.055286363 0.03859295 0.12263587 0.06642006
000280 70 9a 51 bf f6 7f 87 3d 2d 0f 5d 3c 6a 1e 81 be
       -0.8187628 0.066162035 0.013492388 -0.25218517
000290 5e 47 ae be b3 77 c2 be 45 0a 87 3b f6 09 ca ba
       -0.34038824 -0.37981948 0.0041210973 -0.0015414346
0002a0 17 61 25 3e 82 3b 67 be 44 80 07 bf ed f8 34 bf
       0.16150318 -0.22581294 -0.5293009 -0.7069233
0002b0 12 f1 4f bf 62 8b 88 3d 45 7e 26 3e 61 2e 1c bf
       -0.8122722 0.0666721 0.16259106 -0.6100827
0002c0 d8 14 8f 3c 94 35 57 3d 92 9a 0f 3e 6c 31 00 3d
       0.017465994 0.05254133 0.14023808 0.031297132
0002d0 b4 aa 6a 3d 60 f5 8a bc 40 4d 1f 3c 78 83 eb 3c
       0.0572917 -0.016962707 0.009723008 0.028749213
0002e0 7e e2 a8 3d 2c 1d 11 3e 92 b9 53 bd 98 4d e2 3d
       0.08246325 0.14171284 -0.051690646 0.11049956
0002f0 a8 1a ba bc d8 9a 82 3c a0 45 ee bc 72 7e bb bd
       -0.022717789 0.015942976 -0.029085934 -0.09154977
000300 28 68 19 3d d5 0a 88 bd 35 11 c2 bd e0 e9 af 3b
       0.037452847 -0.06642691 -0.09475938 0.0053684562
000310 7e 4e 6b bd a0 c6 e5 3c 97 42 90 bd 62 f4 b6 bd
       -0.057447903 0.028048813 -0.07043951 -0.08933331
000320 74 4b 1e bd 48 a8 af 3d f8 5c 96 3d ec e9 e2 3d
       -0.038646176 0.08577019 0.07341951 0.11079773
000330 20 49 c7 3d f8 86 08 3e 30 c7 a3 3c 00 1f d7 3a
       0.09730744 0.13332736 0.019992441 0.0016412437
000340 23 55 10 bf d5 48 9f be 11 04 84 be ec 0d 80 be
       -0.5637991 -0.31110254 -0.25784352 -0.25010622
000350 2b f0 92 be 6d 11 e9 3d 36 c1 ad 3d d5 36 e7 be
       -0.2869886 0.11380277 0.08484118 -0.4515902
000360 79 56 18 3e d6 8e 8e bd 8a 6a 1a bf 97 db 8b be
       0.14876737 -0.069608375 -0.60318816 -0.2731597
000370 e1 fc 6a 3e 1c 3e 55 3e fd 49 05 be a8 01 ba be
       0.22948028 0.20824474 -0.13016506 -0.3632939
000380 00 c1 cc 3b c0 9a 4a bb 80 8b 8a bb 08 75 ef 3c
       0.0062485933 -0.0030914992 -0.0042280555 0.02923061
000390 4e 55 9b 3d 92 d4 93 bd 20 b7 18 bd c6 04 04 3e
       0.0758463 -0.07218279 -0.037284017 0.12892446
0003a0 51 bf 96 bd d2 af e3 bd 20 0e e3 bd 94 7b ed 3d
       -0.073607095 -0.111175194 -0.110866785 0.11595836
0003b0 58 b8 10 3e aa 97 48 bd c0 46 94 bb 06 89 bf bd
       0.14132822 -0.048972763 -0.0045250356 -0.09352307
0003c0 14 fd c8 3d 26 1a 11 be 68 d7 eb 3d 48 10 01 3e
       0.09813896 -0.14170131 0.11515695 0.12603867
0003d0 d0 52 e2 3d a8 11 9b 3c 34 aa c3 bd 14 71 25 bd
       0.110509515 0.018929318 -0.09553948 -0.040391043
0003e0 00 75 f6 ba 8c 06 1d 3d 5b 79 02 be 5a 32 0d 3e
       -0.0018803179 0.03833632 -0.12741606 0.13788739
0003f0 30 ad e6 3d 30 b4 86 bc 34 6f f4 3d 44 09 e0 3d
       0.11263502 -0.016443342 0.11935273 0.10939267

sequential/conv2d_4/Conv2D_bias f4 [16]
000000 cb 84 45 bf e0 25 b6 bc 44 e0 36 40 be a0 5c 40
       -0.7715575 -0.022234857 2.857438 3.447311
000010 ff 4d 88 3f b4 4a f4 bf 1e 24 5b be ea 5e 9c 3f
       1.0648803 -1.9085298 -0.21400496 1.2216465
000020 25 8a c0 3f 7f 4a 06 3f b0 ee 12 3e 13 7c 5f 3f
       1.5042158 0.5245742 0.14348865 0.872987
000030 f7 19 5d 40 c6 dc 86 bf fb 71 72 bf 03 13 88 bf
       3.4547098 -1.0536125 -0.9470517 -1.0630802

sequential/dense/MatMul/ReadVariableOp/transpose f4 [64, 80]
000000 3a 91 af bf b8 c0 b5 3e 70 59 7e 3e 9c 87 0f 3d
       -1.3716195 0.35498595 0.24838805 0.035041437
000010 07 0a 70 be c6 51 8b be 9e 75 0b bf fc e5 e5 bd
       -0.23441325 -0.27210826 -0.54476345 -0.11225507
000020 5b 84 8e be 78 29 7a bd 5e 87 c5 bd 1c ed 10 bf
       -0.27835354 -0.061074704 -0.0964496 -0.566118
000030 a8 6d 0d bf 9a 68 9c bf b5 29 91 bc 67 fb aa bd
       -0.5524545 -1.2219422 -0.017720083 -0.083487324
000040 01 30 a1 3e cc 19 f6 3e d7 f7 8c 3e 6f 0b d1 be
       0.31481937 0.48066556 0.27532837 -0.40829036
000050 07 11 c2 be d6 13 c9 bd 15 74 e1 be e5 79 58 be
       -0.37903616 -0.098182365 -0.44033876 -0.21140249
000060 bd cc 56 3e 91 6c 08 be c4 95 31 be 55 fe 5f bf
       0.20976539 -0.13322665 -0.17342287 -0.87497455
000070 de 0f be be 36 bc 95 be 4b b4 3b bf 2d 16 13 3c
       -0.3712148 -0.29245156 -0.7332198 0.008977455
000080 7d f9 be bd 39 f3 8b 3e 99 e4 6b 3e b5 b8 59 3e
       -0.0932493 0.27334002 0.23036422 0.21261866
000090 c2 e7 3e bf 7a 01 c5 bc cb 4f 84 bd 59 0a 95 be
       -0.74572384 -0.024048556 -0.06460532 -0.29109457
0000a0 20 c7 70 be 20 3f 61 be 2a ab b1 bd d5 a8 36 be
       -0.2351346 -0.21996737 -0.08675225 -0.17837842
0000b0 f3 3f e3 be a3 fc b3 bd a9 c6 46 bf 35 37 b8 3d
       -0.44384727 -0.08788421 -0.7764688 0.08994905
0000c0 1a 7b 76 be 42 a4 98 3e 0b 44 50 be 06 4e 30 3e
       -0.24070397 0.2981282 -0.20338456 0.17217264
0000d0 26 22 06 be 17 29 87 3d 35 f6 43 3d 4b 70 b5 3e
       -0.13098964 0.06599634 0.047842223 0.35437235
0000e0 e3 50 ce 3d 56 0d 4e be 55 dd 14 be 5a 24 75 be
       0.10074022 -0.20122275 -0.14537556 -0.23939648
0000f0 2d 68 a4 bd b7 58 87 be 49 ee fc be 72 56 81 3d
       -0.080276825 -0.26434872 -0.49400547 0.06315316
000100 33 56 91 3d bd 17 0f be ff f3 28 bf ae 5c 89 3e
       0.07096519 -0.13973899 -0.6599731 0.2682852
000110 2e 7b 96 be 67 af f5 bd cf 9c 0d 3e d8 d8 d3 3e
       -0.29390854 -0.11996346 0.13829349 0.41376376
000120 ab a1 19 be c7 f0 d6 bd 8a 1b 66 3e ec 23 f8 be
       -0.15003078 -0.104951434 0.22471443 -0.48464906
000130 ec 53 93 bf 4d 8b 27 3e f6 e3 79 be 92 77 a8 3d
       -1.1509986 0.16361733 -0.24403366 0.08225931
000140 cc 00 99 bd 81 35 1b be 56 97 63 be a1 0f 7b be
       -0.07470855 -0.15157129 -0.22225699 -0.2451768
000150 bc 20 32 3e 74 a5 9f bf 7b 53 e4 be 51 3c de 3d
       0.173953 -1.2472367 -0.4459494 0.10851348
000160 89 34 a2 be 39 d7 4b be 18 08 8e be 37 04 30 bd
       -0.31680706 -0.1990632 -0.2774055 -0.04297277
000170 8f 8f 25 3e dd 77 38 bf 6c 6f 55 be c4 0f 9c ba
       0.16168045 -0.72057897 -0.20843285 -0.0011906554
000180 d2 1b 24 bf bf 25 15 be c8 10 10 be 73 5c de be
       -0.6410495 -0.1456518 -0.14068902 -0.43429908
000190 5c 6e 31 3e 13 38 df 3e 31 22 ad 3d 48 a8 ea bc
       0.17327255 0.4359747 0.08453787 -0.028644696
0001a0 2c 45 f9 3d 29 79 22 bf 9f 1f 97 3e b1 32 4d be
       0.121713966 -0.63466126 0.29516312 -0.20038868
0001b0 12 c3 41 be 26 3a d6 be cd b6 75 be 84 06 29 be
       -0.1892207 -0.4184124 -0.23995514 -0.16506392
0001c0 d6 31 b8 bd 00 10 22 bd 23 62 9c be 43 5d d6 be
       -0.089938805 -0.03956604 -0.30543622 -0.41868028
0001d0 94 c2 ca 3d ea 01 d2 3e 4d 48 4e be fd 52 2d 3e
       0.09900394 0.41017085 -0.20144768 0.16926189
0001e0 08 59 ac bc c0 98 7e be 89 e8 0d 3e bd 1f 42 be
       -0.021038547 -0.24862957 0.13858236 -0.1895742
0001f0 6f 9a f6 bd 58 7a 6c bd d2 ca 85 be e5 32 5f be
       -0.120411746 -0.057733864 -0.26131302 -0.21796758
000200 6d e3 2e bd ae 0a 3a bf c0 a2 f0 be e4 e2 53 be
       -0.04269736 -0.72672546 -0.46999168 -0.2069202
000210 9f 57 1f bf e0 3a ce 3e d7 36 b9 be dd d2 5d bd
       -0.62243074 0.40279293 -0.36174652 -0.054156173
000220 37 cc 24 be be d2 49 bc f1 0a 57 3e bf 1c b8 be
       -0.16093527 -0.012318311 0.21000268 -0.35959432
000230 60 db 81 be 35 c3 2e bf 12 9f 8b be 6c 88 b7 3d
       -0.25362682 -0.6826661 -0.272698 0.08961567
000240 25 b5 79 3d d4 6c 5a 3d 68 42 df be 60 9f 85 be
       0.06096377 0.053326443 -0.4360535 -0.26098156
000250 76 ed 49 3e 84 20 b0 3c 17 85 15 be 69 82 76 bf
       0.1971949 0.02149988 -0.14601551 -0.9629274
000260 1d 4e 81 bc 35 8f 8a 3c af 0c 31 bf 77 b2 4e bf
       -0.015784318 0.01691399 -0.6915998 -0.80741066
000270 91 9a 2b bf a3 bc 88 bd 6f 3e 99 3d 56 87 1f 3c
       -0.67032725 -0.066766046 0.074826114 0.009736856
000280 de 0b a7 3e 8f 33 ed bd e9 fd 73 bf b8 6d 4a 3f
       0.3262624 -0.115821 -0.9530931 0.7907367
000290 a1 8d 58 3d 99 dd 5c be 26 cd c7 3e f8 f7 7e be
       0.052869443 -0.21568908 0.39023703 -0.2489928
0002a0 94 02 68 be 61 5e 68 3e 31 b6 d3 bd 55 ca 09 be
       -0.22657233 0.22692253 -0.10337485 -0.1345609
0002b0 14 05 91 3e ab 7a 83 3e 1e b6 68 3e 6f 18 ed bd
       0.28324187 0.25679526 0.22725722 -0.11576926
0002c0 56 f5 44 be 4a 53 a4 3d e3 4d 9d 3d b8 17 8d be
       -0.19234213 0.08023699 0.07680871 -0.27557158
0002d0 49 56 20 be 99 a9 65 bf a2 04 1e bd 8b 9f 20 bc
       -0.15657915 -0.8971191 -0.038578637 -0.009803663
0002e0 43 50 e8 3d d1 18 08 3e 29 9e 02 bd 99 b3 4a 3d
       0.11343434 0.13290717 -0.031889115 0.049487684
0002f0 e3 3e 03 be ac 32 30 bf c4 65 78 bf a9 bd 08 3e
       -0.12816958 -0.6882732 -0.9703028 0.133536
000300 d5 5b 93 be ab 23 1e be 4c 82 e2 bd 63 a9 a5 3e
       -0.28781 -0.15443294 -0.110600084 0.32355794
000310 14 f7 72 be 0d 04 0d be e6 75 cc 3c be d2 5d bd
       -0.23727065 -0.13771077 0.024958562 -0.054156058
000320 65 90 51 ba 6d fb 85 be fa 58 02 3c 39 8e 23 3e
       -0.0007994234 -0.26168385 0.007955784 0.15972222
000330 5b 34 a8 3e ec fe f9 be f3 e0 08 bf b3 2a dc be
       0.32852444 -0.48827302 -0.53468245 -0.43001327
000340 f4 22 25 be 5a 73 c9 bc 0d bf dc be aa c6 e5 3e
       -0.16126615 -0.024591137 -0.4311451 0.4487813
000350 17 89 8b be a1 30 91 be 84 7d ce 3d 2c 0e 64 be
       -0.2725303 -0.28357413 0.10082534 -0.22271031
000360 be b8 da 3e 1f a3 9a be 78 44 a0 3d 1e 59 fa 3d
       0.42719072 -0.30202577 0.078255594 0.12224029
000370 63 f4 e4 3e 85 bd 70 bf d7 6b 2f be 4a d5 d7 be
       0.44717702 -0.94039184 -0.17130981 -0.42154914
000380 b7 0e 5a bc 91 0b a3 3d a7 cb f7 3d f0 51 b0 3d
       -0.013309172 0.079611905 0.120993905 0.08609378
000390 f3 5d ac 3d fd e4 86 bd b0 1b ff bd 89 50 9f 3e
       0.08416357 -0.06586645 -0.12456453 0.3111613
0003a0 88 1f 64 3d d9 7a a1 be f2 a9 0a bd 2e 9d c0 3e
       0.055694133 -0.31539038 -0.03385348 0.3761992
0003b0 d6 3f 0f 3f 04 e8 6f be ff 06 8b be 61 1a 12 bb
       0.5595678 -0.2342835 -0.27153775 -0.0022293555
0003c0 b7 62 cb bd 6b c4 ff be 77 51 a7 be 94 32 63 bc
       -0.09930938 -0.49954543 -0.3267934 -0.013867039
0003d0 89 13 0a bd c0 88 4e be 70 5c a4 bf a9 46 08 bc
       -0.033710036 -0.20169353 -1.284071 -0.008317628
0003e0 4b f4 c7 3d 09 31 d9 3e d8 dc 43 bf 2d 36 e6 3c
       0.09763392 0.42420223 -0.76508856 0.028102005
0003f0 8d 44 5c 3e 1f 09 90 3d 32 d5 de 3b a2 8c 0d be
       0.21510525 0.0703299 0.006800317 -0.13823178

sequential/dense/MatMul_bias f4 [64]
000000 42 df 23 bf cd bc 27 bf fd ce 2b 40 4e a9 6f 3f
       -0.6401254 -0.6552246 2.6845086 0.93617713
000010 0f 41 bd 3f a7 6f 82 be 84 47 88 3f f3 f8 86 3f
       1.4785479 -0.2547581 1.0646825 1.0544723
000020 7e 8e 45 3d 7c b8 6e 3e 05 c1 97 bf 3c 22 af 3e
       0.048231594 0.23312563 -1.185578 0.34205806
000030 fe 9e 68 bf 68 22 60 bf 56 76 02 bf 37 bd 74 bb
       -0.908676 -0.875525 -0.50961816 -0.0037344226
000040 61 95 f6 3e 70 69 82 3e 9c f5 98 3f b8 0e 92 3f
       0.48160842 0.25471067 1.1949954 1.1410742
000050 2b da d7 3e bd cf 6f bd 9a ad 01 3f 2f 38 5d c0
       0.42158636 -0.058547724 0.5065552 -3.4565542
000060 9e 61 45 be 74 f6 87 bf b9 0d 39 bf b6 96 e5 3e
       -0.19275519 -1.0622087 -0.72286564 0.44841546
000070 54 0b 1e 3f 35 74 10 3f 5a a6 9f bf af 68 cd bd
       0.61736035 0.5642732 -1.2472641 -0.100297324
000080 b0 a2 9a bf 4c 9e 54 be 48 1c 32 bc 04 27 a4 be
       -1.2080898 -0.2076351 -0.010871001 -0.32061017
000090 a1 4c 74 3e 19 24 43 bf 59 ec da 3d 8b b6 9d bf
       0.23857357 -0.76226956 0.10689611 -1.2321333
0000a0 f5 c2 07 bf 88 aa 09 bf 93 3e 11 3d 3d ae a7 3e
       -0.53031856 -0.53775835 0.035460066 0.3275012
0000b0 27 de 2f 3f 28 9d 94 3f 8f 20 4c bf f9 08 33 3f
       0.6869835 1.161046 -0.7973718 0.69935566
0000c0 63 62 b9 3e a4 95 67 3f f3 ed 88 bf a2 d0 12 bf
       0.36207876 0.9046271 -1.0697616 -0.573496
0000d0 e9 e7 58 3f 01 e8 35 3d 6d fb d5 3f a9 d6 fc 3f
       0.84728867 0.04441071 1.6717354 1.9753009
0000e0 16 9d 93 3c 94 3e 55 bf 8d 55 7a bf dd 6b 06 bf
       0.01801924 -0.8329861 -0.9778679 -0.52508336
0000f0 01 d2 8e bf 16 41 b0 3f 34 9a 1a 3f c2 f7 a3 3c
       -1.1157838 1.3769863 0.60391545 0.020015601

sequential/dense_1/MatMul/ReadVariableOp/transpose f4 [32, 64]
000000 ad 4a 2d 3c 50 7c 16 be b6 b3 05 bc 94 4a 86 3d
       0.010576886 -0.14695859 -0.008160522 0.065571934
000010 4f e7 55 be 13 f4 3e bd 75 78 50 3d 7d 5b e2 be
       -0.20889018 -0.046619486 0.050896127 -0.44210425
000020 39 de 90 bd 4c 92 ed 3b 46 75 27 bf 1f a6 28 3d
       -0.070736356 0.007250106 -0.6541332 0.04117405
000030 42 f1 c7 bc 9a 7e fa 3c 63 95 da 3d b6 fa 08 bf
       -0.024407033 0.030577946 0.106730245 -0.53507555
000040 bc 33 12 3d 36 d3 cd be 67 8f 1f ba 8e 82 83 3c
       0.03569387 -0.40200204 -0.0006086737 0.016053464
000050 2d 1f ed 3c 4a 4f 1c bd c7 ef 58 be 57 5e 17 be
       0.02894553 -0.038161553 -0.21185218 -0.14782082
000060 32 27 40 bd 6e 9a 3e 3d 36 3a 19 3b 33 35 27 bf
       -0.04691238 0.046533994 0.0023380644 -0.6531555
000070 26 cc 9f 3d 0d 26 98 be d7 31 57 3d 2f d9 4a be
       0.0780261 -0.2971653 0.052537765 -0.19809411
000080 4c 4f b1 bc 23 10 fd bb 68 94 89 3d c7 e0 01 be
       -0.021644257 -0.007722871 0.06717759 -0.12683402
000090 52 89 eb 3c cd 4d f4 be 4b 45 0e bd 2b 57 9d be
       0.028752003 -0.47715607 -0.03473405 -0.30730566
0000a0 5e dd fe bd 5f f1 74 3a f2 00 18 3d 48 dd 28 3d
       -0.12444566 0.00093438284 0.037110277 0.041226655
0000b0 1c 4e 08 3d dd cc 92 bc 83 1f 06 be 73 33 82 bc
       0.033277616 -0.017919952 -0.13097958 -0.015893674
0000c0 57 62 ad 3d 36 3d 31 3d 40 a6 ac 3a ec 72 35 be
       0.084660225 0.043271266 0.0013172105 -0.1771962
0000d0 82 31 71 be 96 76 b2 bc 5e 76 06 be 78 1a 9e bd
       -0.23554042 -0.021785062 -0.13131091 -0.07719892
0000e0 9e 71 92 3d 18 53 8d bc 6c 70 29 3d 8a f9 11 be
       0.07150577 -0.017251536 0.04136698 -0.14255348
0000f0 b6 9e 1e be 22 e1 82 3d 61 33 5d 3d 7f be eb bd
       -0.15490231 0.06390597 0.054004077 -0.115109436
000100 a3 ec 8a bc 93 b6 d3 be 2d 94 8c 3d 1c 38 cb 3c
       -0.01695854 -0.4135023 0.068642 0.024807028
000110 24 b2 e3 3d 0d 5e 0f bd f3 2a b0 3d 17 11 10 3d
       0.11117962 -0.035001803 0.08601942 0.03517255
000120 82 c6 e7 bc 6f dc 69 be 7e 19 89 3d 87 23 70 be
       -0.028292898 -0.22837995 0.066943154 -0.23451053
000130 9f af 3c bd 98 25 86 bb 47 98 5b be fb 90 fd 3c
       -0.046065923 -0.004093837 -0.21444808 0.030952921
000140 ac 2b a5 be f4 08 66 3d 1d c2 92 bd 4e 30 99 bc
       -0.32259881 0.056160882 -0.071659304 -0.018699791
000150 50 4e a4 bd 11 96 3a be 9a ee e8 3c 7a 82 51 3d
       -0.080227494 -0.18221308 0.028434087 0.051149823
000160 ef cb 45 bc 01 fa 08 3d 06 9d eb bc 3e 90 fa 3d
       -0.012072547 0.033441547 -0.028761398 0.12234543
000170 6c 56 a3 bb 18 51 5c bd 7a 63 a8 3b e7 01 3a 3d
       -0.0049846675 -0.053788275 0.0051388117 0.04541197
000180 70 b4 83 be 6c c6 05 bf 2c 39 85 be 10 34 42 be
       -0.257236 -0.5225589 -0.2602018 -0.18965173
000190 1a 98 f3 bd 32 90 67 3d 69 bd cc 3c 93 78 97 bc
       -0.118942454 0.056534 0.024992662 -0.018490111
0001a0 88 df 41 be 5e 88 a4 bc 3e a5 a7 bc ac ec df be
       -0.18932927 -0.020084556 -0.020464536 -0.43735254
0001b0 34 cd 9f 3b 7d 13 dd bd 55 35 e8 bd 1e 92 b5 3c
       0.004876757 -0.10794733 -0.11338297 0.0221644
0001c0 ce 46 01 3d 82 69 1a be e2 5a 61 be 47 a1 8d 3d
       0.031561665 -0.1507931 -0.22007325 0.06915527
0001d0 19 e9 87 3d 90 6f fc be 51 77 8f bd 6a 86 d8 3d
       0.06636257 -0.49303865 -0.0700518 0.105725124
0001e0 3a eb 43 be e4 53 21 bd f5 78 77 bd 40 76 10 be
       -0.191327 -0.039386645 -0.060418088 -0.14107609
0001f0 aa a5 cc 3c 51 ee 14 bd d7 31 78 bc 69 e1 d7 bd
       0.024981339 -0.03636009 -0.0151486015 -0.105410405
000200 60 1a 81 bd 23 96 01 3e 9b 36 8a be 5f 37 55 bc
       -0.06303859 0.12654929 -0.26994786 -0.01301369
000210 16 9b 2e be 21 28 67 bc 02 74 cc 3d 1d d7 ca bc
       -0.17051348 -0.014108689 0.09983064 -0.024760777
000220 2f 98 30 bd 5b 89 c9 3c e5 33 77 bd aa ad 02 3c
       -0.043113884 0.024601629 -0.060352225 0.007975975
000230 f2 1f 38 bf 33 d0 16 bf ad bd a6 3c dc 44 32 3d
       -0.71923745 -0.58911437 0.020354116 0.0435227
000240 27 89 9f 3d 89 8e 3b bf d8 f4 23 3d ec af 19 be
       0.077898316 -0.73264366 0.040028423 -0.15008515
000250 eb 4b 62 3d 5b e7 67 3c 85 ac 74 3b b4 c3 24 be
       0.055248182 0.014154281 0.0037334275 -0.1609028
000260 e6 2b f1 b9 f7 52 5e bf 52 1c be be 38 56 b6 bc
       -0.0004599981 -0.86845344 -0.37130982 -0.02225791
000270 08 3d a1 bc 8b ed d3 3b c0 d5 18 bf 09 1b 34 3d
       -0.019682422 0.0064675263 -0.59701157 0.043971095
000280 32 cb bd 3d ad a1 9b 3d ca b9 ca bd c2 68 51 3d
       0.09267272 0.075991966 -0.09898718 0.051125295
000290 a8 e6 c1 be 04 53 c7 be 56 04 9a 3c d0 be 81 3d
       -0.3787129 -0.38930523 0.018800896 0.06335223
0002a0 f2 7e ac 3d a2 f5 46 bf 72 ef 76 be 3f 68 ec 3d
       0.084226504 -0.77718556 -0.24114779 0.11543321
0002b0 78 cf 16 3d 57 22 b2 3d fe eb a1 3b d2 86 da 3d
       0.03681895 0.08697956 0.0049414625 0.10670246
0002c0 d9 31 51 be c1 ce 99 3d b6 22 bd 3b 6c a3 a5 bd
       -0.20429172 0.07510138 0.00577196 -0.08087811
0002d0 2b b0 0e bd a6 60 03 3e 64 57 b2 bd 6b a7 58 bd
       -0.034835976 0.12829837 -0.08708075 -0.052894037
0002e0 aa a8 30 3c 48 2c 28 bd ab 3b fa 3d cb 3a 16 3d
       0.0107824 -0.041057855 0.12218412 0.036677163
0002f0 44 15 ba be 9e 3a 3b 3d 40 9d 8b bd c5 8a ab 3d
       -0.3634435 0.0457102 -0.068171024 0.083760776
000300 8a 74 2a be c0 03 19 3e ab 47 4e be 40 51 88 be
       -0.16646019 0.14942837 -0.20144527 -0.2662449
000310 e9 c1 4a 3e eb a9 af bd 57 ab f0 bd 6d f3 0d bd
       0.19800533 -0.08577331 -0.117514305 -0.034655977
000320 ee fc b8 3d 63 34 13 be 95 12 45 3d 17 1e 2a bd
       0.090326175 -0.14375453 0.048113424 -0.041532602
000330 31 8f 39 3b 70 ec c7 bc bf d7 43 bd 8c b0 58 3d
       0.0028314108 -0.024404734 -0.047813173 0.052902743
000340 71 3f dc bd 45 83 77 bd 51 0a 89 bf f0 9b 96 bd
       -0.10754288 -0.060427923 -1.0706273 -0.073539615
000350 b8 22 a3 3d 4e 6a 6c ba 5e 42 31 3e 56 83 7b 3d
       0.079656065 -0.0009018526 0.17310473 0.06140455
000360 c2 00 09 be d8 e1 fc 3d 01 bb cb 37 7c bf bf bc
       -0.13379195 0.12347764 2.4286566e-05 -0.023406737
000370 de f4 e7 be 7b 3c 67 bd 57 7d 14 3d 25 64 3f 3d
       -0.45304006 -0.056454163 0.036252346 0.046726365
000380 ae 5e 1c bc ec 36 87 bc 4a ff db be 58 a0 1d bc
       -0.009544058 -0.016505681 -0.42968208 -0.009620748
000390 70 4e d6 be 0d a2 f3 3c 89 7b 5a 3c 59 8f 69 3d
       -0.41856718 0.029740358 0.013335117 0.057021473
0003a0 e6 fa be 3d c3 ac c9 bd 90 a4 4d 3d 4c 81 3e 3d
       0.09325199 -0.09847405 0.050205767 0.046510026
0003b0 16 57 0d be 88 f9 e8 bc dc 43 3e 3e bf 04 9d 3d
       -0.13802752 -0.028439298 0.18580574 0.07666921
0003c0 bb c6 27 bf 64 ee c0 be 19 04 09 3c 66 34 9e be
       -0.65537614 -0.37681878 0.008362793 -0.30899352
0003d0 fb a0 15 3e 67 8b 7f 39 ba dc 8c 3d 76 14 28 3e
       0.1461219 0.00024370626 0.06878038 0.16414055
0003e0 9a cc 3f be 3d 3f e1 bd cb d2 83 3e 76 fd 2f be
       -0.18730393 -0.1099839 0.2574676 -0.17186531
0003f0 20 8f 92 bb bd f5 28 be ed e1 3a be 1c ca f3 3b
       -0.0044726282 -0.16499992 -0.18250246 0.007439865

sequential/dense_1/MatMul_bias f4 [32]
000000 4c ca 8c 3f b9 c8 91 3f ab 0d 53 3f a1 aa 32 3f
       1.0999236 1.1389381 0.8244273 0.6979161
000010 ea c3 a6 3e 63 44 90 3f a5 cd 49 3d ff 6e db 3e
       0.32571346 1.127087 0.049268384 0.4285812
000020 4b 6b 98 3e 13 25 a4 3f 99 2c 3f 3f 4f 7b 6e 3f
       0.29769358 1.2823814 0.74677426 0.93156904
000030 40 d8 23 3f df 8b 96 3f 9c 46 f7 3e 26 48 c2 3f
       0.64001846 1.1761435 0.48296058 1.5178268
000040 dd c8 8b 3f 5b 66 95 3f f9 69 91 3f 40 d4 da 3e
       1.0920674 1.1671861 1.1360465 0.4274006
000050 f6 fe dd 3e 3d 47 53 3f 7a ce ab 3f 64 4d ae 3e
       0.43358582 0.82530576 1.3422387 0.3404342
000060 a7 08 81 3f d2 cf 64 3f 0a 1b 28 3f ca 7e c6 3f
       1.0080765 0.8937961 0.6566626 1.5507443
000070 7c 95 05 3f 05 f7 ca 3f 17 cb 8e 3f e0 66 8c 3f
       0.5218122 1.5856634 1.1155728 1.0968895
