model_quantized.tflite (tflite, 21544 bytes, 16 tensors)

sequential/conv2d/Conv2D/ReadVariableOp f4 [1, 3, 3, 8]
00000000: f68e f6bd 5373 23be 021d a9bc b8e2 96be
00000010: 182b 66be da5c 143e 93e1 e1ba c3c9 ca3d
00000020: 2fc4 513e a7c6 bbbe 996c 2d3e 474e b6bd
00000030: 6650 4a3d 9b75 4fbd 897c 443e c321 37bd
00000040: 34f5 84bd ef52 803e d8e8 8dbe f5b3 853e
00000050: 427e 893d c3e8 233e bb58 98be 3200 9dbd
00000060: 29bd 17bd 3af1 d33d 3f21 e8bd 0f07 9ebe
00000070: 11b2 dd3d a35d 803e 5c98 133d 62d4 133e
00000080: f582 d6bc 3cf7 9b3c 48ec 96be 0da7 563d
00000090: 9a12 f43c 3be8 87bd efba d7be 571c 54be
000000a0: 0ce8 9abe feaf a43e fe7a a6be fedd c2be
000000b0: 91c8 503e 6f1c 54bd 25de e63e 7d97 26be
000000c0: b3e5 e8bd 6a2c 163d f7d9 763d 4348 1fbe
000000d0: 7572 6c3d dfbb ccbe 8849 753d 2dc7 5d3e
000000e0: 4de0 d23d 3175 253c 5f1c 20be 6681 a1bd
000000f0: 79e7 3dbe f3ad 223e fca0 15be 5663 9c39
00000100: 9f01 0abe db16 853d 51bf 01bf 0c36 7f3e
00000110: c12c 8dbe b8db 04be e304 bf3d cc5a 43be
-0.120389864 -0.15961961 -0.020643715 -0.29469848 -0.22477376 0.14488545 -0.0017233364 0.09901764
0.20484994 -0.36674997 0.16935958 -0.08901649 0.04939308 -0.050649267 0.19188131 -0.044709932
-0.06492081 0.25063273 -0.27716708 0.2611386 0.06713535 0.1600676 -0.29755196 -0.07666053
-0.03704563 0.10348745 -0.11334466 -0.3086476 0.10824979 0.2507144 0.036033973 0.14436486
-0.026185492 0.019038789 -0.29477143 0.052405406 0.029794026 -0.06636091 -0.42134807 -0.20713936
-0.30255163 0.3216552 -0.3251571 -0.38059992 0.2038901 -0.05178493 0.45091358 -0.16268726
-0.11371937 0.03666345 0.06026646 -0.1555491 0.057726342 -0.39987084 0.059884578 0.21658011
0.10296688 0.010098741 -0.15635823 -0.07886009 -0.18545331 0.15886669 -0.14612192 0.0002982865
-0.13477181 0.064985 -0.5068255 0.24922961 -0.27573207 -0.12974441 0.09327104 -0.19077605

sequential/conv2d/Conv2D_bias f4 [8]
00000000: 79ce 0c41 dc2c fc3e 8398 ff3f 57d8 0f40
00000010: 3ca7 4040 72ec 7dbe 6a02 4bc0 496c 2c40
8.800408 0.49252975 1.9968418 2.2475793 3.0102072 -0.24797228 -3.1720223 2.6941092

sequential/conv2d_1/Conv2D/ReadVariableOp f4 [8, 3, 3, 8]
00000000: 5293 e9be f80f 5cbd 766f 4dbe 930d 0f3e
00000010: 3e3a 3c3d e86f 823d f35b 03be 09eb a23d
00000020: df01 c3bf 5045 e93d 113b 00bf 1396 143d
00000030: a8eb 34bd 55f8 10bf 75d2 94bc 53b4 68be
00000040: ebeb 813f 4e4b 423e bfd4 153e 2603 dfbe
00000050: c1fc 4bbf fccc d03e 99fd 363f dabc 6dbf
00000060: a8be d13d 24f1 89be 0ebf a5bd d632 7b3d
00000070: 095f 903e 4301 8b3d f127 46be d5c2 d8bc
00000080: 9ad1 8fbf 3fb2 6d3e 352f 0dc0 89cb f53d
00000090: 902b 5a3e 71c2 bd3d b914 84bd cb6d 6bbe
000000a0: 86f6 2e3f 7b7a 28bf c123 b3be 2a38 4bbf
000000b0: 35e3 573d f7ab 9fbe 0240 613f 9936 b7bf
000000c0: 6905 2cbe d491 0fbe 8a6c 84bb 6225 5f3d
000000d0: 4a56 833e 475e c13d 6409 79be fb37 d53d
000000e0: 07ae 55bf 586d c5bd 89be d8bf 0f7d fdbf
000000f0: 9ae6 43bd ac0e ba3d b9ee 213e 9ac6 fdbd
00000100: 4fb6 9c3e b0a8 263f af71 4fbc 3d67 423d
00000110: cfbf c7be a255 42be 885e 83bf a3d8 bcbf
00000120: 8014 24be 5bd0 98bd 7679 a23e 93c5 d43b
00000130: 1dab 083d 46bb 1cbd 4396 94bd 0a1c 90bd
00000140: 08f8 f53d 404d 8b3c c16b e1be dc6e 04bf
00000150: 3a56 9bbd 8be4 413e 1eef b83d 06af a7bd
00000160: 54ed a53e 0412 90be 06f5 053c 58e3 083f
00000170: 2ad2 3a3c 3c63 923c b6f1 a4be c537 303d
00000180: b371 70be db9a 82be ec24 f0bb 3cbd cb3d
00000190: cb95 473e c507 a7bc 26ee f63d b95a 1cbe
000001a0: 87fc 8c3e 4204 3fbf 6c47 c5be eb92 e9bd
000001b0: 5387 5fbf a112 53be a144 3f3d 9e15 2abe
000001c0: 8614 ca3e b785 92bd 3ba3 bc3d a53c 233f
000001d0: 9fd9 a73d 3d7b 36be 5a91 16bd b882 193e
000001e0: 7ba7 733c 9d26 62be 9d5a 273c 6552 ca3c
000001f0: 70be 8b3d b7d2 2d3d e063 e2bd 9883 1f3d
00000200: 6771 d03e c774 67bf 920e 80be 91c8 94bd
00000210: 5685 2e3d 3620 c9bd 72b5 edbd 9634 c23d
00000220: deac 7bbe 6a78 a83d d295 823e 7165 c63e
00000230: 2279 f7bc dd2b 213d 4def 443e 5d93 8abd
00000240: b211 9cbe 7a6b 9139 10d0 a43e 1044 f83d
00000250: fca6 1cbb 25d6 113e 88f8 353d 685f b2bd
00000260: c21c 98bd 87d9 22be d60e 803d 39b7 75be
00000270: 469e 363e 229b 503e c381 663d df18 f9bd
00000280: c49b 1a3e 0350 e1bd ebdf 49bd c263 b03d
00000290: e5c0 b83e 83fc 883c ae39 cf3e 6901 ffbe
000002a0: 0f3e 96bd 1f1a a7bd b37f 283c d02f 37bf
000002b0: b8f7 53be f80c 033e 468f 2ebe 5343 103e
000002c0: 8f84 89be cace 2bbe 1616 b0be 3e97 5a3d
000002d0: df1d e63d 6d48 90be b9e2 debe 75b6 64be
000002e0: 3b81 a33d 58f5 22bf 8bab c3be 5104 f6be
000002f0: 5607 ae3e 0b03 7d3e cfb8 dc3e 2075 a0be
00000300: 635f eebd 6679 16bd e478 03be 46c0 f63d
00000310: b7c6 44be 3ef7 613d e5c2 19be ec2b 1ebe
00000320: 9d06 56bf 05cb 503e 3fb1 273e c405 8fbf
00000330: 75e1 093e 43c8 a03e 2552 c93d 7dde ca3e
00000340: d7b9 183f a955 a4bf 7132 c13e 1f0b ed3c
00000350: f37a 02bf 3925 c33e 1b99 d0be cd5c d63e
00000360: d503 a63c 1a2d 883e b9ed 92be 10d1 163c
00000370: f2a1 03be ab46 98be 74eb 8bbd f5de bb3c
00000380: b0a3 713e 1e80 e6be 9b9e e43d a273 073f
00000390: 8341 cb3e fd9c 3cbf 07f3 a63d 0b62 04bf
000003a0: b608 6ebf 661d bbbe d0b3 9cbd 47a3 19bf
000003b0: 3c26 b9be f71d 973e 8dfc b3bd 4cbd 80be
000003c0: b7f7 193d dee3 5c3d 40fd 5abd 9006 2fbe
000003d0: 99ce f73d c9cf d5be 2a06 803e 433f 393b
000003e0: 6bfc 3c3e 0408 3bbe 9988 67be 0a2b 0f3f
000003f0: 2d18 d43d b2d8 7e3e 4cd4 afbe c876 3b3e
-0.4562021 -0.053726166 -0.2006205 0.13970022 0.04595398 0.06369001 -0.12828045 0.07954986
-1.5234946 0.113901734 -0.5009013 0.036275934 -0.04417005 -0.56628925 -0.01816676 -0.22725038
1.0150121 0.18974039 0.14631937 -0.4355709 -0.79682547 0.4078139 0.7148071 -0.9286629
0.10241443 -0.26941788 -0.080930814 0.061327778 0.28197506 0.0678735 -0.19351174 -0.02646009
-1.123584 0.23212527 -2.2060063 0.12001712 0.2130568 0.092656024 -0.06449265 -0.22991101
0.68344915 -0.6581189 -0.34988216 -0.79382575 0.052706916 -0.31185886 0.87988293 -1.4313537
-0.16798939 -0.14020473 -0.004041259 0.05447901 0.2565177 0.0944181 -0.24319988 0.10411068
-0.8346867 -0.09639996 -1.6933147 -1.980379 -0.04782734 0.0908483 0.15813722 -0.12391396
0.3060784 0.65101147 -0.012661382 0.047461737 -0.39013526 -0.18977979 -1.0263224 -1.4753612
-0.16023445 -0.07461616 0.31733292 0.0064932792 0.03336631 -0.038264535 -0.07255223 -0.07036598
0.12010199 0.01700461 -0.44027522 -0.5173166 -0.07584806 0.18934838 0.09029983 -0.0818768
0.3240763 -0.28138745 0.008176094 0.534719 0.011402646 0.017869584 -0.3221566 0.043021936
-0.23480873 -0.2550877 -0.00732862 0.09948203 0.19490735 -0.020389447 0.12057142 -0.15268983
0.27536413 -0.7461587 -0.38531053 -0.114049755 -0.87315863 -0.20612575 0.04669631 -0.16609809
0.39468783 -0.0715441 0.09210821 0.6376441 0.08195805 -0.17820449 -0.03675971 0.14991271
0.014871473 -0.22085042 0.010214475 0.024697492 0.068234324 0.04243728 -0.11054206 0.038943857
0.4071152 -0.90412563 -0.25011116 -0.072648175 0.042607628 -0.09820597 -0.116068736 0.09482686
-0.24577662 0.08226092 0.2550493 0.3874927 -0.030209128 0.039348472 0.19231911 -0.067663886
-0.3048225 0.0002773663 0.3218999 0.12122357 -0.0023903241 0.14241846 0.04442647 -0.087096035
-0.0742736 -0.15903293 0.0625283 -0.23995675 0.17833814 0.20371678 0.056276094 -0.12162947
0.15098482 -0.11001589 -0.04928581 0.08612777 0.36084667 0.01672197 0.40473694 -0.49805763
-0.073360555 -0.08159279 0.010284352 -0.7155733 -0.20699966 0.12797916 -0.17046842 0.14088182
-0.26858947 -0.16778103 -0.3439185 0.053366892 0.11236166 -0.28180256 -0.4353235 -0.22335227
0.07983633 -0.63655615 -0.38216814 -0.48050168 0.33989972 0.24708192 0.43109748 -0.3133936
-0.11639287 -0.03673687 -0.12839085 0.12048392 -0.19216429 0.05516743 -0.15015753 -0.15446442
-0.8360384 0.20389946 0.16376208 -1.1173635 0.13464911 0.31402788 0.09830121 0.3962287
0.5965857 -1.2838641 0.37733796 0.028935967 -0.50968856 0.38114336 -0.4074181 0.41867676
0.0202655 0.2659691 -0.28696993 0.009205118 -0.12854746 -0.29741415 -0.068320185 0.022933463
0.23597598 -0.4501962 0.11163064 0.52910817 0.3969842 -0.73677045 0.081518225 -0.517121
-0.9298204 -0.36545867 -0.07651484 -0.60014766 -0.36161983 0.2951505 -0.087884046 -0.25144422
0.037589755 0.05392825 -0.053464174 -0.17092347 0.12099952 -0.4176009 0.25004703 0.0028266467
0.18455665 -0.18264776 -0.22610702 0.5592505 0.10356174 0.2488735 -0.34341657 0.1830703

sequential/conv2d_1/Conv2D_bias f4 [8]
00000000: 2fca f43f a74b 833e f6ff f3be e3ba a9bd
00000010: 16bc 103f f0b6 d33f 1f79 16c0 09e8 6f3f
1.9124202 0.25643656 -0.4765622 -0.08287599 0.56536996 1.6540203 -2.3511426 0.9371343

sequential/conv2d_2/Conv2D/ReadVariableOp f4 [8, 3, 3, 8]
00000000: 29e0 b1bc ca06 9bbc 1eb7 913d 9b96 2ebd
00000010: 61fd 953d 73d5 59bf 1960 cfbd eed3 0fbc
00000020: 8900 55bf fc6f adbe de6d 4ebf 7f6f d3bf
00000030: 3a86 87bf 52be 3bbf 6c63 57bf ade5 9d3d
00000040: 5bd2 82bf b9a0 d9bf 02db d6bf f0dc 89bf
00000050: 34bd 28c0 28e7 16bf 583f babf 915f 0fc0
00000060: 1808 c5bb 5347 b33d 4819 29bc 921f 263d
00000070: f0f4 afbc f8d6 203d ea28 743d f73e 4f3d
00000080: 308d 82be 10ac c2be 08c9 83be 90d4 17be
00000090: 4bc4 2abe 05aa 103f adb1 563e 3874 eebc
000000a0: 013f 3c3f 8db6 e03e df0f 25bf 98ff debe
000000b0: e4ba 1e3f 2016 593e 1e94 14bf dc63 acbf
000000c0: 6f32 84be e268 e83d 135a cdbd e6a9 3e3d
000000d0: 8111 053c 1847 a53d 52d1 14bd fbee 223d
000000e0: 4141 593e c0db d2be 4997 cebd e675 173e
000000f0: 3692 a33c 6ccc 963e e1ef b93e b942 9bbe
00000100: e0b5 593e e5cc c13d a133 513e 12a9 89be
00000110: 5f54 a3be c41c 4e3c 48e1 4ebd 596c 21bf
00000120: a5a3 d73d 83f0 183e 109c 7a3b c190 103e
00000130: 1e2b 29bd 0914 7e3d d5cf 903e 09b4 01be
00000140: 6380 6bbf abe4 1cbc 23f6 a6bd 856e 6e3d
00000150: 5771 1dbe 3064 033e d718 3abd 1a79 7a3d
00000160: 2b45 1abe bd8e 3c3d ac13 6abe 10e3 b53c
00000170: af0d 17be 32db d33d 5472 3a3e cd0c 913e
00000180: 012c f33d 73ad ab3d 6642 09bf 9faf e0bd
00000190: fb20 0abf aa21 edbe 8d70 763e 0bb6 31bd
000001a0: c147 d6bf a29f e6bd d0c8 96be b5f8 9cbc
000001b0: 17e6 aabe 1e19 51be 32f6 89bf 21cc 05be
000001c0: 0673 80bd 8ba1 273e 6d51 8cbb 3009 01bd
000001d0: 03b9 bbbe 1f6e e43d d9ff a23d 7799 23bf
000001e0: 8019 3abc 2fd7 ad3c 4804 eebe 7a3e 6bbe
000001f0: 2877 05bf 9507 28bf 1db1 0ebf 468f 35bf
00000200: b38e 84bf 8856 37bd aceb 29bf f4fe babc
00000210: 414e 89bf 46f9 0ebf ad8b 6bbf 507e b9be
00000220: 3ca3 18bd 3468 3fbc d0cb 3fbf 7b87 d73d
00000230: ae8a e0bd 3175 f4bd 487f 6c3e adae 2bbf
00000240: ec25 f9bd a20f ca3d 8b4b 763d cf57 293d
00000250: 489d e8bd 7edd d13d e27c c5be 749c 32bf
00000260: 2674 8dbe 08ea 9bbd 1cbd 063e e104 3ebe
00000270: 43cf c3be 26f1 413e 3ed2 febe 28fd 213d
00000280: 9b69 3ebd bbc9 4fbd 1a89 cfbc 7875 b7bb
00000290: 05e2 a93e ff7a 37be 0e54 7cbf 3bf6 023e
000002a0: 91ea 3abe 3bc9 1fbc ed6a 22be 81c0 2c3d
000002b0: fe62 51bd 1d83 f73d c30b 5bbf d57a 8ebe
000002c0: 7b7e 29bf 28c9 023c e810 3b3e 2e54 7cbe
000002d0: 6965 40bf 78d6 ecbc eba8 a4bf 98ed 29bb
000002e0: 65af 07be c949 b73d 267a f8bb 3731 a1be
000002f0: d300 f9ba b3ed bdbd ce51 e8be 6870 55bd
00000300: 4aea cfbd a17f 21bd 39dd 66bf fda9 773d
00000310: d58b a6bc 3cdb 023c caaf 25be 97d3 bcbd
00000320: e2c2 96be da22 523e 17d9 893d 5e38 8ebd
00000330: 6dc5 8cbe 3977 7dbd 0b1b 61bf d344 433d
00000340: c2d7 0ebe b484 683e 44dd 713d cdff abbd
00000350: 59e1 1a3d 3d20 493e 8c8e 6cbc 2b6a 88be
00000360: a320 063d daba 803c bc6b 66bd dcd3 e4bc
00000370: 853a 73bd 681d 7dbd a9d8 703d d389 bc3c
00000380: 68c7 a03c a5e7 6bbf 84bb 81bd 92fc 533d
00000390: 4f4a 8cbe e091 0bbe b460 1fbe a100 6ebf
000003a0: dc38 eb3d b408 e5be 034c 123e 4d64 adbd
000003b0: 6de6 213d d88c bbbf df25 c23d 3bb6 66bf
000003c0: ddea 943d 7f04 bd3c 6101 fd3c 44f0 a7bd
000003d0: ad08 b7bd f5ed 17be 0241 513c 077a 88bc
000003e0: 4588 32be 65b9 1ebf a3cf 88bd 6502 29be
000003f0: 52bd 0abf 9ca9 d0be 9c3a 1bbe c9ed 9a3c
-0.021713333 -0.018924136 0.07115005 -0.042624097 0.07323719 -0.8509132 -0.10125751 -0.008778555
-0.8320394 -0.338745 -0.80636394 -1.6518401 -1.0587838 -0.7333728 -0.8413608 0.07709823
-1.0220445 -1.7002174 -1.6785586 -1.077055 -2.636548 -0.58946466 -1.4550581 -2.240208
-0.0060129277 0.087538384 -0.010320969 0.04055745 -0.0214791 0.03926751 0.05960933 0.050597157
-0.25498343 -0.38021898 -0.25739312 -0.1482718 -0.16676442 0.5650943 0.20966215 -0.029108152
0.73533636 0.43889275 -0.6447734 -0.43554378 0.6200392 0.21199846 -0.5803851 -1.3467975
-0.25819728 0.1134813 -0.10026946 0.046548747 0.008121849 0.08070201 -0.036332436 0.03977869
0.21216299 -0.4118328 -0.10087449 0.14791068 0.01996718 0.29452837 0.36315826 -0.30324343
0.21260786 0.09462909 0.20429851 -0.26886803 -0.31900308 0.0125801 -0.050507814 -0.6305595
0.105292596 0.14935498 0.0038239993 0.14117719 -0.041300885 0.062030826 0.28283563 -0.12666334
-0.9199278 -0.009576003 -0.081524156 0.05821087 -0.15375267 0.12831187 -0.045433845 0.061150648
-0.15065448 0.046034563 -0.22859067 0.022202998 -0.14751314 0.103445426 0.18207675 0.2833008
0.118736275 0.08382692 -0.5361694 -0.10970997 -0.53956574 -0.46314746 0.24066372 -0.0433865
-1.6740648 -0.11260916 -0.29450083 -0.019161562 -0.3337867 -0.20419738 -1.0778258 -0.1306615
-0.06271939 0.16370218 -0.0042821676 -0.031502903 -0.3666459 0.111538164 0.07958955 -0.63906044
-0.011358619 0.021220772 -0.4648764 -0.22973052 -0.52134943 -0.6563657 -0.55739003 -0.7092174
-1.0356048 -0.044760257 -0.6637523 -0.02282665 -1.0727006 -0.5584911 -0.92010003 -0.3622918
-0.037265047 -0.011682559 -0.7492037 0.10523888 -0.10963951 -0.11936415 0.23095429 -0.6706341
-0.12165436 0.09866263 0.060130637 0.041343506 -0.11358124 0.102473244 -0.3857184 -0.6976998
-0.27627677 -0.07612997 0.13158077 -0.18556549 -0.38244066 0.18939647 -0.49769777 0.03954807
-0.046487432 -0.050729495 -0.02533393 -0.00559872 0.33180252 -0.17918013 -0.9856576 0.12789242
-0.18253542 -0.009752567 -0.15861101 0.042175774 -0.051119797 0.12085555 -0.8556482 -0.27828088
-0.6620862 0.00798253 0.18268168 -0.24641487 -0.7515474 -0.02891086 -1.286405 -0.002592897
-0.13250501 0.0894962 -0.0075829206 -0.3148286 -0.0018997438 -0.09273853 -0.45374912 -0.052109152
-0.10152109 -0.039428357 -0.9018131 0.060464848 -0.020330349 0.00798684 -0.1618034 -0.09220045
-0.2944556 0.20521107 0.0673086 -0.06944345 -0.27494374 -0.061881278 -0.8793189 0.047673058
-0.13949493 0.22706872 0.059048906 -0.083983995 0.037812565 0.19641204 -0.014438283 -0.266435
0.03274597 0.015714098 -0.056255087 -0.027933054 -0.05938198 -0.061795622 0.058800373 0.023014938
0.019626334 -0.92150337 -0.06334594 0.05175454 -0.27400443 -0.13629866 -0.15564233 -0.9296971
0.114854544 -0.44733202 0.14286809 -0.084663965 0.03952639 -1.4652357 0.094798796 -0.9012181
0.07271359 0.023073433 0.030884447 -0.08200124 -0.08937202 -0.14836867 0.012771847 -0.01665975
-0.17434795 -0.6200164 -0.066802286 -0.1650482 -0.5419513 -0.40754402 -0.15159076 0.018912213

sequential/conv2d_2/Conv2D_bias f4 [8]
00000000: 9646 1e3f 7f36 7a40 9760 1340 8f3b 7b40
00000010: 9b85 5bbf ed1b e1bf efa0 d03e cfba 27c0
0.61826456 3.9095762 2.3027704 3.9255102 -0.8575074 -1.7586647 0.40747783 -2.620777

sequential/conv2d_3/Conv2D/ReadVariableOp i1 [16, 3, 3, 8] scale=0.022126937 zero_point=0
00000000: d9ed e6f8 f6f2 e9f5 f600 ff02 fdc0 d3fd
00000010: f6f9 fce0 f509 ee05 1806 f40a eaf2 ef09
00000020: fe04 0106 01d3 fafc fd07 ffda 0a0e f90a
00000030: fb06 fa00 f4ef 0002 f606 ffff 00f6 f4f5
00000040: df09 06ee 0409 d8ff 08f8 f6d3 d8ee f2e9
00000050: 05fd 01fb fbf5 02ff 08e7 e50d 270c 0efd
00000060: 1606 01fd faf2 fa0c 02e5 ff00 fffe ece2
00000070: fadf f0be 150f d804 0603 03fe fbfa fb01
00000080: ffef 0400 fe05 fe02 f7da 0a05 fcf6 0801
00000090: 01f2 eefb ff06 0207 f302 e802 fcfa f102
000000a0: fffc d9ec 05bd add0 fde7 f3e8 08fb 050a
000000b0: f7f5 fdfe 02f9 0806 0401 de1a e8dd 11fb
000000c0: 04fa fc01 fafb ff05 03f5 fffa 0506 06fd
000000d0: 0ae3 1307 030b 0704 fae9 0001 fe0c fbf9
000000e0: fefd 01fd 0204 e8fc eff8 e8e9 1607 ee0b
000000f0: 0805 04e8 fef3 08ff 0908 fffd ff05 0ffb
-0.86295056 -0.4204118 -0.5753004 -0.1770155 -0.22126937 -0.3097771 -0.50891954 -0.24339631
-0.22126937 0.0 -0.022126937 0.044253875 -0.06638081 -1.416124 -0.99571216 -0.06638081
-0.22126937 -0.15488856 -0.08850775 -0.708062 -0.24339631 0.19914244 -0.39828488 0.110634685
0.5310465 0.13276163 -0.26552325 0.22126937 -0.48679262 -0.3097771 -0.37615794 0.19914244
-0.044253875 0.08850775 0.022126937 0.13276163 0.022126937 -0.99571216 -0.13276163 -0.08850775
-0.06638081 0.15488856 -0.022126937 -0.8408236 0.22126937 0.3097771 -0.15488856 0.22126937
-0.110634685 0.13276163 -0.13276163 0.0 -0.26552325 -0.37615794 0.0 0.044253875
-0.22126937 0.13276163 -0.022126937 -0.022126937 0.0 -0.22126937 -0.26552325 -0.24339631
-0.7301889 0.19914244 0.13276163 -0.39828488 0.08850775 0.19914244 -0.8850775 -0.022126937
0.1770155 -0.1770155 -0.22126937 -0.99571216 -0.8850775 -0.39828488 -0.3097771 -0.50891954
0.110634685 -0.06638081 0.022126937 -0.110634685 -0.110634685 -0.24339631 0.044253875 -0.022126937
0.1770155 -0.5531734 -0.5974273 0.2876502 0.86295056 0.26552325 0.3097771 -0.06638081
0.48679262 0.13276163 0.022126937 -0.06638081 -0.13276163 -0.3097771 -0.13276163 0.26552325
0.044253875 -0.5974273 -0.022126937 0.0 -0.022126937 -0.044253875 -0.44253874 -0.6638081
-0.13276163 -0.7301889 -0.354031 -1.4603778 0.46466568 0.33190405 -0.8850775 0.08850775
0.13276163 0.06638081 0.06638081 -0.044253875 -0.110634685 -0.13276163 -0.110634685 0.022126937
-0.022126937 -0.37615794 0.08850775 0.0 -0.044253875 0.110634685 -0.044253875 0.044253875
-0.19914244 -0.8408236 0.22126937 0.110634685 -0.08850775 -0.22126937 0.1770155 0.022126937
0.022126937 -0.3097771 -0.39828488 -0.110634685 -0.022126937 0.13276163 0.044253875 0.15488856
-0.2876502 0.044253875 -0.5310465 0.044253875 -0.08850775 -0.13276163 -0.33190405 0.044253875
-0.022126937 -0.08850775 -0.86295056 -0.44253874 0.110634685 -1.4825048 -1.8365358 -1.062093
-0.06638081 -0.5531734 -0.2876502 -0.5310465 0.1770155 -0.110634685 0.110634685 0.22126937
-0.19914244 -0.24339631 -0.06638081 -0.044253875 0.044253875 -0.15488856 0.1770155 0.13276163
0.08850775 0.022126937 -0.7523159 0.5753004 -0.5310465 -0.7744428 0.37615794 -0.110634685
0.08850775 -0.13276163 -0.08850775 0.022126937 -0.13276163 -0.110634685 -0.022126937 0.110634685
0.06638081 -0.24339631 -0.022126937 -0.13276163 0.110634685 0.13276163 0.13276163 -0.06638081
0.22126937 -0.6416812 0.4204118 0.15488856 0.06638081 0.24339631 0.15488856 0.08850775
-0.13276163 -0.50891954 0.0 0.022126937 -0.044253875 0.26552325 -0.110634685 -0.15488856
-0.044253875 -0.06638081 0.022126937 -0.06638081 0.044253875 0.08850775 -0.5310465 -0.08850775
-0.37615794 -0.1770155 -0.5310465 -0.50891954 0.48679262 0.15488856 -0.39828488 0.24339631
0.1770155 0.110634685 0.08850775 -0.5310465 -0.044253875 -0.2876502 0.1770155 -0.022126937
0.19914244 0.1770155 -0.022126937 -0.06638081 -0.022126937 0.110634685 0.33190405 -0.110634685

sequential/conv2d_3/Conv2D_bias f4 [16]
00000000: 436d d63f a4ad f6bf 2a93 e5be f227 43be
00000010: 1259 00c0 26c5 1ebf f3b8 ee3e e353 10c0
00000020: 2b96 0e3e 8f45 093f cf4c d3bf 2e14 ba3f
00000030: 99ea 83bf daa1 d0be bc25 cbbf fa47 243f
1.6752094 -1.9271741 -0.4483884 -0.19058207 -2.0054364 -0.62019575 0.4662548 -2.25512
0.13924472 0.53621763 -1.6507815 1.4537408 -1.0305969 -0.40748483 -1.5870891 0.6417233

sequential/conv2d_4/Conv2D/ReadVariableOp i1 [16, 3, 3, 16] scale=0.017978152 zero_point=0
00000000: ff04 f8fc fbff 08f9 0108 fe07 04f9 0704
00000010: 000b fdfb ff0b 0801 fff5 0004 14f2 04fe
00000020: 05fc fafc fc00 0807 06f9 00f8 06ff 0403
00000030: 0203 0702 0801 0703 0005 0105 0303 fcfb
00000040: f1ea 0104 04f8 e0f1 fccf 09fc 0300 0af9
00000050: 0504 fefd fd02 fefd f800 fb04 06fb 0200
00000060: f900 fe08 04f8 fffd faff 0603 07fd fb00
00000070: dcdf d500 eabb deee fcf7 f904 def5 0105
00000080: 06ff f906 f9f8 fefe 05fc f901 fb06 00fa
00000090: fcf9 03fd 08ff fbfd 0307 faff fd02 0704
000000a0: d204 01f2 edeb 0000 09f3 e3d9 d304 09de
000000b0: 0103 0802 03ff 0102 0508 fd06 ff01 fefb
000000c0: 02fc fb00 fd02 fcfb fe05 0406 0507 0100
000000d0: e1ef f2f2 f006 05e7 08fc def1 0d0c f9ec
000000e0: 0000 0002 04fc fe07 fcfa fa06 08fd 00fb
000000f0: 05f8 0607 0601 fbfe 0002 f908 06ff 0706
-0.017978152 0.07191261 -0.14382522 -0.07191261 -0.08989076 -0.017978152 0.14382522 -0.12584707
0.017978152 0.14382522 -0.035956305 0.12584707 0.07191261 -0.12584707 0.12584707 0.07191261
0.0 0.19775967 -0.053934455 -0.08989076 -0.017978152 0.19775967 0.14382522 0.017978152
-0.017978152 -0.19775967 0.0 0.07191261 0.35956305 -0.25169414 0.07191261 -0.035956305
0.08989076 -0.07191261 -0.10786891 -0.07191261 -0.07191261 0.0 0.14382522 0.12584707
0.10786891 -0.12584707 0.0 -0.14382522 0.10786891 -0.017978152 0.07191261 0.053934455
0.035956305 0.053934455 0.12584707 0.035956305 0.14382522 0.017978152 0.12584707 0.053934455
0.0 0.08989076 0.017978152 0.08989076 0.053934455 0.053934455 -0.07191261 -0.08989076
-0.26967227 -0.39551935 0.017978152 0.07191261 0.07191261 -0.14382522 -0.5753009 -0.26967227
-0.07191261 -0.88092947 0.16180336 -0.07191261 0.053934455 0.0 0.17978153 -0.12584707
0.08989076 0.07191261 -0.035956305 -0.053934455 -0.053934455 0.035956305 -0.035956305 -0.053934455
-0.14382522 0.0 -0.08989076 0.07191261 0.10786891 -0.08989076 0.035956305 0.0
-0.12584707 0.0 -0.035956305 0.14382522 0.07191261 -0.14382522 -0.017978152 -0.053934455
-0.10786891 -0.017978152 0.10786891 0.053934455 0.12584707 -0.053934455 -0.08989076 0.0
-0.64721346 -0.593279 -0.77306056 0.0 -0.39551935 -1.2404925 -0.6112572 -0.32360673
-0.07191261 -0.16180336 -0.12584707 0.07191261 -0.6112572 -0.19775967 0.017978152 0.08989076
0.10786891 -0.017978152 -0.12584707 0.10786891 -0.12584707 -0.14382522 -0.035956305 -0.035956305
0.08989076 -0.07191261 -0.12584707 0.017978152 -0.08989076 0.10786891 0.0 -0.10786891
-0.07191261 -0.12584707 0.053934455 -0.053934455 0.14382522 -0.017978152 -0.08989076 -0.053934455
0.053934455 0.12584707 -0.10786891 -0.017978152 -0.053934455 0.035956305 0.12584707 0.07191261
-0.826995 0.07191261 0.017978152 -0.25169414 -0.3415849 -0.37754118 0.0 0.0
0.16180336 -0.23371598 -0.5213664 -0.7011479 -0.8090168 0.07191261 0.16180336 -0.6112572
0.017978152 0.053934455 0.14382522 0.035956305 0.053934455 -0.017978152 0.017978152 0.035956305
0.08989076 0.14382522 -0.053934455 0.10786891 -0.017978152 0.017978152 -0.035956305 -0.08989076
0.035956305 -0.07191261 -0.08989076 0.0 -0.053934455 0.035956305 -0.07191261 -0.08989076
-0.035956305 0.08989076 0.07191261 0.10786891 0.08989076 0.12584707 0.017978152 0.0
-0.55732274 -0.3056286 -0.25169414 -0.25169414 -0.28765044 0.10786891 0.08989076 -0.4494538
0.14382522 -0.07191261 -0.6112572 -0.26967227 0.23371598 0.21573782 -0.12584707 -0.35956305
0.0 0.0 0.0 0.035956305 0.07191261 -0.07191261 -0.035956305 0.12584707
-0.07191261 -0.10786891 -0.10786891 0.10786891 0.14382522 -0.053934455 0.0 -0.08989076
0.08989076 -0.14382522 0.10786891 0.12584707 0.10786891 0.017978152 -0.08989076 -0.035956305
0.0 0.035956305 -0.12584707 0.14382522 0.10786891 -0.017978152 0.12584707 0.10786891

sequential/conv2d_4/Conv2D_bias f4 [16]
00000000: cb84 45bf e025 b6bc 44e0 3640 bea0 5c40
00000010: ff4d 883f b44a f4bf 1e24 5bbe ea5e 9c3f
00000020: 258a c03f 7f4a 063f b0ee 123e 137c 5f3f
00000030: f719 5d40 c6dc 86bf fb71 72bf 0313 88bf
-0.7715575 -0.022234857 2.857438 3.447311 1.0648803 -1.9085298 -0.21400496 1.2216465
1.5042158 0.5245742 0.14348865 0.872987 3.4547098 -1.0536125 -0.9470517 -1.0630802

sequential/dense/MatMul/ReadVariableOp/transpose i1 [64, 80] scale=0.015911156 zero_point=0
00000000: aa16 1002 f1ef def9 effc fadc ddb3 fffb
00000010: 141e 11e6 e8fa e4f3 0df8 f5c9 e9ee d201
00000020: fa11 0e0d d1fe fcee f1f2 fbf5 e4fa cf06
00000030: f113 f30b f804 0316 06f3 f7f1 fbef e104
00000040: 04f7 d711 eef8 091a f7f9 0ee2 b80a f105
00000050: fbf6 f2f1 0bb2 e407 ecf3 effd 0ad3 f300
00000060: d8f7 f7e5 0b1b 05fe 08d8 13f3 f4e6 f1f6
00000070: fafe ede6 061a f30b fff0 09f4 f8fc f0f2
00000080: fdd2 e2f3 d919 e9fd f6ff 0de9 f0d5 ef06
00000090: 0403 e5f0 0c01 f7c3 ff01 d5cd d6fc 0501
000000a0: 15f9 c432 03f2 19f0 f20e faf8 1210 0ef9
000000b0: f405 05ef f6c8 feff 0708 fe03 f8d5 c308
000000c0: eef6 f914 f1f7 02fd 00f0 010a 15e1 dee5
000000d0: f6fe e51c efee 06f2 1bed 0508 1cc5 f5e6
000000e0: ff05 0805 05fc f814 04ec fe18 23f1 ef00
000000f0: fae1 ebff fef3 afff 061b d002 0e04 00f7
-1.3683594 0.35004544 0.2545785 0.031822313 -0.23866734 -0.27048966 -0.5409793 -0.111378096
-0.27048966 -0.063644625 -0.09546694 -0.57280165 -0.5568905 -1.225159 -0.015911156 -0.07955578
0.31822312 0.47733468 0.27048966 -0.41369006 -0.38186777 -0.09546694 -0.44551238 -0.20684503
0.20684503 -0.12728925 -0.17502272 -0.8751136 -0.3659566 -0.28640082 -0.7319132 0.015911156
-0.09546694 0.27048966 0.22275619 0.20684503 -0.7478244 -0.031822313 -0.063644625 -0.28640082
-0.23866734 -0.22275619 -0.07955578 -0.17502272 -0.44551238 -0.09546694 -0.77964664 0.09546694
-0.23866734 0.30231196 -0.20684503 0.17502272 -0.12728925 0.063644625 0.04773347 0.35004544
0.09546694 -0.20684503 -0.14320041 -0.23866734 -0.07955578 -0.27048966 -0.49324584 0.063644625
0.063644625 -0.14320041 -0.6523574 0.27048966 -0.28640082 -0.12728925 0.14320041 0.41369006
-0.14320041 -0.111378096 0.22275619 -0.47733468 -1.1456033 0.15911156 -0.23866734 0.07955578
-0.07955578 -0.15911156 -0.22275619 -0.23866734 0.17502272 -1.2410702 -0.44551238 0.111378096
-0.31822312 -0.20684503 -0.27048966 -0.04773347 0.15911156 -0.71600205 -0.20684503 0.0
-0.63644624 -0.14320041 -0.14320041 -0.42960122 0.17502272 0.42960122 0.07955578 -0.031822313
0.12728925 -0.63644624 0.30231196 -0.20684503 -0.19093388 -0.41369006 -0.23866734 -0.15911156
-0.09546694 -0.031822313 -0.30231196 -0.41369006 0.09546694 0.41369006 -0.20684503 0.17502272
-0.015911156 -0.2545785 0.14320041 -0.19093388 -0.12728925 -0.063644625 -0.2545785 -0.22275619
-0.04773347 -0.7319132 -0.47733468 -0.20684503 -0.6205351 0.3977789 -0.3659566 -0.04773347
-0.15911156 -0.015911156 0.20684503 -0.3659566 -0.2545785 -0.6841797 -0.27048966 0.09546694
0.063644625 0.04773347 -0.42960122 -0.2545785 0.19093388 0.015911156 -0.14320041 -0.9705805
-0.015911156 0.015911156 -0.6841797 -0.81146896 -0.66826856 -0.063644625 0.07955578 0.015911156
0.33413428 -0.111378096 -0.95466936 0.7955578 0.04773347 -0.22275619 0.3977789 -0.2545785
-0.22275619 0.22275619 -0.09546694 -0.12728925 0.28640082 0.2545785 0.22275619 -0.111378096
-0.19093388 0.07955578 0.07955578 -0.27048966 -0.15911156 -0.89102477 -0.031822313 -0.015911156
0.111378096 0.12728925 -0.031822313 0.04773347 -0.12728925 -0.6841797 -0.9705805 0.12728925
-0.28640082 -0.15911156 -0.111378096 0.31822312 -0.23866734 -0.14320041 0.031822313 -0.04773347
0.0 -0.2545785 0.015911156 0.15911156 0.33413428 -0.49324584 -0.5409793 -0.42960122
-0.15911156 -0.031822313 -0.42960122 0.44551238 -0.27048966 -0.28640082 0.09546694 -0.22275619
0.42960122 -0.30231196 0.07955578 0.12728925 0.44551238 -0.9387582 -0.17502272 -0.41369006
-0.015911156 0.07955578 0.12728925 0.07955578 0.07955578 -0.063644625 -0.12728925 0.31822312
0.063644625 -0.31822312 -0.031822313 0.38186777 0.5568905 -0.23866734 -0.27048966 0.0
-0.09546694 -0.49324584 -0.33413428 -0.015911156 -0.031822313 -0.20684503 -1.2888037 -0.015911156
0.09546694 0.42960122 -0.76373553 0.031822313 0.22275619 0.063644625 0.0 -0.14320041

sequential/dense/MatMul_bias f4 [64]
00000000: 42df 23bf cdbc 27bf fdce 2b40 4ea9 6f3f
00000010: 0f41 bd3f a76f 82be 8447 883f f3f8 863f
00000020: 7e8e 453d 7cb8 6e3e 05c1 97bf 3c22 af3e
00000030: fe9e 68bf 6822 60bf 5676 02bf 37bd 74bb
00000040: 6195 f63e 7069 823e 9cf5 983f b80e 923f
00000050: 2bda d73e bdcf 6fbd 9aad 013f 2f38 5dc0
00000060: 9e61 45be 74f6 87bf b90d 39bf b696 e53e
00000070: 540b 1e3f 3574 103f 5aa6 9fbf af68 cdbd
00000080: b0a2 9abf 4c9e 54be 481c 32bc 0427 a4be
00000090: a14c 743e 1924 43bf 59ec da3d 8bb6 9dbf
000000a0: f5c2 07bf 88aa 09bf 933e 113d 3dae a73e
000000b0: 27de 2f3f 289d 943f 8f20 4cbf f908 333f
000000c0: 6362 b93e a495 673f f3ed 88bf a2d0 12bf
000000d0: e9e7 583f 01e8 353d 6dfb d53f a9d6 fc3f
000000e0: 169d 933c 943e 55bf 8d55 7abf dd6b 06bf
000000f0: 01d2 8ebf 1641 b03f 349a 1a3f c2f7 a33c
-0.6401254 -0.6552246 2.6845086 0.93617713 1.4785479 -0.2547581 1.0646825 1.0544723
0.048231594 0.23312563 -1.185578 0.34205806 -0.908676 -0.875525 -0.50961816 -0.0037344226
0.48160842 0.25471067 1.1949954 1.1410742 0.42158636 -0.058547724 0.5065552 -3.4565542
-0.19275519 -1.0622087 -0.72286564 0.44841546 0.61736035 0.5642732 -1.2472641 -0.100297324
-1.2080898 -0.2076351 -0.010871001 -0.32061017 0.23857357 -0.76226956 0.10689611 -1.2321333
-0.53031856 -0.53775835 0.035460066 0.3275012 0.6869835 1.161046 -0.7973718 0.69935566
0.36207876 0.9046271 -1.0697616 -0.573496 0.84728867 0.04441071 1.6717354 1.9753009
0.01801924 -0.8329861 -0.9778679 -0.52508336 -1.1157838 1.3769863 0.60391545 0.020015601

sequential/dense_1/MatMul/ReadVariableOp/transpose i1 [32, 64] scale=0.009115928 zero_point=0
00000000: 01f0 ff07 e9fb 06d0 f801 b805 fd03 0cc5
00000010: 04d4 0002 03fc e9f0 fb05 00b8 09df 06ea
00000020: feff 07f2 03cc fcde f200 0405 04fe f2fe
00000030: 0905 00ed e6fe f2f8 08fe 05f0 ef07 06f3
00000040: fed3 0803 0cfc 0904 fde7 07e6 fb00 e803
00000050: dd06 f8fe f7ec 0306 ff04 fd0d fffa 0105
00000060: e4c7 e3eb f306 03fe ebfe fed0 01f4 f402
00000070: 03ef e808 07ca f80c ebfc f9f1 03fc fef4
00000080: f90e e2ff edfe 0bfd fb03 f901 b1bf 0205
00000090: 09b0 04f0 0602 00ee 00a1 d7fe fe01 bf05
000000a0: 0a08 f506 d6d5 0207 09ab e60d 040a 010c
000000b0: ea08 01f7 fc0e f6fa 01fb 0d04 d805 f909
000000c0: ee10 eae3 16f7 f3fc 0af0 05fb 00fd fb06
000000d0: f4f9 8bf8 0900 1307 f10e 00fd cefa 0405
000000e0: fffe d1ff d203 0106 0af5 0605 f1fd 1408
000000f0: b8d7 01de 1000 0812 ebf4 1ced 00ee ec01
0.009115928 -0.14585485 -0.009115928 0.063811496 -0.20966634 -0.04557964 0.05469557 -0.43756455
-0.07292742 0.009115928 -0.6563468 0.04557964 -0.027347784 0.027347784 0.10939114 -0.5378398
0.03646371 -0.4011008 0.0 0.018231856 0.027347784 -0.03646371 -0.20966634 -0.14585485
-0.04557964 0.04557964 0.0 -0.6563468 0.08204335 -0.30082563 0.05469557 -0.2005504
-0.018231856 -0.009115928 0.063811496 -0.12762299 0.027347784 -0.47402826 -0.03646371 -0.30994156
-0.12762299 0.0 0.03646371 0.04557964 0.03646371 -0.018231856 -0.12762299 -0.018231856
0.08204335 0.04557964 0.0 -0.17320263 -0.23701413 -0.018231856 -0.12762299 -0.07292742
0.07292742 -0.018231856 0.04557964 -0.14585485 -0.15497078 0.063811496 0.05469557 -0.118507065
-0.018231856 -0.41021675 0.07292742 0.027347784 0.10939114 -0.03646371 0.08204335 0.03646371
-0.027347784 -0.2278982 0.063811496 -0.23701413 -0.04557964 0.0 -0.21878228 0.027347784
-0.31905746 0.05469557 -0.07292742 -0.018231856 -0.08204335 -0.18231855 0.027347784 0.05469557
-0.009115928 0.03646371 -0.027347784 0.118507065 -0.009115928 -0.05469557 0.009115928 0.04557964
-0.25524598 -0.5196079 -0.26436192 -0.19143449 -0.118507065 0.05469557 0.027347784 -0.018231856
-0.19143449 -0.018231856 -0.018231856 -0.43756455 0.009115928 -0.10939114 -0.10939114 0.018231856
0.027347784 -0.15497078 -0.21878228 0.07292742 0.063811496 -0.4922601 -0.07292742 0.10939114
-0.19143449 -0.03646371 -0.063811496 -0.13673891 0.027347784 -0.03646371 -0.018231856 -0.10939114
-0.063811496 0.12762299 -0.27347782 -0.009115928 -0.17320263 -0.018231856 0.1002752 -0.027347784
-0.04557964 0.027347784 -0.063811496 0.009115928 -0.7201583 -0.5925353 0.018231856 0.04557964
0.08204335 -0.7292742 0.03646371 -0.14585485 0.05469557 0.018231856 0.0 -0.1640867
0.0 -0.86601317 -0.37375304 -0.018231856 -0.018231856 0.009115928 -0.5925353 0.04557964
0.09115928 0.07292742 -0.1002752 0.05469557 -0.38286898 -0.3919849 0.018231856 0.063811496
0.08204335 -0.7748539 -0.23701413 0.118507065 0.03646371 0.09115928 0.009115928 0.10939114
-0.2005504 0.07292742 0.009115928 -0.08204335 -0.03646371 0.12762299 -0.09115928 -0.05469557
0.009115928 -0.04557964 0.118507065 0.03646371 -0.3646371 0.04557964 -0.063811496 0.08204335
-0.1640867 0.14585485 -0.2005504 -0.26436192 0.2005504 -0.08204335 -0.118507065 -0.03646371
0.09115928 -0.14585485 0.04557964 -0.04557964 0.0 -0.027347784 -0.04557964 0.05469557
-0.10939114 -0.063811496 -1.0665636 -0.07292742 0.08204335 0.0 0.17320263 0.063811496
-0.13673891 0.12762299 0.0 -0.027347784 -0.4557964 -0.05469557 0.03646371 0.04557964
-0.009115928 -0.018231856 -0.42844862 -0.009115928 -0.41933268 0.027347784 0.009115928 0.05469557
0.09115928 -0.1002752 0.05469557 0.04557964 -0.13673891 -0.027347784 0.18231855 0.07292742
-0.6563468 -0.37375304 0.009115928 -0.30994156 0.14585485 0.0 0.07292742 0.1640867
-0.19143449 -0.10939114 0.25524598 -0.17320263 0.0 -0.1640867 -0.18231855 0.009115928

sequential/dense_1/MatMul_bias f4 [32]
00000000: 4cca 8c3f b9c8 913f ab0d 533f a1aa 323f
00000010: eac3 a63e 6344 903f a5cd 493d ff6e db3e
00000020: 4b6b 983e 1325 a43f 992c 3f3f 4f7b 6e3f
00000030: 40d8 233f df8b 963f 9c46 f73e 2648 c23f
00000040: ddc8 8b3f 5b66 953f f969 913f 40d4 da3e
00000050: f6fe dd3e 3d47 533f 7ace ab3f 644d ae3e
00000060: a708 813f d2cf 643f 0a1b 283f ca7e c63f
00000070: 7c95 053f 05f7 ca3f 17cb 8e3f e066 8c3f
1.0999236 1.1389381 0.8244273 0.6979161 0.32571346 1.127087 0.049268384 0.4285812
0.29769358 1.2823814 0.74677426 0.93156904 0.64001846 1.1761435 0.48296058 1.5178268
1.0920674 1.1671861 1.1360465 0.4274006 0.43358582 0.82530576 1.3422387 0.3404342
1.0080765 0.8937961 0.6566626 1.5507443 0.5218122 1.5856634 1.1155728 1.0968895

sequential/dense_2/MatMul/ReadVariableOp/transpose f4 [10, 32]
00000000: 6a09 143e 6544 22be 5fdd bebd 4561 38be
00000010: d8f5 d5be 7101 92bd eb54 16be 8542 debd
00000020: ed5d e7bc 2e20 703d b037 29be 8688 8e3d
00000030: 2d8d 373e 390d 9cbc 967f a33d 9094 69bd
00000040: be96 143e d81b 773e 1a7c 93bd d2fd 073e
00000050: 1811 f13c 1826 34bd e74b 61be 5823 343e
00000060: 85de cdbd 9c8a 53bc bf20 79be 35d3 a6bd
00000070: ed38 ee3d 2b14 003e 8885 03be a529 87be
00000080: 351a d53d 692c 88be 9cf5 f63d 90a9 09bf
00000090: 270c 90bd 6b08 3fbe a17b b3be 3c46 a3be
000000a0: c74a 46be 8f23 c13d c2cb 1dbd f45c ec3d
000000b0: baba 5bbe 5829 343e dd16 50be 0dc5 00be
000000c0: f61a cbbd b747 4a3e d94e 013e a47c a9be
000000d0: 76f2 84be 3426 a2be 012f 8fbe d1a8 a33c
000000e0: 47fe a0bd 537d b53d 769a b9bd 9c9c 3abe
000000f0: 4e54 6c3e 90f2 81be a8ae babd 39d9 c33d
00000100: ea5d 8ebe 41ed 083e 4f42 3fbe b8e0 69bd
00000110: ba87 32be 3f37 6fbe 406c 0b3e 541e 2cbe
00000120: e43a c9bd e880 2b3a 19bd 0e3e b71f b23d
00000130: 92c6 263e ce62 a9bc c536 133e c4ed 4bbe
00000140: 1b30 a63d ee6b 7abe a23a 753d 0d80 d93b
00000150: 11e0 a33d b2a3 0c3e ce4c 9dbd ca00 ff3d
00000160: 4fd3 57be 66ca 503d 921e 373d fde6 2fbd
00000170: f6d2 63be a93f 57be 900d 6e3d 2e35 073e
00000180: fdd7 22bf bd62 f93d 8a05 94bd 0d64 1cbe
00000190: 6451 c03d f481 15be 299c 003e 31ff 84be
000001a0: 21be 1b3c 8c5b ae3d a1fe 513d eaf0 c03c
000001b0: 1466 4d3d b181 94bd 68f4 743d 2236 7ebe
000001c0: 8b25 b0bc 170e 3cbf cc8c f43d ce0a c33d
000001d0: 842d 933d 2cb9 303e 2cde 78be c759 b13d
000001e0: b241 42be 350f 92bc be4b ec3c fb60 563d
000001f0: b981 a93d 1d5b a6be 34dd 0c3e 4780 de3d
00000200: 19d3 98be 6132 57be 8ea3 fe3d cee0 b0bd
00000210: df3c 4a3d b2d4 09be dce1 f03d 0884 6bbe
00000220: dd24 76bc 0a38 06be ef6f d83d c377 19be
00000230: c3b3 0cbe 7102 e73d b85a 193e a674 d33d
00000240: 099c a0bc 39c6 12be fa63 ec3d f18a f23d
00000250: 138a 6cbe db3c 2abd cf6a 8dbe ed12 6abd
00000260: f74d 07be fbe8 703d a82c 903c bac8 ccbd
00000270: ff13 763e 7c2d 013e ae6b 1c3e 5beb 53be
00000280: 5634 ac3d 73af 06be 5791 1fbd e802 6abe
00000290: d11e 5c3d cecb 0abe 3934 bb3d fa9e 63be
000002a0: cedb 30be bd8f 533d 7933 c5bd ac38 e8bd
000002b0: fa55 16be e3f0 013d a6b7 213e ceae c13d
000002c0: 98d5 173e 341d 6c3d f76c 86bd 7de4 123e
000002d0: 0987 febd 1a9b 023e f422 95bd 8909 2a3e
000002e0: 417c 41be 989b 47bd 6c7e 28be 793b 753d
000002f0: de78 7e3e d579 003e 8fb4 8c3d dab4 50be
00000300: c3e8 063e f681 a6be 454a bb3d abd8 81be
00000310: f755 6fbe 2b84 f43b 9ced 77be 540f 1dbe
00000320: 807c 163c 87cc 83bd 4397 cabe 22cf 8339
00000330: efd0 303e ff12 213e 2df2 f63c 427a c93d
00000340: ce5f 653d a01e 703e 0c20 edbd a025 0b3e
00000350: 95fe 42bd a7f5 9e3d 1af5 a0be a333 003e
00000360: f45b 4fbe 3713 b63d a73c 83be c966 953d
00000370: 7e3e 803c e8f5 4c3d a930 a2bd f225 e7bc
00000380: e480 c2be b1d1 263d fc94 cc3d d4f7 4fbe
00000390: 2d0b 4f3d 118e 8abe b4de b7bd 2a57 02be
000003a0: 6ce9 5c3c 519c 5dbd ba5c 0a3e 1c6f cf3d
000003b0: 6f82 2dbe 4fd5 063e 701b 71bc 46cd c2be
000003c0: c312 6ebe e94c 9bbe ace7 023e e80f b9be
000003d0: b113 103b 9e6c 5fbd 73dc c4bd 0810 28be
000003e0: c40f 8fbd afd4 ffbd 3e90 393d 276f b5be
000003f0: 1e77 083c cb36 d8be 3cf0 933d f837 da3d
0.14456716 -0.15846403 -0.09319567 -0.18005855 -0.41789126 -0.07129181 -0.14680831 -0.10852531
-0.02824303 0.05862444 -0.1652515 0.069596335 0.17924948 -0.019049274 0.079833195 -0.057026446
0.14510629 0.24131715 -0.07201405 0.13280419 0.029427096 -0.04398164 -0.2200161 0.17591608
-0.10052208 -0.012911465 -0.24328898 -0.08145753 0.116319515 0.12507693 -0.12843907 -0.2639896
0.10405389 -0.26596382 0.12058565 -0.53774357 -0.07033568 -0.18655555 -0.3505526 -0.31889522
-0.19364463 0.094306104 -0.038524397 0.11541167 -0.2145795 0.17593896 -0.20321222 -0.12575169
-0.09917252 0.1975392 0.12627734 -0.33102906 -0.25966233 -0.31669772 -0.2796555 0.019977959
-0.078609996 0.08861794 -0.09062664 -0.18223804 0.23079035 -0.25380373 -0.09115344 0.09562916
-0.27806026 0.13371755 -0.18677638 -0.057099074 -0.17434588 -0.23360918 0.13615513 -0.16808444
-0.098256856 0.0006542341 0.13939323 0.086974554 0.16286686 -0.020676997 0.14376362 -0.19914919
0.08114644 -0.24455234 0.05987037 0.0066375793 0.08001722 0.1373432 -0.07680665 0.124513224
-0.21076702 0.050974272 0.04470689 -0.042944897 -0.22248444 -0.21020378 0.058118403 0.1320388
-0.6361082 0.12177036 -0.07227619 -0.15272541 0.09390524 -0.14600354 0.1255957 -0.25975946
0.0095057795 0.08513555 0.051268224 0.023552377 0.050146177 -0.07251299 0.059803396 -0.24825338
-0.021502277 -0.73459 0.119409174 0.09523545 0.07186416 0.17258137 -0.24303502 0.08659702
-0.18970373 -0.017829517 0.02884471 0.05233858 0.08276696 -0.3249139 0.13756257 0.10864311
-0.29848555 -0.21015312 0.12433539 -0.08636628 0.049374457 -0.13460043 0.11761829 -0.22999585
-0.015023437 -0.13107315 0.10568225 -0.14987092 -0.13740449 0.112797625 0.14976013 0.10324983
-0.019605653 -0.14333428 0.115425065 0.11842907 -0.23099546 -0.041561943 -0.2762055 -0.057146955
-0.13213335 0.058815937 0.017599419 -0.09999223 0.24031065 0.12615007 0.15275452 -0.2069525
0.0840842 -0.13152866 -0.038956966 -0.22852671 0.053740326 -0.13554308 0.0914082 -0.22228613
-0.17271349 0.05165075 -0.09628958 -0.11338934 -0.14681235 0.031723868 0.15792713 0.094571695
0.14827573 0.057645038 -0.06563752 0.14344974 -0.124281 0.12754479 -0.072820574 0.166052
-0.18895055 -0.04873237 -0.16454476 0.05987117 0.24850795 0.12546475 0.06870376 -0.2038149
0.13174729 -0.32521027 0.09145025 -0.25360617 -0.23372637 0.0074620447 -0.24211735 -0.15337878
0.009184957 -0.06435495 -0.3956853 0.00025140593 0.17267202 0.15729903 0.030144775 0.09837772
0.05599957 0.23449183 -0.11578378 0.13588572 -0.04760607 0.07761698 -0.31436998 0.12519698
-0.20249921 0.08890384 -0.25632212 0.07294995 0.015654799 0.050039202 -0.079194374 -0.028216336
-0.3798896 0.04072732 0.09989354 -0.20309383 0.050547767 -0.27061513 -0.08978024 -0.12728563
0.0134833865 -0.054104153 0.13511935 0.10128614 -0.16944288 0.13167308 -0.014716014 -0.38047236
-0.23249345 -0.30332115 0.12783688 -0.36144948 0.0021984393 -0.054546945 -0.0961236 -0.16412365
-0.06985429 -0.12491738 0.045303576 -0.35436365 0.008329181 -0.42229304 0.072235554 0.106552064

sequential/dense_2/MatMul_bias f4 [10]
00000000: 4f58 3b3e 7145 533f 1432 34bf f0b4 81be
00000010: 5c94 acbe 4e70 7bbe 0f05 993e dad0 2abf
00000020: e4ce 8f3d bfda 47be
0.18295406 0.82527834 -0.70388913 -0.25333357 -0.3370694 -0.2455456 0.29886672 -0.6672493
0.07021883 -0.19517039
